checkpoints/best_model.pth (torch, 105175 bytes, 99 tensors)

ini_net.0.weight f4 [20, 2]
000000 d5 a9 40 3e 96 5e 05 3e 0b 17 90 3d ea bd 32 3d
       0.18814786 0.13024363 0.07035645 0.043638147
000010 ce 4e 9a 3e fd bc 9f bd a3 8b 8d 3e 6d cb 82 3e
       0.30138248 -0.077997185 0.27645597 0.25545827
000020 11 73 0b bf f9 d5 09 3e 70 10 12 be d4 05 0e be
       -0.5447245 0.1346053 -0.14264083 -0.13869411
000030 ee 38 c8 be af 8a 1f bf b6 5a 6b be c1 6a 44 3e
       -0.39105934 -0.6232099 -0.22983822 0.19181348
000040 fb d4 a4 3e 83 15 c7 bd 18 9c 6b 3e 74 9c c2 3d
       0.3219374 -0.097209 0.23008764 0.09502497
000050 f1 13 b2 bd 6e 32 34 be 77 e3 81 3c f9 cb 96 3e
       -0.0869521 -0.17597362 0.015855534 0.29452494
000060 27 bd 3c be e1 ea e0 3e a0 a5 a3 3e aa c9 dd 3e
       -0.18431531 0.43929198 0.319623 0.4331792
000070 91 c9 d6 3e ad fe 9d 3e 85 95 4f 3e f5 9c 0f 3e
       0.41950658 0.30858365 0.20271881 0.14024718
000080 83 ab 3e 3e b1 89 52 3d a3 da 2e 3d 1a 30 2e 3d
       0.18620114 0.051400844 0.042688977 0.042526342
000090 4e 31 8a 3e 52 08 85 be d2 5e 8f 3e 97 10 ed 3d
       0.26990741 -0.2598291 0.2800203 0.1157543

ini_net.0.bias f4 [20]
000000 21 d7 33 3e 68 ee f3 3d 46 80 ff 3d a3 08 0b 3e
       0.17562534 0.11910707 0.12475638 0.13577513
000010 8e 33 09 3e 91 84 e6 3d 52 ca f7 3d 20 51 06 3e
       0.13398573 0.11255754 0.120991364 0.13116884
000020 e4 b2 73 3d 54 73 0c 3e d9 85 03 3e 17 ce be bd
       0.059496775 0.13715869 0.12844028 -0.09316652
000030 fb 82 9d bd c4 5d 27 3e c1 c8 00 be c9 75 0a 3e
       -0.07690998 0.16344362 -0.12576582 0.13521494
000040 94 a0 06 3e 7a 05 bc 3d 99 e3 c7 bd 16 7c 9e bd
       0.13147193 0.09180732 -0.09760208 -0.07738511

net.0.weight f4 [20, 20]
000000 5c 70 42 be db f9 50 be c0 95 a1 3e 67 6b 12 3d
       -0.18988174 -0.20407812 0.31559563 0.035746958
000010 8b d5 f1 bc 94 16 b0 bb ae 1a 33 3e 16 a9 fc 3e
       -0.02952077 -0.0053737853 0.17490646 0.49347752
000020 cf 19 86 3e 58 64 69 3e b5 6f 45 be e7 f7 33 be
       0.26191565 0.22792184 -0.19280894 -0.17575036
000030 7c ad b4 3d 95 be f6 3e 62 a4 74 3e 6c 77 7e 3e
       0.08822152 0.48192278 0.23890832 0.24850243
000040 52 1c bf 3e 39 20 f5 3e 14 5b 08 be d5 6e 1c 3e
       0.37326294 0.47876146 -0.13315994 0.15276654
000050 de 7d 75 3d 5c 83 bd 3e 56 6f 8a bd c9 76 af 3e
       0.05993449 0.37014282 -0.06759517 0.34270313
000060 47 55 6b 3e e7 8f 19 3e c1 1a d9 3e 08 d6 a1 3e
       0.2298175 0.149963 0.42403224 0.31608605
000070 e2 e8 0c 3f 85 36 e8 3c 80 a9 22 3c 1c 9b 7c bd
       0.5504285 0.02834631 0.009928107 -0.06167136
000080 ff 87 fd 3d 11 4f ee 3e 0a 2f e8 bd 6f 03 62 3e
       0.12379455 0.46544698 -0.11337097 0.22071622
000090 62 44 0d 3e f9 a6 e0 3d 05 23 8a be 48 4e 05 3d
       0.13795617 0.109693475 -0.26979843 0.032545358
0000a0 8b 09 29 3e b1 a8 68 3e 52 44 8e be 06 e6 26 3e
       0.16507547 0.227206 -0.277865 0.16298684
0000b0 25 02 13 3e 86 d5 a0 3e 54 c0 da be fd 06 10 bf
       0.14356287 0.31412905 -0.4272486 -0.56260663
0000c0 78 49 02 3e 59 a3 04 be da 03 c4 be a3 e3 ee 3e
       0.12723339 -0.12952937 -0.38284189 0.46658048
0000d0 db 3e 33 3e c8 62 f8 3d ab ac af 3e 35 5c 01 bf
       0.17504446 0.12128216 0.34311423 -0.5053132
0000e0 1c e4 28 3e 8b 3d 3a be 7b 49 51 be 60 10 94 3e
       0.16493267 -0.1818754 -0.20438187 0.28918743
0000f0 f1 08 d3 3e fe d8 e8 3d d3 74 e3 3c 94 63 de bd
       0.4121776 0.11369513 0.027765667 -0.10858837
000100 87 db bb 3e ae 28 c3 3e 4c 5d 0e 3e a4 ce be 3e
       0.36690924 0.38116974 0.13902777 0.3726703
000110 62 5f 28 3c bb 5f 1b be 8a 14 92 3e 8f 85 6e 3e
       0.010276647 -0.15173237 0.28531295 0.23293136
000120 f0 0f 0e be 24 cd 90 3e 2a 39 bb 3d 0c 12 55 3d
       -0.13873267 0.2828151 0.091417626 0.052019164
000130 bd a0 72 3e 2e 08 6a 3c d9 50 4c be 8d bc 7a be
       0.2369413 0.014284177 -0.19952716 -0.24485989
000140 4b 2a 7d bc 7c 43 0c 3e 3a 7f 47 be 1f 8f 3c be
       -0.015451978 0.13697618 -0.19482127 -0.18413971
000150 e5 11 26 be fc 4e a3 be b8 5d 4b 3d c4 9c 92 3d
       -0.16217764 -0.31896198 0.049649924 0.07158807
000160 29 01 09 bf 44 17 df bd c3 d9 cc bc 08 d7 76 be
       -0.53517395 -0.108931094 -0.02500618 -0.24105465
000170 ad 13 b7 be 0a cf 65 bd fa 8c 82 be 8c a4 96 be
       -0.357572 -0.05610565 -0.25498182 -0.29422414
000180 83 7b 7f 3e b9 4c a0 bd ec 12 00 be 3e c0 dd 3e
       0.2494946 -0.07827134 -0.12507218 0.43310732
000190 8d 37 e4 be a9 a5 35 be b8 2e 89 3e fe 0b 7e be
       -0.44573632 -0.17738976 0.26793456 -0.24809262
0001a0 cd 21 d1 be 9d 21 03 bf 9a fa 71 bd 89 6b 53 3e
       -0.408461 -0.51223165 -0.059076883 0.2064649
0001b0 83 46 86 be 1e 08 a2 be 83 0d 9f be cf a8 01 3e
       -0.2622567 -0.31646818 -0.31064996 0.12662052
0001c0 89 4a c3 3e 83 bb d8 3c 7d 83 41 3e 5f 8c 4f be
       0.38142803 0.0264566 0.18897815 -0.20268391
0001d0 9f a6 9b 3c 1d f7 92 be 71 20 5c 3e 99 15 bf 3e
       0.01900035 -0.28704157 0.2149675 0.37321165
0001e0 6b ba fd 39 19 25 bd 3e 39 48 8b bb 66 1f 7b be
       0.00048394813 0.36942366 -0.004250553 -0.24523696
0001f0 7f ea a5 3e de b8 68 3e d9 10 11 3f 61 2e ac bd
       0.3240547 0.22726771 0.5666633 -0.084072836
000200 5d 2d 98 bd 7d 76 8a 3e 84 2d 9c 3e 53 7c 98 be
       -0.07430527 0.27043524 0.30503476 -0.29782352
000210 2d 50 ca be 5c cf 6e 3e ef 59 c5 3d c6 55 84 be
       -0.39514294 0.23321289 0.09636294 -0.2584669
000220 40 bd ad 3e 06 4e 0e 3f 32 36 e0 be 6c e0 0d 3d
       0.3393345 0.55587804 -0.43791348 0.034637854
000230 94 33 ca 3e f8 ec a2 be ce bf 69 be 47 81 64 bd
       0.39492476 -0.31821418 -0.22827074 -0.05578735
000240 5e e6 ad 3e b2 64 fc 3d c6 e4 a2 3e ff 59 0b be
       0.3396482 0.123238936 0.31815165 -0.1360855
000250 ca be 1a 3e 3d db 64 3e a9 f4 8b 3e 67 ef ab be
       0.15111843 0.22349258 0.27335098 -0.33581087
000260 99 bd 7f 3c d3 27 4f 3e 83 40 74 be c8 6b 81 3e
       0.015609168 0.20230035 -0.23852734 0.25277543
000270 07 9a a9 bd 70 31 d9 3e 6a b5 47 3e 08 3e 24 3e
       -0.082813315 0.4242053 0.19502798 0.16039288
000280 7e 68 a5 bd 43 6b e7 be fe fd bc 3d e8 50 da be
       -0.08076571 -0.45199022 0.09228133 -0.42639852
000290 31 1f 49 3b 6a 0f ce be 91 d1 14 be f4 ef 92 be
       0.0030688758 -0.40246135 -0.14533068 -0.28698695
0002a0 4c f4 51 3d ca 9f f3 bd f5 b7 6d be 89 e9 60 3e
       0.05125837 -0.11895712 -0.23214705 0.21964087
0002b0 6a 4d 85 bc 63 64 de bd 92 9d 17 3d 11 ad c3 3e
       -0.016272265 -0.10858991 0.037015505 0.38217977
0002c0 6a 2f d4 be 78 2a 7a be 53 60 ef 3e c4 b8 89 3e
       -0.41442424 -0.24430263 0.46753177 0.26898777
0002d0 c3 ab 82 be 8e 25 7c 3e 8a 7c 87 3e c1 c6 e8 3d
       -0.2552167 0.24623701 0.26462203 0.11366034
0002e0 89 f2 90 bd 9d 5c 07 bd ff 45 fb 3e 30 9e c5 3e
       -0.0707751 -0.033047307 0.4907684 0.3859725
0002f0 15 5e 08 3e 87 cf ad 3d 83 0f c6 3e a7 89 b6 bd
       0.1331714 0.08486848 0.3868371 -0.08912974
000300 d6 0c b4 3d 31 f3 c1 3e 85 f2 76 bd a8 ea ad be
       0.08791511 0.37880853 -0.06028988 -0.3396809
000310 3b f1 74 3e 0b 46 45 be e3 b8 ad be 73 39 ea be
       0.23920147 -0.19265 -0.3393012 -0.45746955
000320 77 a7 18 3e ea be 16 bd 66 9b 80 be 91 88 d2 bd
       0.14907633 -0.036803164 -0.2511856 -0.10279954
000330 89 1e 74 be 3e 23 20 bf df 25 a7 be f5 71 a8 bd
       -0.23839773 -0.62553775 -0.3264608 -0.082248606
000340 ad 21 dd be 04 a0 01 bf ce 3f 82 3e 1b 4e ae 3e
       -0.43189755 -0.5063479 0.25439304 0.34043965
000350 9b 42 66 be 83 fe 7d 3d 62 6f 02 3e 5e fc cb be
       -0.22486345 0.0620103 0.12737802 -0.39840978
000360 0d 1c cb be 35 17 ad be 52 63 ad 3e 38 43 f7 3e
       -0.3966984 -0.33806768 0.33864838 0.4829347
000370 cc 53 f5 bc 0f fd 02 3e 40 33 b4 3e 48 09 ea 3e
       -0.029947184 0.12791847 0.3519535 0.45710206
000380 eb ca ea 3d 5d 55 4f 3e 89 a4 82 bd 43 da b6 3e
       0.11464485 0.20247407 -0.06379039 0.35713395
000390 ac 61 6d bd d8 bc b5 3e ed 52 b0 3e cb d2 c8 be
       -0.057954475 0.3549564 0.34438267 -0.39223322
0003a0 57 87 93 3c e9 9a 40 be 3c b4 89 3d a2 d7 52 be
       0.018008871 -0.18809094 0.0672383 -0.2059007
0003b0 46 e8 6b 3e 65 87 88 be 34 2d 88 3e c0 42 39 3e
       0.23037824 -0.26665798 0.26596987 0.1809187
0003c0 70 18 ae 3d 31 db de 3d c5 7d 8a be 34 5e 5c 3d
       0.08500755 0.10881651 -0.2704908 0.053800777
0003d0 86 9b 84 3d e1 45 78 be b1 6f 68 3e 44 f9 3b 3e
       0.06474976 -0.24245407 0.22698857 0.18356806
0003e0 0e 4b 68 3d 23 62 7d be 41 cc 5e 3e 2f 73 fa 3d
       0.056712203 -0.24744467 0.21757604 0.12229001
0003f0 0c 16 49 be 28 f5 9c bd 61 38 d9 be 65 67 47 3d
       -0.19637316 -0.07663947 -0.42425826 0.04868259

net.0.bias f4 [20]
000000 eb 9a f0 3d 0e 55 ea 3d 50 95 f4 bd 76 df ae 3d
       0.11748298 0.11442004 -0.119425416 0.085387155
000010 50 fc ab bd 51 a6 8f bd 7c 2c f6 3d fc b9 de 3d
       -0.08397734 -0.07014144 0.120202035 0.108753175
000020 b5 7c ae bd 59 7b d5 3d c4 a8 aa bd 42 05 ba 3d
       -0.0851988 0.10423917 -0.08332971 0.09083034
000030 ba 55 a3 bd 2f 99 d7 3d 88 0f d9 3d 5b 76 d8 bd
       -0.079753354 0.10527264 0.105986655 -0.105694495
000040 be de 06 3e b8 84 bc 3d 9b fc 9e bd a5 0a da 3d
       0.13170907 0.092050016 -0.077630244 0.106465615

net.2.weight f4 [20, 20]
000000 9e eb 06 3e 46 6d 81 3e fa e2 5a be 78 09 dc 3d
       0.13175818 0.25278682 -0.21375647 0.107439935
000010 df 5e a5 3d 41 27 a5 3e a6 c3 dc be 80 3a 60 3c
       0.08074736 0.3225651 -0.43118018 0.0136858225
000020 0d 79 78 3e 88 b2 7f be e5 d9 c9 bd 10 f7 9c bc
       0.24264927 -0.24970448 -0.09856013 -0.019160777
000030 a0 f4 0d be c3 0e ce be 83 0d 82 3e 67 9d 7e 3d
       -0.13862848 -0.40245637 0.25400934 0.06216183
000040 31 b9 5f be a2 4b c0 be 6d b7 d7 bd ca 1e 3a be
       -0.21847989 -0.37557703 -0.105330326 -0.18175808
000050 13 0f aa be 45 56 a8 3d e5 c0 05 3d bd d5 4d 3e
       -0.33214626 0.082195796 0.03265466 0.20101066
000060 60 58 e5 3e 13 1b c5 3e 79 49 da be 85 eb 4c be
       0.44793987 0.38497218 -0.4263418 -0.20011719
000070 47 8a 81 3e 5c 45 aa be 34 14 80 3e bf 6f 01 bf
       0.2530081 -0.33256042 0.25015414 -0.50561136
000080 f3 ab 01 bd 14 ab 9e be 2c eb 3a be 72 ef 45 be
       -0.031658124 -0.30989897 -0.18253773 -0.19329622
000090 83 bf ef be ed eb 1f be 70 96 d8 3d 48 9e 0c 3d
       -0.468258 -0.15617342 0.10575569 0.034330636
0000a0 ec e1 6c bd 3a 98 08 3f 6e 0a 14 bd 61 08 49 3d
       -0.057832643 0.5335728 -0.03614276 0.049080256
0000b0 e2 96 40 be 3a f7 b1 3d 14 8a 71 3e e0 78 47 3e
       -0.18807557 0.08689733 0.23587829 0.19479704
0000c0 c9 c8 b2 3d df 01 eb bd 27 4e 69 3e 3e e0 22 3d
       0.08729703 -0.11474966 0.22783719 0.039764635
0000d0 8c 29 32 be 77 e8 62 3d 1d 20 86 3e 87 28 7d be
       -0.17398661 0.055397477 0.26196375 -0.24722491
0000e0 21 b3 14 3f 04 a2 e3 3d 6e 42 08 bf d5 ea 52 be
       0.5808583 0.111148864 -0.53226364 -0.20597394
0000f0 eb 7d 7b 3e b4 d9 54 3e c0 39 ad 3e 56 cf 26 be
       0.24559753 0.20786172 0.33833122 -0.1629003
000100 e5 1c 5d 3e 76 31 df 3d 5b 8c b1 3e 8f 5e 52 be
       0.21593054 0.10898106 0.34677395 -0.20543884
000110 71 65 1c 3e 24 25 c7 be 96 b7 90 bc a1 30 c3 bd
       0.15273072 -0.38895524 -0.017665666 -0.095307596
000120 d4 20 a1 3e 23 aa 2c be cf 48 f8 bd 35 48 0b 3f
       0.31470358 -0.16861777 -0.12123262 0.54407054
000130 ca 4d cf bd 14 32 ba bd 6c 2e 87 be f2 3b f7 be
       -0.10122259 -0.09091583 -0.26402605 -0.48287922
000140 ac 12 c6 bd be 1a aa be 7b 60 c7 3e 2b c1 38 bd
       -0.0967153 -0.33223528 0.38940796 -0.045106094
000150 e3 ed 1d be f5 fe 8c 3e 50 ba a3 3c d6 4a 8b be
       -0.15422778 0.27538267 0.019986302 -0.27205533
000160 92 42 49 3d 94 41 99 be 6e bf f9 bd d0 27 b3 be
       0.049135752 -0.29932845 -0.121947154 -0.34991312
000170 44 af 6e 3e 77 2e 7f bc 2e d7 a6 be 2a 3f 1e 3e
       0.23309046 -0.015575043 -0.32586044 0.15453783
000180 a7 1a 94 3d ed 40 83 be 8c 84 91 be 59 30 da be
       0.07231646 -0.25635472 -0.28421438 -0.4261501
000190 fe c4 1a be d5 8a 01 3e ef 63 3f 3e 6a ad b3 3e
       -0.15114209 0.12650616 0.18690465 0.35093242
0001a0 5b c3 40 3e bc 98 f9 3d c5 b2 f6 3e 49 00 fd 3c
       0.18824522 0.12187335 0.48183265 0.030883925
0001b0 92 10 3e 3e ff e0 e0 3d 50 37 e2 be ed 0e b1 3e
       0.18561009 0.109804146 -0.44182825 0.345817
0001c0 d9 fc 00 bd df 87 b5 3d ad 30 42 3e 09 9c 09 3e
       -0.031491134 0.08863806 0.18963881 0.13438429
0001d0 45 f4 1d 3e 16 ee c4 3c 7b 2d 6e be 60 34 b8 3c
       0.15425213 0.02403931 -0.23259537 0.022485912
0001e0 ab bd ea 3d b7 1b 05 3d a3 51 b2 be 44 ae 90 3e
       0.114619575 0.032497134 -0.3482791 0.28257954
0001f0 80 3d ab 3e 0c 82 90 be 5a 2f f0 3e d9 fb ee 3d
       0.33445358 -0.28224218 0.46911126 0.1166913
000200 a3 bc ae be 56 21 14 3f 55 11 11 bf 84 40 ab 3e
       -0.34128293 0.57863367 -0.5666707 0.3344766
000210 56 5c 8a 3e b7 10 67 3e 5d 3d a1 3e dc 0c 20 3d
       0.27023572 0.2256497 0.3149213 0.039074764
000220 93 93 25 3e eb 17 25 3d af 3a a9 be 25 17 c6 3d
       0.16169576 0.040306013 -0.33052585 0.09672383
000230 9f 12 99 3d c6 eb 7c be ea bd 9d be 9e 85 0b 3e
       0.07474255 -0.24699315 -0.30808955 0.1362519
000240 19 6f 2a be 33 69 8c be ff d1 b5 be e5 60 d8 3d
       -0.16643943 -0.2742401 -0.35511777 0.10565356
000250 87 62 e7 3e 20 7c 8e be c0 c6 5e be 9b 54 92 be
       0.45192358 -0.27829075 -0.21755505 -0.28580174
000260 48 5d 2e bd a1 52 28 be 2a 4f 4d 3d eb f7 07 3d
       -0.04256943 -0.1643777 0.050124325 0.033195417
000270 0a 8f b7 3d b7 e6 ed be 3a f0 63 3e 0e 9f c5 3e
       0.089628294 -0.46465084 0.22259608 0.38597912
000280 07 f6 b8 3e 64 33 a6 be b2 f6 30 3e 31 9e 81 be
       0.36125204 -0.32461083 0.17281607 -0.25316003
000290 06 d8 1f be 42 e3 cd 3d 4c 73 25 be 7d 1b 19 be
       -0.1560975 0.100531116 -0.16157264 -0.14951892
0002a0 79 25 c4 3d 2f b5 ca be 5f 69 80 3e 01 fb 0f 3e
       0.0957746 -0.39591357 0.25080392 0.14060594
0002b0 b1 70 a5 be 6c 11 88 be 6f 28 a4 be 1d c2 4a be
       -0.3231254 -0.26575792 -0.32062098 -0.19800611
0002c0 05 d9 29 3e 61 d5 80 3d d1 45 40 be 03 06 fa bb
       0.16586693 0.06290699 -0.18776633 -0.007630111
0002d0 fa 47 84 be 0b 29 b4 bd be 44 9d 3d 8e 5b 70 3d
       -0.25836164 -0.08796891 0.07679127 0.058681063
0002e0 d8 79 a2 be 4d 52 8d be e5 23 c7 3e ff cb 00 3f
       -0.31733584 -0.27601853 0.38894573 0.50311273
0002f0 05 42 a5 bd 2a 30 31 3e e1 18 6c 3e 9a 76 ff bd
       -0.08069233 0.1730353 0.23056366 -0.12473793
000300 bb 29 cf be ef 1a 38 be b6 e2 a9 3e 3a 02 23 be
       -0.40461525 -0.17979024 0.3318078 -0.15918818
000310 df 67 aa 3e a1 bf 0b be c2 e8 85 3e 7a 19 c8 bc
       0.33282372 -0.1364732 0.26154143 -0.02442621
000320 14 d3 87 be 21 cc c8 be 46 f3 3f be b1 43 b8 be
       -0.26528227 -0.39218238 -0.18745145 -0.35989144
000330 23 37 b8 3d 52 28 da 3e 10 96 0c be 54 f7 1e be
       0.089948915 0.42608887 -0.1372912 -0.15524036
000340 6c 67 b1 3c ad cd 07 be c5 4c 02 3f 77 07 c1 be
       0.02165576 -0.13262053 0.5089839 -0.37701008
000350 73 69 85 3e 74 96 1f bd fd 09 d7 3c cc 62 72 be
       0.26057014 -0.038961843 0.02624988 -0.236705
000360 33 c5 b1 be 2a d8 f1 be 97 17 0b be 23 5d 01 3e
       -0.34720764 -0.47235233 -0.13583218 0.12633185
000370 58 a4 16 3f d4 77 51 3e d7 c8 9f be 5e 32 14 3f
       0.5884452 0.20455867 -0.31207916 0.57889354
000380 47 c4 15 bd 18 33 31 be 4f 09 67 3d e6 07 c7 3d
       -0.036564138 -0.17304647 0.05640536 0.097183034
000390 ff de 8d be d4 76 c8 3e 89 9d 80 be 4b 0a 94 3e
       -0.27709195 0.3915316 -0.2512019 0.28914103
0003a0 20 e2 45 3e de 59 8b 3e 4f cb 24 be 11 20 4a be
       0.19324541 0.27217 -0.16093181 -0.19738795
0003b0 5e 5d b8 3e 77 17 b4 3e f8 ac fa be de df 6f be
       0.36008734 0.35174152 -0.4896009 -0.23425242
0003c0 27 ae 7c 3c 3f e0 b2 bd 0d a3 83 3e 5d 7f 96 be
       0.0154223805 -0.08734178 0.25710335 -0.29394045
0003d0 e2 4a 27 be 83 64 fb 3e 80 09 f8 be b0 6a 05 bf
       -0.1633716 0.49100122 -0.48444748 -0.5211592
0003e0 8c 67 64 3e ef 81 68 be 32 f7 61 3e dd a9 79 be
       0.22305125 -0.22705816 0.22066954 -0.24381204
0003f0 06 1f 2b 3e 35 5e b4 be 4c 53 96 3e d2 a4 da be
       0.16711053 -0.35228124 0.29360425 -0.42703873

net.2.bias f4 [20]
000000 49 94 51 bd 4e 48 67 bd d2 2d e1 3d 2b a3 80 bd
       -0.051166806 -0.05646544 0.10995068 -0.06281122
000010 7a cd ad bd d7 e7 c8 3d c8 37 a3 3d 50 62 25 bd
       -0.08486457 0.09809845 0.07969624 -0.04037696
000020 32 6b cc bd cc 81 b1 3d b7 c0 9f bd 26 58 a2 3c
       -0.099813834 0.08667335 -0.07800429 0.019817423
000030 b3 32 33 bd 98 e5 3b bd b8 f9 c1 3d 4a b1 c3 3d
       -0.043749522 -0.045873255 0.09471458 0.095552996
000040 d9 dd 87 3d fa 8f a2 bd 6d a3 de 3d 20 ac 90 3d
       0.06634111 -0.079376176 0.10871015 0.0706408

net.4.weight f4 [20, 20]
000000 3d 1f 9e 3e c0 1a 38 bc cd b4 8a bd 31 e0 83 3d
       0.30883208 -0.011236846 -0.06772766 0.064392455
000010 92 81 24 3e d0 75 01 3f c3 36 cb 3d df cf 05 be
       0.16065052 0.5057039 0.09922554 -0.13067578
000020 41 c2 fd bd 69 be 6d be 4f 4b 5d be f9 0d 45 3e
       -0.123905666 -0.23217167 -0.21610759 0.19243611
000030 0c 74 cf be 48 7b 09 be 4f 48 ce 3e ab 1a c3 3c
       -0.40518224 -0.13425934 0.40289542 0.023816427
000040 05 ed 04 be f6 c5 19 3e d8 63 81 3e 71 0e 1f 3e
       -0.12981041 0.15016922 0.25271487 0.15532853
000050 b2 a1 49 3e 60 05 4c 3e 2e 99 10 3f 04 cf 47 3e
       0.19690588 0.19923925 0.56483734 0.19512564
000060 81 5c 6f bd b0 8a e7 3e d5 a9 c4 bc 48 cd 49 3e
       -0.058437828 0.45222998 -0.024006763 0.19707215
000070 61 8c cb be 58 51 4e 3e 8f f1 03 bf 8b 1c 42 be
       -0.39755538 0.20148218 -0.51540464 -0.18956201
000080 cc 51 01 bf 26 bc b6 be 10 fb c8 3e 06 5a e2 3e
       -0.5051544 -0.3569042 0.39254045 0.44209307
000090 d8 87 39 be 79 53 e0 be 9f 4a 2b 3c d1 5d 60 3d
       -0.18118227 -0.43813685 0.010454803 0.05477697
0000a0 e3 8b cd 3c 28 f0 e8 be 1a d6 53 be 78 7c 96 3e
       0.025091117 -0.45495725 -0.20687142 0.29391837
0000b0 13 7d 49 3e b8 92 5f be b0 0f 81 bd d0 54 b3 be
       0.19676618 -0.21833313 -0.0630182 -0.35025644
0000c0 fd 84 dc be dd 3b 9a 3e c3 50 e4 be 14 c5 de 3e
       -0.43070212 0.30123797 -0.44592866 0.43509734
0000d0 25 34 4e be 5a 48 7b be 91 c7 f0 3e 3c 9d 31 be
       -0.20137079 -0.24539319 0.47027257 -0.17345136
0000e0 6a b8 c6 3e d0 b9 5a 3d b3 57 47 be 38 44 c8 3e
       0.38812572 0.05339986 -0.19467048 0.39114547
0000f0 65 f8 81 3e bc f4 44 3e fc 4a 35 be de 13 c7 3e
       0.25384822 0.19233984 -0.17704386 0.38882345
000100 69 69 0e be 87 5d ed 3e 3f bd da 3d 59 ec b7 be
       -0.13907398 0.46360418 0.10680627 -0.35922506
000110 a0 ca 85 3e 10 bc d8 3d 48 d8 00 be b3 2c ac bd
       0.26131153 0.10582745 -0.12582505 -0.08406963
000120 9b e7 90 be 42 e5 f0 bd ed ba 3b bd 48 99 8b 3e
       -0.283017 -0.117624775 -0.045832563 0.27265382
000130 0c ba 76 3e a8 ac ee 3c 55 8d b2 bd 4d 06 dc 3e
       0.24094409 0.029135063 -0.08718363 0.42973557
000140 5b c0 3b be 88 6f a5 bd 13 8e c2 3e 69 80 be bd
       -0.18335097 -0.080779135 0.3799902 -0.09301836
000150 73 9c 86 3d b0 84 22 3d e3 f3 7e 3e d9 1c dc bd
       0.06572809 0.039677322 0.24897723 -0.1074769
000160 da 78 25 3a eb b6 30 3e 0e b5 af be 93 15 02 3f
       0.0006312259 0.17257278 -0.3431782 0.5081417
000170 d3 d4 fa be c5 eb 8d be 3b 2e ff 3e 50 36 fe 3e
       -0.48990497 -0.2771894 0.4983996 0.49650812
000180 c9 ab f1 3e 32 14 9a bd c6 50 12 bf 13 06 bf 3e
       0.47201374 -0.07523383 -0.571545 0.37309322
000190 57 de 77 be 53 4e fa 3d 4b 50 61 3e 6c de df 3e
       -0.2420591 0.122219704 0.22003286 0.43724382
0001a0 5d 04 bc 3e 78 7f 23 be b6 03 78 bd 82 30 0b 3d
       0.3672208 -0.15966594 -0.060550414 0.033981808
0001b0 24 9d 4c 3e 95 80 ac bd c9 70 c2 bd 8e bd 6b 3d
       0.1998182 -0.084229626 -0.09494168 0.05755382
0001c0 51 8e 74 bd df e5 f6 3d 71 06 84 3e a6 65 6c 3e
       -0.059706036 0.12055563 0.25786164 0.23085651
0001d0 61 f4 82 be 4b ec c1 3e c0 d4 0c 3e d0 03 9b be
       -0.2557707 0.3787559 0.13753033 -0.30276346
0001e0 50 5d 07 3e 23 b0 44 be 0d 91 d5 3e f3 2b 2b bc
       0.1321919 -0.19207816 0.41712227 -0.01044749
0001f0 99 4f cc 3e 84 44 74 3e 20 50 86 3e b8 8d 0a bd
       0.39904478 0.23854262 0.26233006 -0.03382656
000200 46 78 d2 3e b6 65 cf bd e5 22 9b 3e a4 ef d1 be
       0.41107386 -0.10126822 0.3030006 -0.41003144
000210 3c 8f 35 3e a7 88 df be f0 b8 51 be ab 5a 40 bd
       0.17730421 -0.43658945 -0.20480704 -0.046961468
000220 03 4b 12 bd 8a b5 d0 bd a3 1f 8b bc b8 a5 0f bf
       -0.035716068 -0.10190876 -0.016982859 -0.5611224
000230 45 fe 32 be 22 0b a2 bd c6 aa 6b 3e b9 60 0b 3e
       -0.17479809 -0.0791228 0.23014364 0.13611116
000240 99 03 ea 3e 2d 6c b3 be c1 05 0a bf b7 ba 6f be
       0.4570587 -0.3504347 -0.5391503 -0.2341107
000250 da 98 da 3d e8 c9 4a 3c 70 e5 a8 3e 71 77 af 3d
       0.10673685 0.01237724 0.32987547 0.085677035
000260 4a 84 b7 3e 1c c0 61 be 91 af b8 3c 18 53 db bc
       0.35843116 -0.2204594 0.022544654 -0.02677302
000270 70 cf e8 bd 7d 17 1e 3e f9 4e 0e bf f3 0f 66 be
       -0.113676906 0.15438648 -0.5558925 -0.22467022
000280 31 db d3 be 41 52 86 3e 1f c8 80 3e d3 b0 3e 3d
       -0.41378167 0.2623463 0.2515268 0.04655535
000290 02 9b 9c be 2b 8c 6d be 89 45 b9 3e dd ac 8d bd
       -0.30587012 -0.23198001 0.36185864 -0.06917737
0002a0 71 f1 91 be 8c 83 ce 3e 64 f8 f4 3d 7c 0a 86 3d
       -0.28504518 0.40334737 0.11961439 0.065449685
0002b0 b8 02 86 bc fb 96 d7 be 35 06 05 3f 93 ea 02 3f
       -0.016358718 -0.42107376 0.51962596 0.5113918
0002c0 04 be d6 3e a8 51 3c 3e 49 cf e1 3e 2f f1 68 3d
       0.41941845 0.18390524 0.4410346 0.056870636
0002d0 4c 14 ee be 9d c3 aa be 01 d6 2a 3e a0 45 1e 3d
       -0.4649986 -0.33352366 0.16683199 0.03864062
0002e0 62 21 4a 3e 03 b9 33 be fc f1 c9 be 64 79 dc be
       0.19739297 -0.17551045 -0.39442432 -0.43061364
0002f0 29 fb 70 bd 56 ec 67 be af ed 2f 3d 95 6c 47 be
       -0.058833275 -0.22648749 0.042951282 -0.19475015
000300 ea 4d 80 3d 8a 47 2a bc a8 a3 a0 3e ed 31 16 be
       0.06264861 -0.010393033 0.3137486 -0.14667483
000310 f9 18 f4 bd e9 a1 05 be 38 4b 2d be bc e6 cf bd
       -0.11918826 -0.13050045 -0.16923225 -0.10151431
000320 f8 30 ce be f6 e4 b8 be 76 ac c2 3a 7c 5d b9 be
       -0.40271735 -0.36112183 0.0014852423 -0.36204135
000330 56 9e cf be c3 00 7c 3d e5 ac d6 3d ce b4 6d bd
       -0.40550488 0.061524164 0.10482196 -0.058033757
000340 2a 48 b8 3d 7d 6b cc 3e 67 45 16 3e 15 86 5c 3e
       0.08998139 0.39925757 0.14674912 0.21535523
000350 bf 68 f3 bd 1e 90 ec be f0 8c 63 3e 69 ca 1c 3e
       -0.11885213 -0.46203703 0.22221732 0.15311588
000360 dc 72 8d 3e 70 03 91 be 16 60 d5 3e c9 45 8c 3e
       0.27626693 -0.28322935 0.4167487 0.27396992
000370 a6 7f 60 3e 20 e5 f4 be c6 de f8 3e 95 43 33 3e
       0.21923694 -0.47831059 0.48607463 0.17506249
000380 81 17 08 3e 13 6f 02 3e 50 71 ad 3c a9 c4 3f bd
       0.13290216 0.12737684 0.021172196 -0.04681841
000390 ff e3 df be 92 7c 11 3e 64 68 6f 3e 3d db e5 bc
       -0.43728635 0.14207676 0.23379666 -0.028058643
0003a0 a0 92 02 be 7b cf e7 bd 15 33 12 be 78 6e 52 be
       -0.12751245 -0.11318871 -0.14277299 -0.20549953
0003b0 32 45 bd bd 01 16 0a 3d 28 76 d7 3e e7 d0 e4 3e
       -0.092417136 0.03371239 0.42082334 0.4469063
0003c0 97 39 62 3e e7 01 e7 be 86 99 34 3e 39 11 5f 3e
       0.22092281 -0.4511864 0.1763669 0.21783914
0003d0 1d 1f b1 3e 27 74 af 3e 22 e7 d5 3e b9 21 aa bd
       0.3459405 0.34268305 0.41777903 -0.08307213
0003e0 92 99 20 be a6 b5 d5 3d c7 54 98 be 38 2d 38 3d
       -0.15683582 0.10435037 -0.2975218 0.044965
0003f0 97 09 ae bd 4a 91 b6 be fe 89 05 3e 13 c4 e2 bc
       -0.08497923 -0.35657722 0.13040921 -0.027681386

net.4.bias f4 [20]
000000 a2 af 94 3d 24 c0 b9 3d a6 d0 5c 3d 84 67 77 3d
       0.07260062 0.09069851 0.05390992 0.060401455
000010 c7 04 34 3d af 99 3a bd b1 bc 58 3d c9 04 87 bd
       0.04394987 -0.04555672 0.052914325 -0.065927096
000020 24 64 c0 3d a9 cb f6 3c 48 62 87 3d 63 18 9a 3d
       0.093941 0.03012641 0.066105425 0.07524183
000030 e0 c5 b6 3d b9 f5 bc 3d 32 41 7f bd 7d 5f 51 bd
       0.089244604 0.092265554 -0.062318034 -0.051116455
000040 9d be 62 3c 14 9d 91 3d 19 76 a3 3d 59 d7 94 3d
       0.013839391 0.071100384 0.0798151 0.07267637

net.6.weight f4 [20, 20]
000000 dd 59 09 bd d1 bb 72 bd 45 88 62 be 06 e5 99 3e
       -0.033532966 -0.059261147 -0.22122295 0.30057544
000010 aa d2 20 3c 9b 8c d9 b9 2a 04 b0 3e 81 3d 9c 3c
       0.009815851 -0.00041494225 0.34378177 0.019072296
000020 b5 3e dc be 74 66 71 3e a5 61 ba be f7 01 a5 3e
       -0.43016592 0.23574239 -0.36402622 0.32228062
000030 ff 2a 03 be e1 ca 8c be 81 12 46 be 73 6a ff 3e
       -0.1280937 -0.27498534 -0.19342996 0.49885902
000040 07 ae 82 3e e7 8a 64 be f9 72 89 be 33 e8 af 3d
       0.25523397 -0.22318612 -0.2684553 0.0858921
000050 88 4f c7 3c 7c 13 5c be 9f 4f 85 3c f4 ea 28 3d
       0.024329916 -0.21491808 0.016273318 0.041239694
000060 ac d3 3b 3d 33 f7 d1 3d 88 47 2e bd f9 64 ff be
       0.045856163 0.10252228 -0.042548686 -0.49881724
000070 66 02 cc 3e c6 8d de 3d c7 29 ed 3d ad 5b 7d 3e
       0.3984558 0.10866885 0.11580234 0.24742003
000080 1b 1e 3a bd 5d e4 ab 3e bc cc 98 be 6f 1a a8 be
       -0.045438867 0.33572665 -0.298437 -0.32832667
000090 82 0f e9 bd 65 c9 95 be 66 18 e3 be d1 07 76 3e
       -0.11379911 -0.29255214 -0.44354552 0.24026419
0000a0 53 d4 9f be 4c a4 c1 3e 91 c6 1d 3e 35 10 c7 3e
       -0.31216678 0.3782066 0.15407778 0.38879552
0000b0 1e d7 84 3e de 9c 91 3e 63 fd ef 3d 17 97 c4 be
       0.2594537 0.28439993 0.117182516 -0.38396522
0000c0 f5 5d 9f be bf 7c bc be b7 32 d5 bd 4c a4 ab be
       -0.3112637 -0.36813924 -0.10410064 -0.33523786
0000d0 36 a2 2f be ca 73 62 3e e4 7a 90 3e 70 69 85 be
       -0.17151722 0.22114483 0.28218758 -0.26057005
0000e0 2a 9b c7 be c5 c4 8b 3e 9c 92 c6 3c 27 d6 28 3e
       -0.38985568 0.2729856 0.02423983 0.16487943
0000f0 11 86 35 3e e6 f7 da 3e ac f8 cd 3d 77 41 4f 3e
       0.17726924 0.42767256 0.10057196 0.20239817
000100 47 7c f2 bd 10 d3 a0 be 05 9b 70 bd 80 59 c8 be
       -0.1184011 -0.31411028 -0.05874159 -0.39130783
000110 b3 1b 3f be 4c fc 37 3e 5f 5a 9d 3e 9a df a5 3d
       -0.1866291 0.17967337 0.3073301 0.08099289
000120 2e 2c ec 3e 76 d6 b8 3e a5 8f 4a 3c ff 78 25 3d
       0.46127456 0.3610112 0.012363349 0.040398594
000130 8d da c7 be 03 81 ff 3d d4 27 0b 3f 08 75 4a be
       -0.3903393 0.12475779 0.5435765 -0.19771206
000140 00 9d c1 3e 3a 42 05 3e 06 68 0d 3e 73 08 bc 3c
       0.37815094 0.13013545 0.13809213 0.022953248
000150 84 a9 dd 3d dc 4f cf be 22 ad 05 3f ce 95 25 be
       0.10823348 -0.40490615 0.52217305 -0.16170427
000160 d9 65 13 be ec 41 c9 3e 44 c5 a0 3e 59 fc 1e be
       -0.1439432 0.39308107 0.31400502 -0.1552595
000170 c5 8e 89 3e 8f 97 9b 3e dd 77 f4 3c 65 6e 31 be
       0.26866737 0.30389068 0.029842312 -0.17327268
000180 ba d4 86 be 9a 40 6b 3e be ab 3c 3e 64 14 b0 3e
       -0.26334172 0.22973862 0.1842489 0.34390557
000190 37 37 f0 3d 88 c8 82 be 52 8b de 3d bb 7b 0e 3d
       0.117292814 -0.25543618 0.10866417 0.034785967
0001a0 6d c9 e2 3b 1c 97 3b be 23 fd db 3c 2a ad 5a 3e
       0.0069209845 -0.18319362 0.026854103 0.2135512
0001b0 87 7f e4 be ec 00 0a 3f f8 fb 08 be 16 b5 a9 3e
       -0.44628546 0.53907657 -0.13377368 0.3314597
0001c0 77 21 9c be e8 04 9e be 63 cf ba 3e 71 49 2b be
       -0.30494282 -0.30863118 0.36486349 -0.16727234
0001d0 19 ab c2 3d 41 b8 05 be 02 57 98 3d 0d c8 44 bd
       0.095052905 -0.13058569 0.074384704 -0.048042346
0001e0 04 08 c0 be 92 a4 01 be d0 42 c5 be 45 2b 83 3d
       -0.37506115 -0.12660435 -0.38527536 0.064047374
0001f0 37 27 33 be 10 5a bc be 69 10 2e bd 84 45 d7 3e
       -0.17495428 -0.36787462 -0.04249612 0.42045224
000200 1c ce d1 be a3 b8 b4 3b 8f 1f b2 3e 7e 8c 7d 3e
       -0.4097756 0.0055151745 0.34789702 0.24760625
000210 55 ea bc bd 7c e4 c7 be 2b 9f 96 bd 9f 81 8c bd
       -0.09224383 -0.39041507 -0.07354578 -0.06860661
000220 11 63 94 bd ef 62 23 be b9 58 70 be 82 f3 3f be
       -0.07245458 -0.15955709 -0.23471345 -0.18745235
000230 35 2c 57 3e 16 6e 9e be 85 6f 26 3d c5 3d ec be
       0.21012957 -0.30943364 0.040633697 -0.46140876
000240 59 65 3c 3e dc d3 33 3e 93 1a e4 bd f7 9f 0f 3e
       0.18398036 0.17561287 -0.11137881 0.14025865
000250 6d 2f e9 be 3e d0 47 bb 56 87 ec be 77 c5 9a 36
       -0.45543995 -0.0030489112 -0.46197003 4.6125456e-06
000260 e0 f8 41 be 27 32 b0 be 7c f4 33 3e eb f9 8c 3d
       -0.18942595 -0.34413263 0.17573732 0.068836056
000270 25 e2 f0 3e de df 39 3e 17 f2 b5 bc c1 59 13 be
       0.47047535 0.18151805 -0.022210164 -0.14389707
000280 35 57 56 bd 9d f2 82 be 43 7e 05 3f 93 2b c1 be
       -0.05232926 -0.25575724 0.52145785 -0.37728557
000290 68 eb 9a bb 37 66 b3 3e be f2 cb 3d e5 4c d1 be
       -0.0047277696 0.3503892 0.09958409 -0.40878978
0002a0 aa 1c da be ce 03 67 3e 4b b2 96 be ab a1 94 be
       -0.42599994 0.22560045 -0.29432902 -0.29029593
0002b0 9e 9c 37 3d 63 1b 2e be 60 0c ab 3e 2e 90 c4 bc
       0.044827096 -0.17002635 0.3340788 -0.023994531
0002c0 d4 04 8a 3e 33 d3 ed be 67 3d ad be ca 42 f4 bd
       0.2695681 -0.46450195 -0.3383591 -0.119268015
0002d0 c3 73 d7 bd a8 52 c3 3e 5e 21 d2 3e 5a 2a 55 be
       -0.10520127 0.38149 0.41041082 -0.20816937
0002e0 c0 3b 17 bf 5a 0f df bd 0f 0a db be 17 a3 c8 be
       -0.59075546 -0.108916 -0.42781112 -0.39186928
0002f0 ab 33 f6 3e 39 27 dd be a7 23 6d bd 2d 5e 40 3e
       0.48086295 -0.43193987 -0.05789533 0.18785925
000300 dc b0 ab bd c6 cd 10 be da 0e 9e 3d db 2d 57 be
       -0.083833426 -0.14140996 0.077176765 -0.21013586
000310 fa 85 8e be c7 59 bc be a9 b6 97 3d e5 f9 61 3e
       -0.2783659 -0.36787245 0.074078865 0.22067983
000320 0e 85 d5 3e 8c 19 e8 bd cf 70 8e 3c d9 87 2a be
       0.41703075 -0.11332998 0.017387776 -0.16653384
000330 29 69 09 bf 01 81 bf bd 8d b8 eb be a0 d8 46 3c
       -0.53676087 -0.093507774 -0.4603924 0.012136608
000340 5e 1a 7a bb f4 49 58 bd 26 75 cb 3c e7 fc fc bd
       -0.0038162689 -0.052804902 0.024836134 -0.12352925
000350 7d 04 4e be 7c a9 a0 3d 61 fe c6 3c 62 12 60 3e
       -0.201189 0.078448266 0.02429122 0.21882012
000360 10 fc 09 be 8c c3 71 3d 9f 5e 32 3c b5 24 52 3e
       -0.1347506 0.05902438 0.010886817 0.20521815
000370 26 08 c8 3d 90 64 1b bf b1 76 2a be d7 03 e1 be
       0.09767179 -0.6070032 -0.1664684 -0.43948242
000380 a0 10 26 3e ec 8c 52 be 97 ad cf bd 3e 54 42 bd
       0.1621728 -0.2056157 -0.101405315 -0.04744362
000390 17 2e 7d be 65 fd e9 be d7 23 96 3d 9e c7 55 be
       -0.24724613 -0.45701137 0.07331055 -0.20876929
0003a0 9c 10 87 be a7 39 9c 3c a6 9e 3e 3e fd 86 5c 3c
       -0.2637986 0.01907046 0.18615207 0.013459918
0003b0 4f b5 13 3f 4d 68 04 be fa 61 09 bf 09 5b 31 3e
       0.5769853 -0.12930413 -0.53665125 0.17319883
0003c0 b2 4f 27 be 8f 2e 0d be 8e 66 d4 be 12 03 85 be
       -0.16338995 -0.13787292 -0.41484493 -0.25978905
0003d0 ce c1 a4 be f3 fa 83 be f5 90 1a bd 14 f7 e5 3c
       -0.3217911 -0.25777397 -0.037735898 0.028071918
0003e0 dd c8 40 3e 93 3f d4 bd 5f e4 cd 3e 32 7b 37 be
       0.18826623 -0.10363688 0.40213296 -0.17918089
0003f0 a1 0e d8 be 77 1c 70 3e 5f bd 32 be ad 7c f0 bd
       -0.4219866 0.23448358 -0.17455052 -0.1174253

net.6.bias f4 [20]
000000 7f 07 56 bd 05 37 3b 3d b0 d3 33 bd 3f 49 94 3d
       -0.052253243 0.045706768 -0.043903053 0.07240533
000010 60 a6 cf 3d 87 59 00 bd 09 d8 c0 3d d0 a4 7a bd
       0.101391554 -0.03133538 0.094162054 -0.061192334
000020 55 c5 78 bd 5d 5e b9 3d 79 4d 6c 3c ce ce 69 bc
       -0.060735065 0.090512015 0.014422768 -0.0142704975
000030 95 32 ca 3d 99 2d ad 3d 0f 24 76 bd 4b c4 45 bd
       0.09872929 0.08455963 -0.060092982 -0.048282903
000040 02 1b 58 bd 3f 9c e0 3d 68 0a 89 bd 68 4b bb 3d
       -0.05276013 0.109673016 -0.06691438 0.09145242

out_net.0.weight f4 [1, 20]
000000 88 1d 3e bf 60 65 0a 3e bf 38 0f bb 30 31 13 3f
       -0.7426381 0.13515234 -0.0021853892 0.5749693
000010 00 0b cc 3e f8 53 cc be f1 22 f6 be e5 96 0b bf
       0.39852142 -0.39907813 -0.48073533 -0.5452712
000020 5a 02 6f be da e5 b6 3e 80 da 05 be 52 6b 96 be
       -0.23340741 0.35722238 -0.13071632 -0.29378754
000030 f4 71 a1 bd 62 af 0a 3f 9e b2 28 bf 04 55 09 bf
       -0.07883063 0.5417386 -0.6589755 -0.5364535
000040 cf 1c 2e bf 37 a7 c6 3d b0 0b 44 bf 2d 9e 35 3f
       -0.6801271 0.096998625 -0.76580334 0.7094448

ini_net.0.weight f4 [20, 2]
000000 70 b3 a2 3d 8c 51 f0 be 49 f3 2a 3c 80 66 87 bd
       0.07944381 -0.46937215 0.01043398 -0.06611347
000010 b2 34 a9 bc 61 51 56 3d ec 6e ee bc c0 62 36 be
       -0.02065501 0.052323703 -0.029105626 -0.17811108
000020 e9 e9 8a 3d 6e 48 2d 3e 50 20 23 be 30 62 e2 3e
       0.06782896 0.16922161 -0.15930295 0.44215536
000030 60 e4 8f be 1e 74 4a 3e d5 3d 7f 3d ea 81 e4 bd
       -0.28103924 0.19770858 0.062314827 -0.11157592
000040 62 c1 52 be 4e 7d 3e 3e 50 4b ba 3e 78 7c 5e be
       -0.20581582 0.18602487 0.36385584 -0.21727169
000050 77 ef 5a be 4b da d0 bd b0 bb 9b be 6d a0 9a bd
       -0.21380411 -0.10197886 -0.30416632 -0.0755013
000060 44 80 39 b8 ca 49 18 be 40 46 9f be 7f 01 0a 3e
       -4.4226894e-05 -0.14871898 -0.31108284 0.13477133
000070 dd 11 26 3e df ba e9 3d 38 31 b7 3e 82 86 03 bf
       0.16217752 0.11412596 0.35779738 -0.5137712
000080 d4 68 cf 3e 77 2f 55 3e de 4f c4 3e 32 07 c8 3d
       0.40509665 0.20818888 0.38342184 0.097669974
000090 6b 8f 29 3f 6c 84 60 3d ea 8b 27 be b3 ac ba 3c
       0.66234463 0.054813787 -0.16361967 0.022787428

ini_net.0.bias f4 [20]
000000 21 d7 33 3e 68 ee f3 3d 46 80 ff 3d a3 08 0b 3e
       0.17562534 0.11910707 0.12475638 0.13577513
000010 8e 33 09 3e 91 84 e6 3d 52 ca f7 3d 20 51 06 3e
       0.13398573 0.11255754 0.120991364 0.13116884
000020 e4 b2 73 3d 54 73 0c 3e d9 85 03 3e 17 ce be bd
       0.059496775 0.13715869 0.12844028 -0.09316652
000030 fb 82 9d bd c4 5d 27 3e c1 c8 00 be c9 75 0a 3e
       -0.07690998 0.16344362 -0.12576582 0.13521494
000040 94 a0 06 3e 7a 05 bc 3d 99 e3 c7 bd 16 7c 9e bd
       0.13147193 0.09180732 -0.09760208 -0.07738511

net.0.weight f4 [20, 20]
000000 b9 24 64 be 06 89 2d 3e c5 f3 85 3e 54 a8 df 3e
       -0.22279634 0.16946802 0.26162544 0.43683112
000010 36 01 2f 3d c0 f7 df 3e 47 4a ad 3e 7a 62 b0 3e
       0.042725764 0.43743706 0.33845732 0.34450132
000020 99 b4 98 3d ef ec 8f 3e 16 ea 39 3e 7b b8 6b 3e
       0.07456321 0.28110453 0.18155703 0.23019592
000030 ea b9 ca 3c 28 e0 d9 3e 8c ed 57 3e 4d 9d 9f 3e
       0.024746854 0.4255383 0.2108671 0.31174698
000040 6d ac 32 be 85 67 b1 3d b5 7c f3 3d c9 9f 5e 3e
       -0.17448588 0.08662323 0.1188902 0.2174064
000050 13 ac cc 3d cd cd 6f 3e 42 cc ef 3d 75 15 69 3e
       0.09993758 0.2341835 0.11708881 0.22762091
000060 44 70 f7 3d 6e 94 47 3e ce 3c af 3e 71 00 c1 3e
       0.1208196 0.19490215 0.34226078 0.3769565
000070 ab e8 17 3e a4 2d d0 3d 24 dd 3d bc 09 c3 e4 be
       0.1483485 0.10164955 -0.011588369 -0.4468005
000080 4d cc 88 be 8f 16 e7 3d 9e ef bc be a4 51 03 bc
       -0.2671837 0.112835996 -0.36901563 -0.00801507
000090 ff 4e 89 3e d9 e5 ae be 56 37 60 3e 28 53 38 be
       0.26818082 -0.34159735 0.21896109 -0.18000472
0000a0 b0 f5 a0 3d 26 6a 28 bd 70 b1 d1 bd 5a 4e c4 be
       0.07859361 -0.041116856 -0.10238922 -0.38341027
0000b0 63 dd 8b 3d 90 67 64 be 58 c6 46 3e eb b3 cc be
       0.068293355 -0.22305131 0.194116 -0.39981017
0000c0 c4 b5 93 be 79 7f d1 be c9 d5 76 bd c8 d3 a6 3e
       -0.28849614 -0.40917566 -0.060262475 0.3258345
0000d0 69 bb d8 3e 78 d8 ef 3d 60 24 e1 3d af da fd 3d
       0.42330483 0.1171121 0.10993266 0.12395226
0000e0 e2 51 33 bc 04 50 d4 3d bd e6 aa 3e fd 89 5a be
       -0.010944815 0.10366824 0.33379164 -0.21341701
0000f0 7c 93 8a 3e e5 d4 ad 3e 70 80 bf 3e 32 93 68 be
       0.27065647 0.33951488 0.37402678 -0.227124
000100 cf ad 07 3f cf 8a 0a 3c 58 8e a7 be 20 61 c7 bb
       0.52999586 0.008455946 -0.32725787 -0.0060845762
000110 17 2c d3 3e 2b 27 97 3e ec f7 89 3e 53 3c 5c be
       0.41244575 0.2952207 0.26946962 -0.21507387
000120 06 88 87 3e 04 67 d6 bb 90 6f 28 3d f0 8c 00 be
       0.26470965 -0.006543042 0.04112202 -0.12553763
000130 65 3c 46 3e 12 f2 93 3d cf b8 c9 be d5 c8 b3 3b
       0.19358976 0.072239056 -0.3939881 0.0054865875
000140 88 27 6e be 0f 62 7b be 35 79 d7 be 90 93 63 bc
       -0.23257267 -0.24549125 -0.4208466 -0.013890162
000150 85 40 4c be 08 10 35 be 47 a8 a4 be fb 6f 15 3d
       -0.19946487 -0.17681897 -0.32159635 0.036483746
000160 be 96 fc 3d c9 72 c5 be 9d 76 bd be 95 fd 9d be
       0.12333439 -0.38564137 -0.37004557 -0.3085753
000170 72 19 2c 3e 70 40 e7 be 65 28 88 be 3b c4 27 be
       0.16806582 -0.4516635 -0.2659332 -0.1638345
000180 b9 cb c6 bd 35 d4 ec 3c 67 cf 27 be 58 b2 ec bc
       -0.09706826 0.028909782 -0.16387711 -0.028893635
000190 0d f2 15 3d dd f1 43 be f3 e0 3e 3d ca c9 c0 bd
       0.03660779 -0.19135232 0.046601247 -0.09413488
0001a0 29 6a 15 3e 35 31 9a bd 9b 01 2c 3e a6 75 8e b9
       0.14591278 -0.07528917 0.16797487 -0.00027172006
0001b0 94 eb b9 3c 1a ef a9 3c 51 47 ed 3d ba 9b 49 bc
       0.02269534 0.020743895 0.11585868 -0.0123051945
0001c0 e8 ec 68 3e 8b bc 82 be 5e 7b a5 3e 97 5c 09 be
       0.22746623 -0.25534472 0.32320684 -0.13414226
0001d0 b1 a4 8a be 05 ce 0b be c3 b2 86 bd 6c db c2 bd
       -0.27078775 -0.13652809 -0.06577065 -0.09514508
0001e0 31 92 86 3e a0 e5 5f be 06 e0 61 3e 05 3f 49 3e
       0.2628341 -0.21864939 0.22058114 0.19652946
0001f0 45 71 d0 3e 88 9b 26 bd 16 e4 7f 3c 88 d8 68 be
       0.40711418 -0.04067567 0.015618345 -0.2273885
000200 66 a3 21 be fc 01 2b 3e 62 9b 7c 3e 07 30 c9 3e
       -0.15784988 0.16699976 0.24668649 0.39294454
000210 66 72 e7 be 09 68 16 3d dc 95 0c 3e 93 8c a4 3e
       -0.45204467 0.03672031 0.13729042 0.321385
000220 80 b4 0b be 55 bb b4 3e 00 9c c1 be c5 ce c3 bc
       -0.13643074 0.35299173 -0.3781433 -0.023902306
000230 62 86 60 3e 6e 52 b1 3e 42 d9 89 3e 01 b2 92 be
       0.21926263 0.346332 0.26923567 -0.2865143
000240 b6 b7 b2 3e eb 62 1e 3e ee 4e 3b be 1c 25 cf 3e
       0.34905785 0.15467422 -0.18291828 0.40458
000250 ba 07 2d 3d 1e 98 1b be a7 b2 0c be 9c 05 0c bf
       0.042243697 -0.15194747 -0.13740025 -0.5469606
000260 db 68 1b 3e fd 2d 5d 3e 31 12 90 3e d9 e5 ba 3d
       0.15176718 0.21599574 0.2813888 0.09125871
000270 87 2f 07 3f b7 5d ac 3d 88 74 cb be ec 44 dd be
       0.52806896 0.08416312 -0.39737344 -0.43216646
000280 14 6b 35 be 21 ee 0f bf 6e a7 17 bd 88 77 97 bc
       -0.17716628 -0.5622273 -0.037024908 -0.018489614
000290 c3 08 0a be c2 d6 89 bd 5e 47 b4 bc 4e 98 f6 be
       -0.13479905 -0.06730415 -0.022006687 -0.48163074
0002a0 14 f2 0c 3c 5f ed c5 be 3f 0a ad be e1 c8 f4 3e
       0.008602638 -0.38657662 -0.3379688 0.47809508
0002b0 60 1b c4 3e 7c 68 88 be 53 ea 01 3f 11 28 ea bd
       0.38302135 -0.26642215 0.50748175 -0.11433423
0002c0 31 95 92 b9 7c 8c 65 3d 06 09 46 bd 70 cf 01 be
       -0.00027958446 0.05604218 -0.04834845 -0.12676787
0002d0 4f 91 85 bb 25 0c 5c be 1e 33 a5 3d 80 65 c4 3e
       -0.00407616 -0.21489008 0.080663905 0.38358688
0002e0 4c 40 df bd 32 c5 2c 3e 70 38 8a 3e 35 f0 e1 3e
       -0.109009355 0.16872099 0.26996183 0.44128576
0002f0 dc f8 bc 3e 53 f7 ea 3e 1b 74 5f be cf 69 04 bf
       0.36908615 0.45891818 -0.21821634 -0.5172395
000300 f9 69 73 3e 20 02 4f 3d 2a d8 bd 3d a5 73 35 3e
       0.23770894 0.050539136 0.09269746 0.17719896
000310 35 cd 05 be 43 7b 15 3d 4f 62 5f 3e cf 44 e9 be
       -0.13066562 0.036494505 0.21814846 -0.4556031
000320 40 8e ff be 34 19 17 3e 17 18 0c bc b3 90 3e be
       -0.49913216 0.14755708 -0.008550665 -0.18609886
000330 3e 6e 9a be ce cc f1 be 04 b4 eb be 90 3d 88 3d
       -0.30162233 -0.47226566 -0.4603578 0.06652367
000340 3f 72 a5 be 54 02 99 be 91 54 08 bc 7e eb 1a be
       -0.32313725 -0.2988459 -0.008320943 -0.15128896
000350 c3 4d 00 3d 3d d4 8a 3e 04 73 57 3e 2f 3a 11 be
       0.03132416 0.2711505 0.21039969 -0.14182352
000360 a5 de 40 be 6a ef 8d be c6 d4 60 be 95 c8 ba 3e
       -0.18834932 -0.2772172 -0.21956167 0.36481157
000370 7c b9 09 bd 8d ee 55 be 2d a2 e1 3e f5 1c 55 be
       -0.033624157 -0.20891781 0.44069043 -0.20811827
000380 0b 67 3d 3e 8a 20 95 3d 27 d0 f0 3c 0a 32 f1 3e
       0.18496339 0.07281597 0.02939613 0.4710849
000390 f2 cd 25 be 3a 1b af 3e b3 d2 c9 3e 49 29 0d bf
       -0.16191843 0.3420046 0.39418563 -0.5514112
0003a0 d6 fd 04 3d ff b4 96 3e b1 3b c8 be 95 37 41 3e
       0.03246864 0.29434964 -0.3910804 0.18868859
0003b0 87 22 93 bb d9 df d6 be b5 cb 93 be e2 f0 af be
       -0.0044902 -0.41967657 -0.28866354 -0.34363467
0003c0 2b 7e d0 be 95 78 00 bd 0d d4 00 bf dc 98 a1 bd
       -0.4072126 -0.031364996 -0.50323564 -0.07890484
0003d0 90 4f c1 bd a3 2d e4 be ed d2 96 be 8a b0 02 3c
       -0.094390035 -0.44566068 -0.294578 0.0079766605
0003e0 eb 5d d3 be 2d 6d b4 be 0f dd bf be dc bc 13 3f
       -0.4128259 -0.35239545 -0.37473342 0.5771005
0003f0 66 56 0b be 9c 61 d7 3c 24 e1 b9 3d c4 d4 89 be
       -0.13607177 0.026291661 0.09076145 -0.2692014

net.0.bias f4 [20]
000000 eb 9a f0 3d 0e 55 ea 3d 50 95 f4 bd 76 df ae 3d
       0.11748298 0.11442004 -0.119425416 0.085387155
000010 50 fc ab bd 51 a6 8f bd 7c 2c f6 3d fc b9 de 3d
       -0.08397734 -0.07014144 0.120202035 0.108753175
000020 b5 7c ae bd 59 7b d5 3d c4 a8 aa bd 42 05 ba 3d
       -0.0851988 0.10423917 -0.08332971 0.09083034
000030 ba 55 a3 bd 2f 99 d7 3d 88 0f d9 3d 5b 76 d8 bd
       -0.079753354 0.10527264 0.105986655 -0.105694495
000040 be de 06 3e b8 84 bc 3d 9b fc 9e bd a5 0a da 3d
       0.13170907 0.092050016 -0.077630244 0.106465615

net.2.weight f4 [20, 20]
000000 a7 6c 2e bd 58 e7 aa bd 8c 96 58 3c a8 2a 9d bd
       -0.042584088 -0.083449066 0.013219487 -0.07674152
000010 36 f8 5d be 15 eb d2 bd 8a 9e 77 be e9 a4 56 3d
       -0.21676716 -0.102987446 -0.24181572 0.052403364
000020 ae ad e0 3d c5 7b bc be c8 ee 7a 3e b9 57 9f be
       0.10970627 -0.3681318 0.2450515 -0.31121615
000030 c9 5b 87 bd 18 0c ce be 94 ae cf be 54 db ee 3e
       -0.066093035 -0.40243602 -0.4056288 0.4665171
000040 b1 2f a3 be a1 19 74 be f1 4e ab 3e a4 c0 84 3e
       -0.31872323 -0.23837902 0.33458665 0.25928223
000050 e8 f2 f9 bd 12 69 e5 bd 1f 7f 5f 3e 13 b9 bb bd
       -0.12204534 -0.11201681 0.21825837 -0.091661595
000060 e3 f8 de 3d 0a 89 27 3e 81 6e 80 bd aa 0a 65 3e
       0.10887315 0.1636087 -0.06271077 0.2236735
000070 46 e5 bb 3e a9 63 a7 3c 1f 6c f6 3e 7f 3f 45 3e
       0.3669836 0.020433264 0.48129365 0.19262503
000080 62 33 af 3e 00 c5 56 3e e5 6b 9f bd 2a b8 32 be
       0.3421889 0.20973587 -0.07784251 -0.17453066
000090 9e e3 c4 3d e3 f7 7a bd 38 10 b4 3e 83 be 28 be
       0.09613727 -0.06127156 0.35168624 -0.16478924
0000a0 f7 99 04 3f 64 95 9d 3e e6 09 07 be 63 bb a7 be
       0.5179743 0.30778039 -0.1318737 -0.32760152
0000b0 37 a9 75 be 58 66 32 be 81 5b c0 3e 02 cf 89 3e
       -0.23990332 -0.17421854 0.37569812 0.26915747
0000c0 28 c7 88 be 8c 12 99 3e 00 67 2a be ff e4 bb 3e
       -0.26714444 0.29896963 -0.16640854 0.36698148
0000d0 3f 93 a4 bc 83 29 60 3e 12 d3 37 be cc 52 5b 3d
       -0.020089744 0.21890835 -0.1795161 0.053545758
0000e0 d1 d5 0f 3f 8b f0 52 be 97 e8 ca bd a8 48 d5 3d
       0.5618563 -0.20599572 -0.09907644 0.10414249
0000f0 97 0d 60 3e dd c6 2f 3e b6 1c 9b bd 74 da a8 3e
       0.21880184 0.17165704 -0.075738356 0.32979167
000100 55 23 54 be b6 0c ab 3e 4a 58 c6 3d b6 6f 89 be
       -0.20716603 0.33408135 0.096848086 -0.2684304
000110 e3 2e 16 be 66 d8 1f 3d 25 46 8e bd 40 af 0d bf
       -0.14666323 0.039024733 -0.06946973 -0.55345535
000120 d7 56 6f 3e 81 af 2e 3e a0 c1 3c be 95 67 4f be
       0.2337297 0.17059137 -0.18433237 -0.20254357
000130 b9 3c 0a bf e2 de b1 be aa 18 e6 3e 05 e9 3c bb
       -0.53998905 -0.3474036 0.44940692 -0.0028825414
000140 45 e4 5b 3d 0e 2c 7a 3e ab fa a9 3e 7c fb ec be
       0.05368449 0.24430868 0.33199057 -0.46285617
000150 7c 79 4c be ea 8f d8 bd 2f d3 15 3e cb 1f 32 3d
       -0.19968218 -0.105743244 0.14631341 0.04348735
000160 aa 90 ba be 98 17 c1 be e4 d1 b9 3e 1d a6 61 3d
       -0.36438495 -0.37713313 0.36292946 0.05509006
000170 25 84 80 bd 20 a7 f0 be 26 95 61 bd 6f 4b 03 3e
       -0.062752046 -0.47002506 -0.05507388 0.12821744
000180 cb 8c 25 3e d0 55 6c be eb 1f 95 be d9 ee c8 be
       0.1616699 -0.2307961 -0.29125914 -0.39244726
000190 11 dc d0 3e 41 ec 3b be 19 7f cf be bc 48 22 3d
       0.40792897 -0.18351842 -0.40526655 0.039620146
0001a0 ff 03 24 bd 94 44 2d 3c 0f 8b 32 bc b9 36 c0 3e
       -0.040042873 0.010575432 -0.010897412 0.3754175
0001b0 f7 bd b4 3c 38 65 77 3e dd 0a 54 bc 26 4e 0e 3e
       0.022063239 0.24159706 -0.012942043 0.13896999
0001c0 f9 94 da bd 56 2b e9 bd a3 a5 32 3c e0 56 6b be
       -0.106729455 -0.11385219 0.010903749 -0.22982359
0001d0 81 89 09 be bc ed 13 bd 9e e1 09 bf 3a 8d 3a 3e
       -0.1343136 -0.036115393 -0.5385989 0.18217936
0001e0 81 03 e2 3e 9b a7 93 3e 64 8e 1a 3e 59 74 03 be
       0.44143298 0.2883881 0.1509338 -0.12837352
0001f0 1b bb 9d 3e 43 5e a0 bd 6f 4d d9 3e ab a2 db 3e
       0.30806813 -0.07830479 0.4244189 0.42897543
000200 ec 4a 82 3e b8 4a 70 3e 4c 14 0b be 87 0a 05 3e
       0.25447786 0.23466003 -0.13581961 0.12992297
000210 c5 39 99 3e dd 3d 0d 3e d7 77 2a be 0c ec 2b be
       0.29926887 0.1379313 -0.16647278 -0.16789263
000220 c3 d7 b6 3c ad 16 59 be c3 97 7d bd da 1e 8a 3e
       0.02231968 -0.21200056 -0.06191231 0.26976663
000230 e9 4b a1 bc 0a 4a c3 be 0e 2a ec bd f1 fb c2 be
       -0.019689517 -0.38142425 -0.11531459 -0.3808284
000240 ea 82 f9 3e ad 76 20 3d 34 ca 9f bd d8 a5 f9 3c
       0.48732692 0.039175678 -0.07802239 0.030474588
000250 d7 31 fd 3e 86 a9 6b bc 8a b4 97 3e 63 32 06 be
       0.49452087 -0.014383679 0.29629928 -0.13105159
000260 75 24 d8 3e 6a 92 0b be 61 ca 98 3e 72 8a 78 bd
       0.42215315 -0.13630071 0.29841903 -0.060678907
000270 3b d2 23 3d c7 78 04 bb 68 50 9b bb 78 af e0 3e
       0.039995413 -0.002021359 -0.00473981 0.43883872
000280 01 6d 63 bd bf 28 a1 3e 7f a1 a5 be cf 9f 26 bd
       -0.055523876 0.314764 -0.32349774 -0.04067975
000290 c0 79 3c 3d 18 98 88 be 22 0f 73 3d 55 f6 ab 3e
       0.046014547 -0.26678538 0.059340604 0.33586374
0002a0 f2 3f 78 3e 14 82 8b be 77 88 24 be 2c ae 79 3e
       0.24243143 -0.2724768 -0.16067682 0.24382848
0002b0 ed 8b 58 bd 31 10 93 be 9b e2 e8 bc ce 61 9b 3e
       -0.05286782 -0.2872329 -0.028428366 0.30348057
0002c0 ff 86 86 3e 08 db 2e bd ed 5e 07 bf 84 1e 29 bd
       0.2627487 -0.042689353 -0.5287922 -0.041288868
0002d0 7c 75 b9 3e 28 10 eb 3e 22 8b a1 be ff 9b cd 3e
       0.36222446 0.45910764 -0.31551462 0.40158078
0002e0 ed 00 b8 be 15 2b a3 3d 4a 8d d6 3e 6a 45 8e 3e
       -0.35938206 0.079672016 0.4190467 0.27787334
0002f0 ab 5f 2e 3e 7d d2 02 be 58 25 92 be fc 5d 82 bd
       0.17028682 -0.12775607 -0.28544116 -0.06365582
000300 0f 87 99 be d2 59 34 3d 92 d9 95 3e 62 1d 8c be
       -0.29985854 0.04403097 0.29267555 -0.27366167
000310 8f 62 ff bb ed 5e fa 3e fe 40 61 3e 54 e3 d3 3e
       -0.0077937315 0.48900548 0.21997449 0.41384375
000320 32 89 a4 be 6e b1 66 be fa 04 ae 3e 94 3a 61 3e
       -0.32135922 -0.22528622 0.33988172 0.21995002
000330 b6 54 88 3e 53 10 02 3f db e4 b6 be cf 50 5e 3e
       0.2662713 0.5080616 -0.35721478 0.21710514
000340 02 98 d0 3d b8 c4 69 3e 0e 57 83 3e 11 6e 03 bf
       0.10185243 0.22828948 0.25652355 -0.51339823
000350 d2 1f 09 be cc 7a 3a be ce a7 48 3e f1 a4 b0 bb
       -0.13391045 -0.18210906 0.19595262 -0.0053907563
000360 9f 6f 99 3d 9c 77 5b 3c 97 d7 1c be 9b 52 0c bf
       0.07491993 0.013395216 -0.15316616 -0.54813546
000370 b6 43 90 3d 91 ca 6e 3e 0d 42 90 3b a9 56 0e 3f
       0.07044165 0.2331946 0.004402405 0.5560098
000380 bd f1 cf bd 9f 83 08 bf 8b 52 03 3f 73 ca a6 3e
       -0.1015353 -0.5332584 0.51297826 0.32576331
000390 34 0e ab bb 83 3e 29 3e d9 25 d1 be 0d e6 ab be
       -0.005220199 0.16527753 -0.40849188 -0.33573952
0003a0 49 7a 6c be 6c 6e a1 3e d7 74 76 3e 02 97 bf 3e
       -0.23093523 0.31529558 0.24068008 0.37419897
0003b0 8b 2f de bd 4f 36 3a be 94 da 2c be 87 96 11 3e
       -0.10848912 -0.1818478 -0.16880256 0.14217578
0003c0 1b 3d 81 be d8 6b c6 be 1f 19 b3 be fe 7d 51 be
       -0.25241932 -0.38754153 -0.34980103 -0.20458218
0003d0 9f 96 2c be cb 87 8e 3e b5 d4 de be 39 94 a8 be
       -0.16854332 0.27837977 -0.43521658 -0.32925585
0003e0 6e 04 b4 3d 42 e5 af be 33 64 13 3e 77 6e b9 bd
       0.087899074 -0.34354597 0.14393692 -0.090542726
0003f0 cc fa 1a 3e 21 f5 97 be be 5f 9d be 4a 68 88 be
       0.15134734 -0.29679206 -0.30737108 -0.26642066

net.2.bias f4 [20]
000000 49 94 51 bd 4e 48 67 bd d2 2d e1 3d 2b a3 80 bd
       -0.051166806 -0.05646544 0.10995068 -0.06281122
000010 7a cd ad bd d7 e7 c8 3d c8 37 a3 3d 50 62 25 bd
       -0.08486457 0.09809845 0.07969624 -0.04037696
000020 32 6b cc bd cc 81 b1 3d b7 c0 9f bd 26 58 a2 3c
       -0.099813834 0.08667335 -0.07800429 0.019817423
000030 b3 32 33 bd 98 e5 3b bd b8 f9 c1 3d 4a b1 c3 3d
       -0.043749522 -0.045873255 0.09471458 0.095552996
000040 d9 dd 87 3d fa 8f a2 bd 6d a3 de 3d 20 ac 90 3d
       0.06634111 -0.079376176 0.10871015 0.0706408
