checkpoints/best_model_v1.pth (torch, 105175 bytes, 99 tensors)

ini_net.0.weight f4 [20, 2]
-0.26610407 0.034041405 0.31637025 0.18451951 0.13123102 -0.10854381 0.33830333 0.20161156
-0.38062978 0.57740873 -0.20026442 -0.17506996 -0.4003796 -0.5116481 -0.09276276 0.31707385
-0.12967867 -0.25153917 0.34566483 0.015339939 0.15116832 -0.30525747 0.007833929 0.028907517
-0.5309638 0.4881614 0.51274043 0.31662777 0.29658252 0.40633813 0.088249415 0.147193
-0.06349331 0.40464875 -0.16135716 0.17016974 0.038540453 -0.13762704 0.24822631 -0.12143027
00000000: cb3e 88be 006f 0b3d 48fb a13e aff2 3c3e
00000010: 6d61 063e 384c debd 1836 ad3e 4373 4e3e
00000020: e8e1 c2be 0fd1 133f 1e12 4dbe 8a45 33be
00000030: 8efe ccbe 5ffb 02bf 67fa bdbd 8157 a23e
00000040: 7cca 04be bec9 80be fbfa b03e 5e54 7b3c
00000050: decb 1a3e b54a 9cbe e159 003c 75cf ec3c
00000060: 3eed 07bf 4bf0 f93e f542 033f 091d a23e
00000070: aad9 973e 8d0b d03e 1cbc b43d c3b9 163e
00000080: c808 82bd 1f2e cf3e d03a 25be fa40 2e3e
00000090: 98dc 1d3d 1aee 0cbe 0a2f 7e3e 6fb0 f8bd

ini_net.0.bias f4 [20]
0.1994255 0.30005944 0.29762438 0.25131088 -0.5532959 0.5560366 0.52554727 0.28682694
0.6899585 0.32171845 0.26423168 -0.41333356 -0.14414796 -0.22094817 0.11609927 0.47816724
0.31932265 -0.19395007 -0.62611634 -0.43232027
00000000: 3336 4c3e 64a1 993e 3962 983e d2ab 803e
00000010: cda4 0dbf 6a58 0e3f 448a 063f fbda 923e
00000020: 1fa1 303f 48b8 a43e 6049 873e 75a0 d3be
00000030: 869b 13be 3d40 62be 74c5 ed3d 56d2 f43e
00000040: 427e a33e d99a 46be 2949 20bf 1559 ddbe

net.0.weight f4 [20, 20]
-0.13115546 -0.14641252 0.1701442 0.23077111 -0.18151681 0.023665901 -0.03576555 0.58546484
0.17918836 0.25482947 -0.4129936 -0.31083134 0.30146155 0.25281417 0.36552024 0.2179226
0.5670787 0.2852021 -0.39223903 -0.12688607 0.033290952 0.4023305 -0.1447755 0.27878514
0.04846468 0.2076633 0.42336538 0.5937476 0.4327568 -0.32054794 -0.21989033 0.1281337
0.3720036 0.007168591 -0.012543298 0.1174911 0.11220591 0.1993509 -0.3420481 -0.02478329
0.67549884 -0.13840596 -0.3699863 0.19079669 0.1906667 -0.03603324 -0.6258916 -0.8547644
0.06316075 -0.31654117 -0.18723756 0.96168935 0.42215338 -0.08594378 0.19790821 -0.5151195
-0.5774239 -0.14852288 0.086816154 0.60758543 0.13190405 0.39050844 0.25076884 -0.0283243
0.10855035 -0.010197805 0.14616448 0.37884533 -0.21348521 -0.3114854 0.3891318 0.27888095
-0.4264246 0.47812054 -0.20564702 0.515243 0.0644555 -0.09985535 0.23675993 -0.13295798
-0.26101542 -0.0057362267 0.15203327 -0.1620394 -0.11208262 -0.35115752 0.20484307 -0.5522319
-0.49583706 -0.1329778 0.1562363 -0.08860828 -0.4066395 0.39391983 -0.038586814 -0.30289537
-0.25551513 -0.13945656 0.15646726 0.8706559 -0.32832596 -0.34998256 0.097756356 -0.62178487
-0.07121104 -0.5031261 0.084408306 0.32361406 -0.36787146 -0.5666278 -0.38852906 0.3354693
0.30842927 0.019132243 0.1801097 -0.37696606 -0.024729397 0.018365374 0.3451838 0.5392677
-0.22264592 0.3537007 0.04830497 -0.07408457 -0.114171736 0.029692903 0.36366013 -0.17833902
0.006149995 0.4730507 0.23872636 -0.39662582 -0.49258855 0.34017184 0.30202445 -0.20918238
0.32844508 0.29470456 -0.54622096 -0.06971306 0.38954607 -0.3806829 0.05960093 -0.06860136
-0.16233021 0.13030703 0.6381972 -0.043730903 0.31523436 0.11394345 0.6014609 -0.082885765
-0.23559302 0.42121106 -0.3424898 0.2946939 -0.115613356 0.16390145 -0.018846875 0.37014663
0.048653897 -0.32439598 0.106307805 -0.3581613 0.4411153 -0.38597247 0.048974738 -0.41000858
-0.1315057 -0.07605653 -0.2988848 0.17930932 -0.005429862 -0.23191442 -0.09598499 0.36911115
-0.54203796 -0.20507663 0.70578825 0.20548466 -0.5443105 0.3826157 0.28571805 0.17649862
-0.282694 -0.035710532 0.17575447 0.39800006 -0.12947603 0.34815538 0.3974479 -0.21985348
-0.078745 0.38003564 -0.13059925 -0.19546212 0.37522992 -0.32420066 -0.22776657 -0.5704113
0.3217087 -0.12829219 -0.4005882 -0.09311998 0.10044146 -0.44296643 0.011310553 0.033283725
-0.37087888 -0.7495366 0.19701761 0.33230466 -0.20811245 0.14459547 0.19212174 -0.49129403
-0.26069522 0.09700616 0.36350295 0.52724314 -0.34562078 0.43148842 0.56440085 0.8263134
-0.4794059 0.09829768 -0.17382324 0.20648478 -0.012978907 0.4907327 0.5795534 -0.45360476
-0.15231436 0.07537102 -0.15329647 -0.23180589 0.2254666 -0.44701716 0.29693934 0.22982828
0.11669562 -0.26310423 -0.3219714 -0.8694424 0.27690044 -0.23367362 0.30405948 -0.0043202746
0.103977464 -0.5464851 0.032448515 0.15313986 -0.276667 -0.15783212 -0.31311888 -0.5680661
00000000: 9e4d 06be 2aed 15be 483a 2e3e 434f 6c3e
00000010: 8bdf 39be fede c13c e67e 12bd 06e1 153f
00000020: 277d 373e 0279 823e e673 d3be 4925 9fbe
00000030: 2b59 9a3e dc70 813e 7825 bb3e 1a27 5f3e
00000040: 122c 113f 0206 923e 8ed3 c8be 6cee 01be
00000050: 185c 083d 43fe cd3e 0740 14be edbc 8e3e
00000060: e682 463d b0a5 543e 59c3 d83e d8ff 173f
00000070: 4d92 dd3e dc1e a4be ee2a 61be 7b35 033e
00000080: 4177 be3e 80e6 ea3b 6882 4dbc 2d9f f03d
00000090: 36cc e53d a422 4c3e ee20 afbe 5406 cbbc
000000a0: 7eed 2c3f 4bba 0dbe d86e bdbe 3560 433e
000000b0: 223e 433e 9797 13bd 6f3a 20bf d7d1 5abf
000000c0: 6c5a 813d af11 a2be 34bb 3fbe 4631 763f
000000d0: 7d24 d83e 4b03 b0bd 73a8 4a3e dfde 03bf
000000e0: 0dd2 13bf 6216 18be abcc b13d b88a 1b3f
000000f0: db11 073e b9f0 c73e c664 803e 5d08 e8bc
00000100: a54f de3d b214 27bc 24ac 153e 04f8 c13e
00000110: de9b 5abe 047b 9fbe 493c c73e 7cc9 8e3e
00000120: 5354 dabe 37cc f43e 2295 52be f7e6 033f
00000130: 3f01 843d f680 ccbd 3271 723e 2326 08be
00000140: d0a3 85be f5f6 bbbb 9cae 1b3e a8ed 25be
00000150: 938b e5bd ebca b3be 62c2 513e 125f 0dbf
00000160: 5bde fdbe 552b 08be 69fc 1f3e 4278 b5bd
00000170: 0d33 d0be dcaf c93e 350d 1ebd 1a15 9bbe
00000180: e1d2 82be b3cd 0ebe f438 203e 4ee3 5e3f
00000190: 571a a8be ea30 b3be 7c34 c83d 4b2d 1fbf
000001a0: 18d7 91bd dfcc 00bf 43de ac3d beb0 a53e
000001b0: a659 bcbe 850e 11bf 48ed c6be a2c2 ab3e
000001c0: 71ea 9d3e 39bb 9c3c ad6e 383e b201 c1be
000001d0: 4e95 cabc fb72 963c eebb b03e 730d 0a3f
000001e0: 4bfd 63be 4218 b53e 6fdb 453d a7b9 97bd
000001f0: dfd2 e9bd 883e f33c a931 ba3e 819e 36be
00000200: e685 c93b b433 f23e af74 743e 8a12 cbbe
00000210: 9134 fcbe 012b ae3e f3a2 9a3e e833 56be
00000220: f429 a83e 84e3 963e 23d5 0bbf b9c5 8ebd
00000230: 9572 c73e dee8 c2be 1b20 743d df7e 8cbd
00000240: e439 26be 356f 053e e460 233f 2d1f 33bd
00000250: 6666 a13e 2f5b e93d 57f9 193f 03c0 a9bd
00000260: 4c3f 71be faa8 d73e d35a afbe 1ee2 963e
00000270: b2c6 ecbd c8d5 273e c364 9abc dc83 bd3e
00000280: 4f49 473d 3b17 a6be e8b7 d93d eb60 b7be
00000290: ddd9 e13e 2f9e c5be bc99 483d a5ec d1be
000002a0: 6ea9 06be 87c3 9bbd 6e07 99be dd9c 373e
000002b0: fcec b1bb f97a 6dbe c793 c4bd 23fc bc3e
000002c0: 00c3 0abf 9cff 51be 8aae 343f 926a 523e
000002d0: ef57 0bbf 34e6 c33e a349 923e 0ebc 343e
000002e0: 45bd 90be 3545 12bd fbf8 333e aac6 cb3e
000002f0: 5d95 04be 6c41 b23e 4b7e cb3e 4521 61be
00000300: 0f45 a1bd 0894 c23e cfbb 05be 3927 48be
00000310: 231e c03e a1fd a5be a43b 69be 7a06 12bf
00000320: 01b7 a43e 075f 03be e619 cdbe b0b5 bebd
00000330: 41b4 cd3d 7fcc e2be e64f 393c 8454 083d
00000340: d6e3 bdbe a1e1 3fbf fcbe 493e d623 aa3e
00000350: 6e1b 55be d610 143e 90bb 443e e48a fbbe
00000360: d879 85be 2aab c63d 0f1d ba3e 68f9 063f
00000370: 35f5 b0be 0dec dc3e 937c 103f 4689 533f
00000380: b174 f5be 4b50 c93d b8fe 31be bf70 533e
00000390: 7ba5 54bc 5141 fb3e 9d5d 143f e23e e8be
000003a0: 4cf8 1bbe 1f5c 9a3d c0f9 1cbe 865e 6dbe
000003b0: b7e0 663e 6fdf e4be 6f08 983e 1b58 6b3e
000003c0: 1dfe ee3d 99b5 86be 6fd9 a4be c793 5ebf
000003d0: e5c5 8d3e 2348 6fbe afad 9b3e 1791 8dbb
000003e0: 23f2 d43d 73e6 0bbf bce8 043d b2d0 1c3e
000003f0: 4ca7 8dbe be9e 21be 1e51 a0be c86c 11bf

net.0.bias f4 [20]
-0.2162639 -0.24576104 -0.20893916 0.062481605 -0.13840646 0.09705937 -0.15398057 0.035878293
0.12402596 -0.18085723 -0.08290564 -0.28234288 -0.1395596 -0.119531535 -0.16621691 0.35084537
-0.19583938 -0.013632704 0.38557976 0.017353205
00000000: 4974 5dbe c8a8 7bbe 26f4 55be b6ec 7f3d
00000010: 6cba 0dbe 10c7 c63d 15ad 1dbe 1ef5 123d
00000020: 5301 fe3d a332 39be 6fca a9bd 3f8f 90be
00000030: b6e8 0ebe f3cc f4bd c434 2abe 01a2 b33e
00000040: 1e8a 48be b45b 5fbc b66a c53e 4f28 8e3c

net.2.weight f4 [20, 20]
0.20565999 -0.11634975 -0.13591212 -0.02847491 0.08987066 0.4311542 -0.42743543 0.11464714
0.43946582 -0.57787895 -0.1762421 0.14957795 -0.40892 -0.8414188 -0.16507065 0.004358631
-0.20681027 -0.53858835 -0.13290404 -0.2772204 -0.12578985 0.29776528 -0.15979499 0.08719361
0.06584817 0.54006267 -0.57949597 -0.17300543 0.20778295 -0.39222527 -0.17698258 -0.491272
-0.08988915 -0.40019804 -0.3260253 -0.3857755 -0.47378024 -0.41981974 0.103313744 -0.26335162
0.22775413 0.5562245 0.24087101 0.1653924 -0.33074257 0.36189708 0.2095251 0.3791921
0.14546563 -0.032245252 0.5858762 0.16979459 -0.046563055 0.44226724 0.22973602 0.0073847235
0.7951221 0.065059304 -0.61061275 -0.24906841 0.10088864 0.09158765 0.27378017 0.08762049
0.2407159 0.35849765 0.29163074 -0.43098804 0.32056883 -0.5443588 -0.29717606 -0.08862872
0.635093 -0.39797762 -0.1460202 0.4237826 -0.21811211 -0.4197705 -0.15068738 -0.66856307
-0.13917415 -0.28648147 0.65806174 0.108016685 0.16384022 0.29408085 -0.33677948 -0.27786368
0.11899279 -0.07383336 0.15833966 -0.028796399 0.36164886 -0.46272305 -0.5192377 -0.45310286
0.075576365 -0.53790593 -0.29123813 -0.4400546 -0.31104803 0.2705026 0.07351231 0.9094545
-0.03590647 0.11843675 0.5239829 0.8054054 -0.0074055432 0.46109903 -0.46666873 0.5330187
-0.11167741 0.11008628 0.7526119 0.30627546 0.54683095 0.8368764 -0.18322556 0.34953615
0.17742018 -0.102852345 -0.5606434 0.4560624 -0.0862464 -0.58732677 0.4026957 -0.092266686
-0.53617436 1.1513498 -0.48065698 0.66171783 -0.010354365 0.36163336 0.6476149 -0.18697174
0.33850965 -0.048422202 -0.51079875 -0.019041292 0.15755944 -0.10228368 -0.59287035 0.107616894
-0.43579066 -0.48273805 -0.05312833 0.054945994 0.40538794 -0.21891291 -0.45503476 0.03897874
-0.21406884 0.16556585 0.4398087 0.22173719 -0.09218658 -0.34137014 0.1617837 0.614947
0.9096663 0.007477044 0.6377748 -0.36976472 -0.24086569 -0.119325146 0.08654488 0.30017534
0.0066833734 -0.18892933 0.6738748 0.6375823 -0.28882933 0.2421043 -0.20936294 -0.46057755
0.7624339 0.2310913 -0.3107376 0.32327396 -0.21219636 0.27437314 -0.17890756 0.38135195
-0.6191143 -0.6295571 0.7435217 1.2044626 -0.2320458 0.5973627 0.12102773 0.39561945
-0.46766165 -0.44204545 0.51225066 0.47859174 0.66101193 -0.10415263 0.2888824 -0.35803333
-0.253913 -0.10909217 -0.380322 -0.1443567 -0.06548124 0.62991744 -0.437731 -0.28704304
0.15649752 0.03012499 0.5781636 -0.47435015 0.21394576 -0.09996688 0.18189976 -0.51365006
-0.18022385 -0.8202042 0.1132327 -0.2828365 -0.39674765 -0.24424793 0.46520123 -0.26062223
0.77484614 0.44939223 -0.9139343 -1.0856968 -0.17459165 -0.011911996 0.24933031 -0.5867091
1.3912371 0.071387485 -0.45792577 -1.0503331 -0.19732305 -0.2741018 0.18600789 -0.9700163
-0.085166804 -0.34277487 0.41560182 -0.326746 -0.18979737 0.75426537 -0.43781427 -0.17629999
0.14483888 -0.321259 0.1555172 -0.31943545 -0.03625066 -0.6529802 0.06314161 0.00035849705
00000000: 8898 523e c748 eebd 8c2c 0bbe 3744 e9bc
00000010: 1c0e b83d 3ec0 dc3e d1d8 dabe 1fcc ea3d
00000020: aa01 e13e e0ef 13bf cf78 34be f62a 193e
00000030: f65d d1be 3967 57bf 4808 29be d9d2 8e3b
00000040: 12c6 53be ede0 09bf ff17 08be d5ef 8dbe
00000050: 0ecf 00be b174 983e 4ca1 23be 9092 b23d
00000060: 68db 863d 8c41 0a3f d959 14bf 5628 31be
00000070: 0ec5 543e c0d1 c8be ec3a 35be 0188 fbbe
00000080: cd17 b8bd c2e6 ccbe caec a6be 5e84 c5be
00000090: 5393 f2be 9df2 d6be 2896 d33d 06d6 86be
000000a0: 6138 693e bb64 0e3f e4a6 763e a05c 293e
000000b0: 1757 a9be 934a b93e bf8d 563e 7825 c23e
000000c0: f1f4 143e 9913 04bd fcfb 153f a2de 2d3e
000000d0: e7b8 3ebd da70 e23e eb3f 6b3e 8dfb f13b
000000e0: 1f8d 4b3f d03d 853d 1e51 1cbf ca0b 7fbe
000000f0: b49e ce3d 4e92 bb3d ea2c 8c3e 5f72 b33d
00000100: 3b7e 763e 018d b73e a050 953e 77aa dcbe
00000110: 9921 a43e 195b 0bbf 7627 98be f982 b5bd
00000120: 7495 223f b9c3 cbbe 5286 15be 08fa d83e
00000130: c858 5fbe 29ec d6be cb4d 1abe f326 2bbf
00000140: ab83 0ebe b3ad 92be bc76 283f da37 dd3d
00000150: bbc5 273e c491 963e 5c6e acbe 2644 8ebe
00000160: 7eb2 f33d f235 97bd cb23 223e 6de6 ebbc
00000170: 0a2a b93e 09ea ecbe c3ec 04bf 19fd e7be
00000180: c8c7 9a3d 34b4 09bf 2a1d 95be d64e e1be
00000190: b041 9fbe 517f 8a3e 9f8d 963d 03d2 683f
000001a0: aa12 13bd f78e f23d be23 063f 0c2f 4e3f
000001b0: 33aa f2bb 2c15 ec3e 34ef eebe ea73 083f
000001c0: 20b7 e4bd ea74 e13d 2cab 403f 23d0 9c3e
000001d0: 1dfd 0b3f 883d 563f 7b9f 3bbe 67f6 b23e
000001e0: a3ad 353e 40a4 d2bd 5386 0fbf 0381 e93e
000001f0: f4a1 b0bd 0c5b 16bf 212e ce3e 51f6 bcbd
00000200: b942 09bf 6e5f 933f ac18 f6be 5766 293f
00000210: 5ba5 29bc 0228 b93e 17ca 253f 8575 3fbe
00000220: 2351 ad3e 5c56 46bd b5c3 02bf 7cfc 9bbc
00000230: 4357 213e 1b7a d1bd 5ac6 17bf 3f66 dc3d
00000240: f41f dfbe 7129 f7be 179d 59bd 0d0f 613d
00000250: 028f cf3e b52a 60be 51fa e8be 2ca8 1f3d
00000260: dd34 5bbe 188a 293e 9b2e e13e 130f 633e
00000270: 51cc bcbd 11c8 aebe a0aa 253e 2b6d 1d3f
00000280: e4df 683f fe01 f53b 3645 233f cd51 bdbe
00000290: 7fa5 76be be60 f4bd 713e b13d 95b0 993e
000002a0: 3300 db3b b176 41be 0f83 2c3f 9838 233f
000002b0: 70e1 93be 31ea 773e 3d63 56be d2d0 ebbe
000002c0: de2e 433f 33a3 6c3e 0019 9fbe 2a84 a53e
000002d0: 014a 59be a37a 8c3e 8b33 37be 9040 c33e
000002e0: 467e 1ebf a72a 21bf 7057 3e3f d52b 9a3f
000002f0: 6a9d 6dbe c3ec 183f 63dd f73d a28e ca3e
00000300: 5971 efbe c853 e2be dc22 033f fa09 f53e
00000310: 1438 293f f94d d5bd 65e8 933e 2550 b7be
00000320: e200 82be b76b dfbd 91b9 c2be 3ed2 13be
00000330: 071b 86bd 4542 213f 471e e0be 4ef7 92be
00000340: e340 203e afc8 f63c 8802 143f 06de f2be
00000350: 9914 5b3e 70bb ccbd ee43 3a3e 927e 03bf
00000360: 9a8c 38be e7f8 51bf 8ce6 e73d f2cf 90be
00000370: 8222 cbbe 211c 7abe db2e ee3e 4770 85be
00000380: 515c 463f bd16 e63e 99f7 69bf 1df8 8abf
00000390: 27c8 32be 882a 43bc 7250 7f3e 9132 16bf
000003a0: 0f14 b23f 9a33 923d 3f75 eabe 5171 86bf
000003b0: 0e0f 4abe 1257 8cbe da78 3e3e fd52 78bf
000003c0: ef6b aebd 3080 afbe c3c9 d43e 404b a7be
000003d0: 3e5a 42be 8917 413f 3129 e0be fc87 34be
000003e0: a550 143e 0f7c a4be e73f 1f3e 0b8d a3be
000003f0: 927b 14bd b629 27bf 6350 813d a9f4 bb39

net.2.bias f4 [20]
0.4403198 0.5453346 -0.3467751 0.18595403 -0.16124877 0.010766648 -0.27172467 -0.3009952
-0.6790819 0.4306602 0.084256195 -0.8509071 0.46402514 0.52486974 0.20723991 -0.022142202
-0.113436654 0.08270368 0.71346164 -0.34836626
00000000: 9971 e13e 0c9b 0b3f 828c b1be bc6a 3e3e
00000010: 661e 25be 9866 303c 7f1f 8bbe 0b1c 9abe
00000020: 50d8 2dbf 7e7f dc3e 838e ac3d 0cd5 59bf
00000030: b494 ed3e dd5d 063f b336 543e 9063 b5bc
00000040: 7a51 e8bd 8c60 a93d 6ca5 363f 105d b2be

net.4.weight f4 [20, 20]
0.37483704 0.17152399 0.9129227 0.25765893 0.41070905 0.82186174 0.259805 -0.8821579
0.6490744 0.13656066 -0.042918537 -0.11093905 -0.15747805 -0.62928647 0.5070072 0.034770984
0.19068456 -0.93257874 0.50408155 1.2148116 -0.15065902 0.04813231 1.1761984 0.32515985
-0.12194049 0.76203537 -0.4018761 -0.20007655 0.10019709 0.4789769 -0.19216761 -0.7197788
-0.5374211 -0.9912933 0.33052197 0.75401896 -0.35391176 -0.32332367 0.09949978 -0.056357417
-0.5774519 -1.0433116 -0.004125133 0.32315427 -0.042957403 -0.36129266 0.44564763 -0.038302667
-0.22566281 0.064065844 -0.9098933 0.5579325 -0.8286754 -0.49305192 0.13411118 0.2816981
0.1987741 0.23580422 -0.48936573 0.619854 -0.31615585 0.0017714769 0.1683133 -0.100861035
-0.21210198 0.5588043 -0.19846204 -0.37142116 0.84094095 -0.17739482 -0.4165058 0.12127417
-0.35592782 -0.43470287 0.08139458 0.6005171 0.29334095 -0.10016781 -0.046299353 0.59199876
-0.80757743 -0.39818072 0.7358758 -0.20555137 0.3944401 -0.05445946 -0.020870727 0.24292624
0.9483745 -0.43589318 -0.04504154 0.7990561 -0.96005124 -1.1805886 0.34416232 0.47177818
0.8204175 -0.4210781 -0.8038428 1.2540377 0.012647316 0.22893028 -0.19921778 0.76216173
-0.073018774 0.018051665 -0.052699476 -0.13300623 -0.5190363 0.26682884 -0.08375027 -0.4522196
-0.060436517 0.4333194 0.46985865 0.045031253 -0.40436256 0.9335576 0.48449406 -0.65297335
-0.13976224 -0.95648533 1.2286868 0.009464772 0.4246457 -0.18538332 0.22800331 0.5400224
1.1642711 -0.55657667 0.02679174 0.15354851 -0.04121668 -0.74585235 -0.40552908 -0.15617673
0.0033650757 -0.019599406 -0.5020291 0.23319788 -0.36988518 0.08834186 0.17039101 -0.108690165
0.8335032 -0.5275261 -0.62752825 -0.2553915 0.29542637 -0.3986011 0.52213013 0.4601075
0.258618 -0.45962173 -0.20092663 -0.10836954 -0.21534453 0.14902757 -1.0101099 0.012632971
-0.9945251 -0.32035893 0.2508493 0.39310378 -0.4338821 -0.59050065 0.56312174 0.5126225
-0.24670666 0.020380482 -0.30907908 0.19526796 -0.49878806 -0.3692606 0.10977819 0.40906203
0.10016092 0.39858302 0.15464252 0.061229393 0.062058162 -0.21627264 0.12909946 0.17836596
0.48326084 -0.21802801 -0.32029602 -0.9521147 -0.0975811 -0.30177024 0.22574405 -0.1309781
0.06723772 0.051631678 0.37158936 -0.17818588 -0.19131027 0.10678625 -0.22361192 -0.10656163
-0.6491668 -0.51413554 -0.257641 -0.7302953 -0.121287234 0.08874012 0.23412104 0.046458937
0.40442958 0.022864837 -0.471802 0.5677827 -0.43452373 -0.25114837 0.37069833 0.16247258
0.25894558 -0.2118438 -0.027946867 0.23885189 -0.12910737 -0.66471833 0.8303152 -0.15844813
0.50157726 -0.17207588 0.095416 -0.006496869 0.56677717 -0.1425747 0.014743919 0.28537533
-0.17758605 -0.36942396 -0.37701002 -0.13474147 -0.13621312 -0.1764197 -0.102996305 0.753056
-0.17659874 -0.73835576 0.24780305 -0.42759886 0.55039245 0.55296385 0.97524226 0.27450985
-0.12443026 -0.021757508 -0.8371438 0.10279593 -0.7217456 -0.57867664 0.45201138 0.03725993
00000000: a4ea bf3e fca3 2f3e 4db5 693f dfeb 833e
00000010: 7548 d23e 8865 523f 2905 853e 1ad5 61bf
00000020: bd29 263f 8fd6 0b3e 59cb 2fbd 0334 e3bd
00000030: ed41 21be eb18 21bf 39cb 013f 056c 0e3d
00000040: d042 433e 7bbd 6ebf 7d0b 013f f27e 9b3f
00000050: 5c46 1abe 6326 453d ab8d 963f 5a7b a63e
00000060: f0bb f9bd c014 433f b4c2 cdbe dee0 4cbe
00000070: 2234 cd3d 763c f53e 96c7 44be 6c43 38bf
00000080: 6e94 09bf 66c5 7dbf 2d3a a93e 6307 413f
00000090: ec33 b5be ae8a a5be 8ac6 cb3d 09d7 66bd
000000a0: e3d3 13bf 3c8b 85bf 202c 87bb 7a74 a53e
000000b0: 1af4 2fbd 5afb b8be ed2b e43e 42e3 1cbd
000000c0: 2714 67be f434 833d c4ee 68bf aad4 0e3f
000000d0: 1224 54bf 4d71 fcbe 7154 093e bc3a 903e
000000e0: 708b 4b3e a976 713e 258e fabe c0ae 1e3f
000000f0: 2edf a1be e730 e83a 525a 2c3e 3b90 cebd
00000100: 4331 59be cc0d 0f3f a239 4bbe ea2a bebe
00000110: e847 573f fda6 35be 4040 d5be 985e f83d
00000120: 2c3c b6be 6091 debe 34b2 a63d 7dbb 193f
00000130: c930 963e c824 cdbd 64a4 3dbd 3b8d 173f
00000140: 65bd 4ebf 58de cbbe 5b62 3c3f 0f7c 52be
00000150: 0ef4 c93e e210 5fbd 16f9 aabc a8c1 783e
00000160: acc8 723f 642d dfbe 7a7d 38bd f18e 4c3f
00000170: ebc5 75bf 871d 97bf 0b36 b03e e98c f13e
00000180: e206 523f 8c97 d7be a4c8 4dbf 4f84 a03f
00000190: b036 4f3c b36c 6a3e bfff 4bbe 081d 433f
000001a0: de8a 95bd 16e1 933c 68db 57bd c932 08be
000001b0: 90df 04bf ca9d 883e 4385 abbd 5489 e7be
000001c0: 488c 77bd 0adc dd3e 5091 f03e b172 383d
000001d0: 9c08 cfbe a2fd 6e3f 9b0f f83e 4329 27bf
000001e0: d51d 0fbe 39dc 74bf 9c45 9d3f 2212 1b3c
000001f0: 296b d93e 20d5 3dbe b379 693e e83e 0a3f
00000200: d606 953f cf7b 0ebf 5a7a db3c d23b 1d3e
00000210: d2d2 28bd 2ef0 3ebf 82a1 cfbe cbec 1fbe
00000220: 9a88 5c3b ef8e a0bc fb84 00bf 6dcb 6e3e
00000230: 9761 bdbe 94ec b43d fb7a 2e3e f398 debd
00000240: 7760 553f f30b 07bf b1a5 20bf adc2 82be
00000250: 2042 973e 7215 ccbe 52aa 053f 3693 eb3e
00000260: 9469 843e 8a53 ebbe b6bf 4dbe d9f0 ddbd
00000270: 4783 5cbe af9a 183e 484b 81bf 85fa 4e3c
00000280: 3299 7ebf 1606 a4be 526f 803e e644 c93e
00000290: cb25 debe 0d2b 17bf bf28 103f 3a3b 033f
000002a0: aca0 7cbe f8f4 a63c 9d3f 9ebe 53f4 473e
000002b0: 2661 ffbe ba0f bdbe 63d3 e03d 9470 d13e
000002c0: 2b21 cd3d 1313 cc3e 9c5a 1e3e accb 7a3d
000002d0: b330 7e3d 9376 5dbe a632 043e 91a5 363e
000002e0: f76d f73e bc42 5fbe d7fd a3be cabd 73bf
000002f0: 9ad8 c7bd a181 9abe 7329 673e 1f1f 06be
00000300: eeb3 893d bd7b 533d f640 be3e 5c76 36be
00000310: d7e6 43be c0b2 da3d 86fa 64be fc3c dabd
00000320: cc2f 26bf 639e 03bf 85e9 83be a2f4 3abf
00000330: 7165 f8bd 61bd b53d 6dbd 6f3e ba4b 3e3d
00000340: 6511 cf3e 0a4f bb3c 0890 f1be 355a 113f
00000350: e579 debe 8596 80be 2ccc bd3e 365f 263e
00000360: 8494 843e 95ed 58be d4f0 e4bc 9795 743e
00000370: b934 04be fb2a 2abf 898f 543f 3a40 22be
00000380: 5e67 003f a934 30be 7769 c33d b0e3 d4bb
00000390: 4f18 113f 1aff 11be 7a90 713c b71c 923e
000003a0: 1ed9 35be 2325 bdbe 7507 c1be abf9 09be
000003b0: 747b 0bbe 5ea7 34be baef d2bd 47c8 403f
000003c0: 4dd6 34be e204 3dbf 15c0 7d3e 3dee dabe
000003d0: 85e6 0c3f 0a8f 0d3f 7aa9 793f 8e8c 8c3e
000003e0: 4bd5 febd cd3c b2bc 0e4f 56bf ac86 d23d
000003f0: 52c4 38bf 2724 14bf 096e e73e de9d 183d

net.4.bias f4 [20]
-0.02223397 -0.057788048 -0.36766592 -0.28613928 -0.41209146 0.33818704 -0.42891124 -0.2518367
-0.307765 0.10640309 -0.26343068 -0.3063094 -0.040358666 0.09437656 0.12161907 0.5607264
0.42424768 -0.2208927 0.017519927 0.023006156
00000000: 0424 b6bc 29b3 6cbd b53e bcbe d980 92be
00000010: a7fd d2be da26 ad3e 419a dbbe bdf0 80be
00000020: 6093 9dbe dde9 d93d 63e0 86be 96d4 9cbe
00000030: 214f 25bd 7f48 c13d 6b13 f93d c48b 0f3f
00000040: fe36 d93e b231 62be f385 8f3c 6877 bc3c

net.6.weight f4 [20, 20]
-0.4061281 -0.46990722 -0.4153969 -0.13510409 -0.15478106 0.48104563 0.40143874 0.24569821
-1.0171236 0.7677948 -0.7885043 -0.10593662 0.0129254 -0.5010881 0.26072404 0.5605633
-0.3984996 -0.8049581 -0.17940336 -0.3110796 0.18138346 0.1445056 -0.72702324 -0.13246638
-0.78927016 0.6475405 -0.881308 -0.46123445 0.051935736 0.37219322 0.14867568 -0.35701478
-0.22306216 0.3648289 -0.32138184 0.50548476 -0.101259634 -0.43223947 -0.8051773 0.511344
-0.86630946 -0.32807463 0.8266064 0.5351794 1.1718358 -0.4273152 1.023565 0.33444285
0.057811003 -0.22182477 -0.33232307 0.107242495 -0.40908754 -0.71692115 0.4978992 -0.8847673
-0.7711568 0.36387265 0.15582056 -0.20556937 0.570143 0.92865855 -0.4845882 -0.17777774
-1.128665 0.43958214 -0.88471466 -0.80671203 -0.49276206 0.071760446 0.36783913 -0.24894561
0.2158559 0.97727406 -0.1099562 0.92931265 0.1680763 0.044171218 0.29240537 0.1689728
0.6599955 0.5030764 -0.53823745 -0.32667688 -0.83946276 0.34689665 -0.21685338 -0.5006564
-0.1690383 0.28694037 0.29734382 -0.5632778 -0.075139716 0.7876732 -0.0754359 0.68204254
0.0976923 -0.018863648 -0.4377742 0.6143054 -0.14483562 -0.65664023 0.90449667 0.27311102
0.78391445 -0.7990072 0.3970254 0.36058718 0.24113505 0.23744954 -0.13233289 0.6012863
-0.30072498 -0.458712 0.40712807 -1.0912572 -0.12256807 -0.06657531 0.19470982 -0.37831137
0.7833338 0.8467704 -0.60750014 0.2798945 -0.8938102 -0.18946026 -0.81612754 -0.3658367
0.036068007 -0.65746737 1.1969794 0.09738194 0.3264392 0.4883763 -1.1926126 0.05581355
0.721996 0.3927553 0.10987805 0.73762923 0.10856802 -0.5328178 0.56368273 -0.049843017
0.98327756 -0.564521 0.7500618 0.26364705 -0.16940555 -0.08647201 -0.36234295 0.5615593
0.14565814 -0.55501544 0.060632348 -0.76283664 0.17673434 0.451658 0.3078981 -0.24231686
-0.8391714 -1.0746456 0.8110259 -0.5078071 0.28035104 0.14659348 0.5626625 0.41713998
-0.35996354 0.7264112 -0.8380649 -0.45352092 -0.427603 -1.2870065 1.0052853 -0.40025166
-0.54225725 -0.6100449 -0.74164283 -0.8286761 0.10254199 0.73923504 -0.3355491 -0.015332239
-1.1108934 0.31843337 -1.4372972 -0.4462874 0.14205664 -0.28559574 0.15990107 -0.417072
-0.52048033 -0.04150045 0.0024429085 0.33850047 0.039358385 -0.4038311 -0.17485893 0.47369692
0.3950383 0.10197639 -0.15267164 -0.70636255 -0.46149385 0.4464173 -1.0850234 -0.26132843
-0.6047975 -0.14580244 -0.46925843 -0.7205101 -0.77367467 0.27021113 0.92668176 0.7402156
0.29487413 -0.53410906 -0.6478135 0.3794805 1.0478568 0.6608173 -0.26941815 0.054682486
-0.09742802 -0.31170768 -0.7005143 -0.76506686 0.26152924 -0.9547938 1.0585744 0.11579874
0.376311 0.7663564 -0.739618 0.04626757 1.16169 0.67769927 0.20209457 1.0331941
0.798656 0.7787886 -0.74276686 -0.024757225 -0.8257558 -0.075664215 -0.6373667 -0.8025835
0.16852985 -0.5131655 1.055688 -0.25049362 0.27975014 1.1428376 -0.82796746 0.12905894
00000000: 06f0 cfbe ae97 f0be e7ae d4be ba58 0abe
00000010: ed7e 1ebe 9d4b f63e 6189 cd3e 5098 7b3e
00000020: 1b31 82bf 338e 443f 6bdb 49bf 4cf5 d8bd
00000030: 0fc5 533c 4f47 00bf 9f7d 853e 1481 0f3f
00000040: 2408 ccbe bc11 4ebf 84b5 37be d345 9fbe
00000050: 96bc 393e 47f9 133e 321e 3abf 44a5 07be
00000060: 9c0d 4abf 37c5 253f 679d 61bf ec26 ecbe
00000070: 91ba 543d 1c90 be3e 703e 183e a4ca b6be
00000080: 686a 64be dbca ba3e 298c a4be 7367 013f
00000090: 3661 cfbd 7e4e ddbe 1920 4ebf 71e7 023f
000000a0: 75c6 5dbf 66f9 a7be 7a9c 533f 8401 093f
000000b0: b7fe 953f 0fc9 dabe 2e04 833f 183c ab3e
000000c0: 3bcb 6c3d 0826 63be 4026 aabe f4a1 db3d
000000d0: ec73 d1be 2588 37bf a5ec fe3e 1c80 62bf
000000e0: 886a 45bf 844d ba3e 6d8f 1f3e c780 52be
000000f0: e4f4 113f 91bc 6d3f f21b f8be 5e0b 36be
00000100: 1878 90bf e910 e13e a97c 62bf ae84 4ebf
00000110: 4f4b fcbe 24f7 923d 6955 bc3e 99eb 7ebe
00000120: 5409 5d3e a22e 7a3f b730 e1bd 6fe7 6d3f
00000130: 321c 2c3e e1ec 343d 28b6 953e 3507 2d3e
00000140: 77f5 283f 9dc9 003f eec9 09bf 3142 a7be
00000150: 08e7 56bf 709c b13e d00e 5ebe 052b 00bf
00000160: 6018 2dbe d9e9 923e 733d 983e f932 10bf
00000170: dae2 99bd f3a4 493f 237e 9abd 579a 2e3f
00000180: e712 c83d f087 9abc f123 e0be 1e43 1d3f
00000190: ca4f 14be 9319 28bf 188d 673f 35d5 8b3e
000001a0: 9eae 483f bc8b 4cbf ea46 cb3e e29e b83e
000001b0: 1bec 763e f925 733e 4682 07be e6ed 193f
000001c0: a0f8 99be 4ddc eabe 1773 d03e 51ae 8bbf
000001d0: f804 fbbd a358 88bd 0362 473e 07b2 c1be
000001e0: 9088 483f f2c5 583f 2185 1bbf 554e 8f3e
000001f0: bfd0 64bf df01 42be bced 50bf f34e bbbe
00000200: 0cbc 133d c84f 28bf 9f36 993f 2f70 c73d
00000210: 0a23 a73e 750c fa3e 88a7 98bf c09c 643d
00000220: bbd4 383f 3917 c93e be07 e13d 45d5 3c3f
00000230: e958 de3d bf66 08bf 834d 103f 3128 4cbd
00000240: 14b8 7b3f 7384 10bf 0d04 403f bffc 863e
00000250: a678 2dbe 3d18 b1bd 0485 b9be 5ac2 0f3f
00000260: 6827 153e 7e15 0ebf a059 783d 4349 43bf
00000270: d9f9 343e b83f e73e d2a4 9d3e e921 78be
00000280: f0d3 56bf fd8d 89bf 659f 4f3f a5ff 01bf
00000290: 2c8a 8f3e 9a1c 163e a60a 103f 5f93 d53e
000002a0: 244d b8be 16f6 393f 6c8b 56bf e533 e8be
000002b0: c8ee dabe a1bc a4bf 30ad 803f c9ed ccbe
000002c0: 5fd1 0abf e72b 1cbf 4edc 3dbf 1e24 54bf
000002d0: 8901 d23d 823e 3d3f 17cd abbe 1234 7bbc
000002e0: c131 8ebf b309 a33e 5bf9 b7bf c87f e4be
000002f0: 4c77 113e 9b39 92be 1bbd 233e 768a d5be
00000300: 333e 05bf 60fc 29bd 3419 203b ef4f ad3e
00000310: 4236 213d f3c2 cebe 380e 33be 6788 f23e
00000320: 7642 ca3e ffd8 d03d f455 1cbe 2dd4 34bf
00000330: ec48 ecbe cf90 e43e 0ce2 8abf d7cc 85be
00000340: 02d4 1abf 3c4d 15be a442 f0be 5a73 38bf
00000350: 8b0f 46bf 1d59 8a3e 043b 6d3f c57e 3d3f
00000360: bef9 963e 5fbb 08bf 1bd7 25bf 454b c23e
00000370: 2c20 863f 532b 293f 2df1 89be befa 5f3d
00000380: 5788 c7bd 2698 9fbe e854 33bf 6cdb 43bf
00000390: 29e7 853e 5e6d 74bf 5e7f 873f e427 ed3d
000003a0: d6ab c03e ef2f 443f 9b57 3dbf 1083 3d3d
000003b0: 42b2 943f b37d 2d3f e1f1 4e3e b43f 843f
000003c0: b874 4c3f b15e 473f f825 3ebf aacf cabc
000003d0: bb64 53bf d7f5 9abd 772a 23bf 1d76 4dbf
000003e0: 1793 2c3e d05e 03bf c920 873f b340 80be
000003f0: 693b 8f3e 8148 923f adf5 53bf 0728 043e

net.6.bias f4 [20]
-0.1960479 0.27814725 -0.10232035 0.07199484 0.16265145 -0.20414333 1.2193198 0.1402828
-0.54917645 0.23931625 0.14441709 0.8200291 0.73541343 0.07066842 -0.4391992 -0.025052842
-0.59361655 0.09477714 -0.6187093 0.6906059
00000000: c8c0 48be 5169 8e3e 558d d1bd 0872 933d
00000010: 1a8e 263e f30a 51be ac12 9c3f 4ba6 0f3e
00000020: d496 0cbf 520f 753e 13e2 133e 6ded 513f
00000030: 0e44 3c3f 9bba 903d b8de e0be 9e3b cdbc
00000040: 41f7 17bf 841a c23d bc63 1ebf 8ccb 303f

out_net.0.weight f4 [1, 20]
-1.6758448 1.7269802 -1.0200342 1.5156171 1.355496 -1.6561403 0.83711815 -1.9676261
-1.1589377 1.8932493 1.4263599 1.3027943 0.86856365 1.4741863 -1.588876 -2.1929877
-1.6236897 2.55421 -1.7243514 1.6505985
00000000: 1582 d6bf b00d dd3f 7b90 82bf beff c13f
00000010: e580 ad3f 68fc d3bf 604d 563f 2cdb fbbf
00000020: 1258 94bf fe55 f23f f692 b63f f7c1 a63f
00000030: 305a 5e3f 23b2 bc3f 4a60 cbbf e959 0cc0
00000040: 10d5 cfbf 2d78 2340 8cb7 dcbf d046 d33f

ini_net.0.weight f4 [20, 2]
-0.3748073 -0.565572 0.25644752 0.07476717 -0.1908063 0.021777552 0.032741383 -0.2319559
0.23192246 0.61202365 -0.21692756 0.40577787 -0.29035905 0.30926675 0.1993898 0.013682528
-0.657429 0.03169592 0.47943294 -0.29695702 0.024317328 -0.23126258 -0.3121905 -0.34112173
-0.3466928 -0.09984999 -0.11796073 0.018217022 0.039252177 0.21188006 0.24333122 -0.506826
0.15540287 0.5614399 0.17937611 0.2253135 0.43097425 0.17701599 -0.19541307 -0.21439515
00000000: bee6 bfbe 54c9 10bf 174d 833e 881f 993d
00000010: ba62 43be d666 b23c d41b 063d d985 6dbe
00000020: 157d 6d3e 95ad 1c3f 4222 5ebe 1ec2 cf3e
00000030: f1a9 94be 3658 9e3e d72c 4c3e af2c 603c
00000040: 444d 28bf 95d3 013d 3c78 f53e c00a 98be
00000050: 2235 c73c 19d0 6cbe 6fd7 9fbe 82a7 aebe
00000060: b881 b1be 277e ccbd 6595 f1bd dd3b 953c
00000070: e4c6 203d 16f7 583e d22b 793e 59bf 01bf
00000080: ee21 1f3e 86ba 0f3f 5fae 373e 95b8 663e
00000090: a8a8 dc3e ae43 353e 5d1a 48be 678a 5bbe

ini_net.0.bias f4 [20]
0.1994255 0.30005944 0.29762438 0.25131088 -0.5532959 0.5560366 0.52554727 0.28682694
0.6899585 0.32171845 0.26423168 -0.41333356 -0.14414796 -0.22094817 0.11609927 0.47816724
0.31932265 -0.19395007 -0.62611634 -0.43232027
00000000: 3336 4c3e 64a1 993e 3962 983e d2ab 803e
00000010: cda4 0dbf 6a58 0e3f 448a 063f fbda 923e
00000020: 1fa1 303f 48b8 a43e 6049 873e 75a0 d3be
00000030: 869b 13be 3d40 62be 74c5 ed3d 56d2 f43e
00000040: 427e a33e d99a 46be 2949 20bf 1559 ddbe

net.0.weight f4 [20, 20]
-0.16407019 0.22713196 0.11617379 0.6318601 -0.10927203 0.46648023 0.12778695 0.43648726
-0.008164856 0.30801308 -0.038630072 0.095114075 0.2379872 0.19642864 0.3374813 0.2811636
0.019329239 -0.106933326 -0.14018665 -0.062246874 0.07329409 0.2663718 0.039909016 0.16370322
-0.060533565 0.25260174 0.34159458 0.65461713 0.030675197 -0.24724256 -0.24140762 -0.25699416
-0.018974174 -0.34544224 -0.2681848 -0.11123976 0.24243149 -0.2519427 0.14671348 -0.23733336
0.5890176 -0.4067302 -0.1945104 -0.35559884 0.11539717 -0.57321584 -0.004520884 -0.6919693
-0.35256597 -0.59618753 0.13534243 0.8209406 0.67041117 -0.09011386 -0.0352732 0.114146315
-0.7532985 0.13702008 0.624992 0.10498128 -0.009615817 0.6163289 0.59703 -0.14685915
0.2716358 -0.38291258 -0.3201213 8.354111e-05 0.18868598 0.13547048 0.37329036 -0.16912276
-0.02298241 0.18876484 -0.2559407 0.33768624 0.021102825 -0.04190174 0.04229952 0.11739042
-0.4781335 -0.3882053 -0.07399166 0.008209978 -0.14936733 -0.20901649 -0.16640247 -0.58733577
0.16266862 -0.4096939 -0.18880259 -0.1561288 0.11899874 -0.0016346669 -0.049537614 -0.17250882
-0.6020792 -0.032274965 0.117662236 0.40865618 0.15401572 -0.3639456 -0.12357659 -0.46782464
0.4831628 -0.06618833 0.31145942 0.116874285 -0.08291666 -0.22941133 0.037980806 0.19654228
0.15446614 -0.26266983 0.31434175 -0.30842394 -0.31451482 0.16887857 0.064445026 0.070914134
0.03970372 -0.23437302 0.27313548 0.36767793 -0.031111823 -0.23824976 -0.18738398 -0.3216529
-0.077393405 0.36961487 0.18037844 0.294143 -0.5494905 0.14368044 0.34295198 0.37067115
-0.14731883 0.091818266 -0.48645177 -0.12825264 0.21388303 0.28386343 0.55711085 -0.2993292
-0.15292057 0.16174212 0.13712448 0.4969317 0.20636076 -0.26149648 0.19070695 -0.29403543
-0.099434815 0.43490666 0.17742889 0.13317375 0.4952715 -0.17614023 -0.6112475 -0.22241521
-0.04774657 -0.4346334 -0.022996837 0.04974672 0.30324644 -0.05081413 0.17229818 -0.60465765
-0.17416103 -0.3436751 -0.40470347 0.43776315 0.39386413 -0.38974866 0.3744804 -0.12740259
-0.12789412 0.095267944 0.18990856 -0.1902705 -0.29316574 -0.078510046 0.10175899 0.446424
-0.32092848 0.16605745 -0.04505137 0.45331115 0.106442645 0.72220445 -0.20760633 -0.64796436
0.07105068 0.051766053 0.022388004 0.32141897 0.0053646034 -0.09505579 0.32968372 -0.56854445
-0.3264998 0.056070365 -0.15795396 -0.17641877 0.037217308 -0.28969693 -0.12258492 0.18205498
-0.26211876 -0.54203 -0.06569717 -0.159423 0.048074532 0.3537365 0.27514404 -0.23470534
-0.05234433 0.15785651 -0.19470918 0.40912083 -0.3492975 0.09465084 0.6531401 0.16109793
-0.40908864 -0.031358454 -0.08063662 0.32043535 -0.11694333 0.47778156 0.6293548 -0.6127832
-0.13785471 0.55781215 -0.6116151 0.16278344 -0.009399059 -0.60003453 -0.25769153 -0.2947276
-0.3755259 -0.40328532 -0.55472404 -1.0021489 0.117765695 -0.4368832 -0.21750528 -0.17991245
-0.36556232 -0.6514351 -0.5598629 0.60794866 -0.21636704 -0.054901782 0.20189898 -0.88595265
00000000: 0402 28be 4895 683e 86ec ed3d 95c1 213f
00000010: 04ca dfbd 7fd6 ee3e 95da 023e 427b df3e
00000020: e3c5 05bc e4b3 9d3e 913a 1ebd 2bcb c23d
00000030: ebb2 733e 9724 493e 59ca ac3e adf4 8f3e
00000040: 5a58 9e3c dcff dabd 178d 0fbe 94f6 7ebd
00000050: 361b 963d e261 883e a377 233d d1a1 273e
00000060: 0bf2 77bd 0455 813e 7ce5 ae3e fd94 273f
00000070: 8d4a fb3c 272d 7dbe 8f33 77be bd94 83be
00000080: ba6f 9bbc cedd b0be 854f 89be acd1 e3bd
00000090: f63f 783e a2fe 80be 0f3c 163e 8407 73be
000000a0: dcc9 163f f13e d0be bc2d 47be 0d11 b6be
000000b0: 5a55 ec3d 46be 12bf ec23 94bb e624 31bf
000000c0: 8783 b4be bf9f 18bf 3597 0a3e 2a29 523f
000000d0: 11a0 2b3f 9e8d b8bd a27a 10bd 8bc5 e93d
000000e0: 2cd8 40bf fe4e 0c3e 7aff 1f3f 6d00 d73d
000000f0: a98b 1dbc bbc7 1d3f f5d6 183f 3f62 16be
00000100: d913 8b3e 1e0d c4be f0e6 a3be cb32 af38
00000110: e636 413e c6b8 0a3e ea1f bf3e 842e 2dbe
00000120: 9b45 bcbc 924b 413e a90a 83be 36e5 ac3e
00000130: d5df ac3c 29a1 2bbd 4342 2d3d 636a f03d
00000140: eacd f4be d8c2 c6be f088 97bd 2583 063c
00000150: c0f3 18be 6b08 56be 6965 2abe a35b 16bf
00000160: 9a92 263e 66c3 d1be 7755 41be 3ae0 1fbe
00000170: 9db5 f33d 5242 d6ba f4e7 4abd 27a6 30be
00000180: dd21 1abf c132 04bd e6f8 f03d 623b d13e
00000190: 4cb6 1d3e 1457 babe b915 fdbd b686 efbe
000001a0: 1d61 f73e bf8d 87bd 9c77 9f3e c95b ef3d
000001b0: 36d0 a9bd ceea 6abe c391 1b3d 6142 493e
000001c0: 5f2c 1e3e a97c 86be 67f1 a03e bee9 9dbe
000001d0: 1608 a1be 81ee 2c3e c1fb 833d 6e3b 913d
000001e0: 5ea0 223d 7bff 6fbe 6ad8 8b3e 4840 bc3e
000001f0: 39de febc bff7 73be 96e1 3fbe b0af a4be
00000200: 6f80 9ebd 293e bd3e 20b5 383e e999 963e
00000210: 69ab 0cbf f720 133e 6797 af3e 9cc8 bd3e
00000220: bfda 16be 370b bc3d 3510 f9be a954 03be
00000230: 2704 5b3e 8c56 913e d19e 0e3f ad41 99be
00000240: 3697 1cbe ba9f 253e 5c6a 0c3e d56d fe3e
00000250: 3c50 533e dee2 85be af48 433e d08b 96be
00000260: 7ba4 cbbd 16ac de3e ebaf 353e b35e 083e
00000270: 3a94 fd3e 1b5e 34be b77a 1cbf d0c0 63be
00000280: e891 43bd 4588 debe dd63 bcbc 37c3 4b3d
00000290: 1e43 9b3e 7a22 50bd ef6e 303e d8ca 1abf
000002a0: 4557 32be 2ff6 afbe 4b35 cfbe 7e22 e03e
000002b0: 8fa8 c93e 238d c7be e5bb bf3e d375 02be
000002c0: adf6 02be d71b c33d 6477 423e 45d6 42be
000002d0: d219 96be e0c9 a0bd 0467 d03d b091 e43e
000002e0: bd50 a4be f70a 2a3e c987 38bd 6618 e83e
000002f0: 9afe d93d 64e2 383f c196 54be fee0 25bf
00000300: 0583 913d a408 543d 0c67 b73c 0791 a43e
00000310: 8ec9 af3b 9cac c2bd 4ecc a83e 218c 11bf
00000320: fb2a a7be 0aaa 653d afbe 21be 1fa7 34be
00000330: 2d71 183d 2853 94be cd0d fbbd 9f6c 3a3e
00000340: 6e34 86be 7ac2 0abf 3d8c 86bd c83f 23be
00000350: cde9 443d f31c b53e aedf 8c3e 9956 70be
00000360: 0267 56bd 23a5 213e d861 47be 4978 d13e
00000370: 1fd7 b2be 4dd8 c13d 3134 273f dbf6 243e
00000380: 1174 d1be b971 00bd d024 a5bd 1a10 a43e
00000390: fc7f efbd c99f f43e 651d 213f 5cdf 1cbf
000003a0: c929 0dbe c7cc 0e3f cf92 1cbf b4b0 263e
000003b0: 83fe 19bc dd9b 19bf 25f0 83be 89e6 96be
000003c0: ee44 c0be 6a7b cebe 6502 0ebf 6a46 80bf
000003d0: 242f f13d 28af dfbe b4b9 5ebe f83a 38be
000003e0: fc2a bbbe 73c4 26bf 2d53 0fbf 86a2 1b3f
000003f0: 528f 5dbe b1e0 60bd 9bbe 4e3e cbcd 62bf

net.0.bias f4 [20]
-0.2162639 -0.24576104 -0.20893916 0.062481605 -0.13840646 0.09705937 -0.15398057 0.035878293
0.12402596 -0.18085723 -0.08290564 -0.28234288 -0.1395596 -0.119531535 -0.16621691 0.35084537
-0.19583938 -0.013632704 0.38557976 0.017353205
00000000: 4974 5dbe c8a8 7bbe 26f4 55be b6ec 7f3d
00000010: 6cba 0dbe 10c7 c63d 15ad 1dbe 1ef5 123d
00000020: 5301 fe3d a332 39be 6fca a9bd 3f8f 90be
00000030: b6e8 0ebe f3cc f4bd c434 2abe 01a2 b33e
00000040: 1e8a 48be b45b 5fbc b66a c53e 4f28 8e3c

net.2.weight f4 [20, 20]
0.031317264 -0.45258668 0.09106641 -0.2126554 -0.20764206 0.005598666 -0.23806629 0.15336451
0.3065231 -0.69630575 0.16736749 -0.14247906 -0.3363849 -0.8413984 -0.8247126 0.40871415
-0.30705208 -0.4013903 0.30701375 0.16381922 0.08430908 0.10355171 0.025807438 -0.20547947
-0.27321965 0.3187014 -0.21586218 0.25078276 0.32176042 -0.03923362 0.054159127 0.2069647
0.2839581 0.11944143 -0.22132973 -0.36701074 0.090617344 -0.3249176 0.34924462 -0.46247426
0.803556 0.3304322 0.14514066 -0.21128911 -0.38257143 0.10077724 0.34934956 0.4535544
-0.20897676 0.38147607 0.19162975 0.49700886 0.10733434 0.6057775 -0.21174465 0.308154
0.7761196 -0.25208598 -0.1774276 0.061048616 0.07409228 0.055383712 -0.14029002 0.58031464
-0.18238023 0.583599 0.04170531 -0.49397802 0.021174185 -0.11637978 -0.34898004 -0.5467876
0.5541174 -0.058766138 -0.20912085 -0.32283178 -0.6568817 -0.6762615 0.56274855 -0.18856588
0.011225322 0.29006317 0.6006447 -0.30973247 0.1183855 -0.08704748 -0.21045153 0.037674256
-0.29452902 -0.15163836 0.6432176 0.37621045 0.065810405 -0.9171773 -0.24845539 -0.47942352
0.16492929 -0.5123461 -0.29828322 -0.40635172 0.24802217 -0.039521344 -0.51865745 0.5981439
-0.2641946 0.007138317 0.031251956 1.1499417 -0.17095141 0.59289217 -0.03778029 0.32617363
-0.18691617 -0.09240542 0.5738783 -0.057932373 0.25826466 0.776721 -0.48923185 0.50923043
0.50423294 0.15304002 -0.06142949 0.04511085 -0.11263279 -0.38338894 0.35800323 0.22001852
0.059587866 0.8073724 -0.04980388 0.4571633 0.018678581 0.27391583 0.16621761 -0.39393896
0.19913234 -0.30072802 -0.24218337 0.15400346 0.06312529 -0.2367141 -0.40010038 -0.40946218
0.21797481 -0.16932254 0.22396366 -0.020232886 0.44798523 0.044990964 0.058822118 0.19372828
0.25065565 0.19364244 0.68810356 0.12786245 -0.14181966 0.121258 -0.06555232 0.66780627
0.49288586 0.6468518 0.14146549 -0.15728554 -0.038752645 -0.4866407 0.30746052 0.78555775
0.15334043 -0.06549146 0.26239648 0.7408104 -0.018567676 0.22062914 0.08282883 0.040910125
0.8593156 0.12549482 -0.6517563 0.2896147 0.40838927 0.82144797 -0.57120705 0.7242477
-0.6611599 -0.2738702 0.7736227 0.9792217 0.018932568 0.29657334 -0.39497668 0.4567011
-0.3629061 -0.21822336 0.47311887 0.36411723 0.3203936 0.5213269 0.24731517 0.08023529
-0.30998936 0.05780564 0.14701077 0.43548158 0.11084019 0.7118909 -0.657657 0.08529747
0.23669495 0.39103538 0.32570335 -0.61074144 -0.18053545 -0.243114 0.35160115 -0.28233698
0.24190477 -0.33445582 0.09589881 -0.95730233 -0.9147499 -0.21561106 0.7816856 -0.28350645
0.70987576 0.08918094 -0.45736238 -0.8571157 0.097281374 -0.2381646 0.092039436 -1.2115794
0.96706134 0.11451331 -0.05632072 -0.47874257 -0.6659003 -0.80770177 0.50680506 -0.59358466
-0.35301048 -0.6429768 -0.19130367 -0.23738804 -0.1949694 0.54164404 -0.38858265 0.015604985
0.009688316 -0.43774194 0.07878492 -0.1661646 -0.052013997 -0.5974921 -0.5378334 0.1609749
00000000: 8846 003d 71b9 e7be 0781 ba3d 56c2 59be
00000010: 1fa0 54be 0475 b73b a6c7 73be 960b 1d3e
00000020: 99f0 9c3e 1841 32bf 6262 2b3e 08e6 11be
00000030: a43a acbe e365 57bf 5d20 53bf fb42 d13e
00000040: ee35 9dbe 0883 cdbe e830 9d3e 3ac0 273e
00000050: 3daa ac3d eb12 d43d 1f6a d33c 3669 52be
00000060: 72e3 8bbe d42c a33e fa0a 5dbe 9966 803e
00000070: c8bd a43e 6fb3 20bd f6d5 5d3d 8eee 533e
00000080: f562 913e b59d f43d 43a4 62be d5e8 bbbe
00000090: 9695 b93d 9a5b a6be 31d0 b23e 6dc9 ecbe
000000a0: d9b5 4d3f 692e a93e c19f 143e 2c5c 58be
000000b0: 67e0 c3be 4c64 ce3d f2dd b23e 4838 e83e
000000c0: 01fe 55be d550 c33e 973a 443e f277 fe3e
000000d0: 1bd2 db3d 3c14 1b3f 97d3 58be 5cc6 9d3e
000000e0: c6af 463f 6a11 81be 95af 35be 1d0e 7a3d
000000f0: b1bd 973d 08da 623d 30a8 0fbe 808f 143f
00000100: e2c1 3abe be66 153f 30d3 2a3d b0ea fcbe
00000110: 7c75 ad3c 8658 eebd 83ad b2be 46fa 0bbf
00000120: a3da 0d3f c3b4 70bd c723 56be 354a a5be
00000130: 6629 28bf 791f 2dbf 4a10 103f 6a17 41be
00000140: 6aea 373c 2983 943e dac3 193f 4195 9ebe
00000150: 1974 f23d f345 b2bd 9b80 57be 5250 1a3d
00000160: 82cc 96be 1647 1bbe e9a9 243f a89e c03e
00000170: 9bc7 863d 22cc 6abf 176b 7ebe 0077 f5be
00000180: 39e3 283e 1d29 03bf 94b8 98be 550d d0be
00000190: 86f9 7d3e 22e1 21bd bcc6 04bf f51f 193f
000001a0: 8444 87be 8be8 e93b 0d02 003d 4a31 933f
000001b0: e30d 2fbe c8c7 173f 81bf 1abd 3b00 a73e
000001c0: f466 3fbe 0e3f bdbd b0e9 123f 7f4a 6dbd
000001d0: 443b 843e 30d7 463f 997c fabe ed5c 023f
000001e0: 6915 013f 86b6 1c3e 7d9d 7bbd 28c6 383d
000001f0: 05ac e6bd 8e4b c4be 334c b73e 894c 613e
00000200: 6812 743d f5af 4e3f 27ff 4bbd 4f11 ea3e
00000210: d303 993c b23e 8c3e f334 2a3e 5eb2 c9be
00000220: 59e9 4b3e 06f9 99be ebfe 77be 15b3 1d3e
00000230: d547 813d 2e65 72be f5d9 ccbe 07a5 d1be
00000240: ca34 5f3e e362 2dbe bb56 653e 70bf a5bc
00000250: 525e e53e 7248 383d 76ef 703d b560 463e
00000260: f055 803e 344a 463e 8e27 303f 60ee 023e
00000270: 2c39 11be 1d56 f83d 4b40 86bd 5af5 2a3f
00000280: 895b fc3e 1498 253f 54dc 103e 760f 21be
00000290: 18bb 1ebd f828 f9be 776b 9d3e 501a 493f
000002a0: 4605 1d3e 6320 86bd d558 863e c0a5 3d3f
000002b0: 3d1b 98bc 9bec 613e 29a2 a93d 6091 273d
000002c0: 1bfc 5b3f b781 003e 80d9 26bf 6148 943e
000002d0: 6618 d13e 6a4a 523f a03a 12bf 4c68 393f
000002e0: c641 29bf b738 8cbe 230c 463f 46ae 7a3f
000002f0: 7918 9b3c 76d8 973e 623a cabe bad4 e93e
00000300: d4ce b9be f275 5fbe a33c f23e 936d ba3e
00000310: a10a a43e ae75 053f 3040 7d3e 6652 a43d
00000320: edb6 9ebe 9bc5 6c3d fe89 163e 71f7 de3e
00000330: 2e00 e33d 7b3e 363f 365c 28bf 71b0 ae3d
00000340: 2960 723e ca35 c83e 97c2 a63e 8d59 1cbf
00000350: 49de 38be e0f2 78be 1105 b43e 798e 90be
00000360: e2b5 773e cb3d abbe 9866 c43d c411 75bf
00000370: 0d2d 6abf 25c9 5cbe 8c1c 483f c227 91be
00000380: 6bba 353f 7fa4 b63d 672b eabe ef6b 5bbf
00000390: 753b c73d 6ce1 73be 2c7f bc3d 0915 9bbf
000003a0: 5591 773f f485 ea3d 8eb0 66bd bf1d f5be
000003b0: 7178 2abf 8bc5 4ebf fabd 013f 2af5 17bf
000003c0: cabd b4be 219a 24bf 1ce5 43be da15 73be
000003d0: 0fa6 47be 2fa9 0a3f 4ef4 c6be 0dac 7f3c
000003e0: bebb 1e3c b61f e0be fd59 a13d 0e27 2abe
000003f0: a10c 55bd 3ef5 18bf 73af 09bf 9bd6 243e

net.2.bias f4 [20]
0.4403198 0.5453346 -0.3467751 0.18595403 -0.16124877 0.010766648 -0.27172467 -0.3009952
-0.6790819 0.4306602 0.084256195 -0.8509071 0.46402514 0.52486974 0.20723991 -0.022142202
-0.113436654 0.08270368 0.71346164 -0.34836626
00000000: 9971 e13e 0c9b 0b3f 828c b1be bc6a 3e3e
00000010: 661e 25be 9866 303c 7f1f 8bbe 0b1c 9abe
00000020: 50d8 2dbf 7e7f dc3e 838e ac3d 0cd5 59bf
00000030: b494 ed3e dd5d 063f b336 543e 9063 b5bc
00000040: 7a51 e8bd 8c60 a93d 6ca5 363f 105d b2be

net.4.weight f4 [20, 20]
0.009945501 0.24229883 1.2254204 0.4600695 0.26006612 0.4314537 -0.047801983 -0.24358822
0.6387458 0.09761515 -0.3252745 -0.69939625 -0.07372576 -0.8108281 0.24203168 0.19873561
0.3037315 -0.9142652 0.16906087 1.5238346 -0.2392561 -0.6184237 0.98983854 -0.02138193
0.120575495 0.34060988 0.14085738 -0.35046887 0.08092011 0.60971457 0.42246482 -0.71227735
-0.25840232 -0.51904047 0.1624506 0.4230834 0.10062071 0.0214872 0.35281503 -0.24957362
-1.0036399 -0.9848356 -0.10839714 0.15355214 -0.6198639 -0.38285807 0.5561826 0.5876637
0.16021462 -0.5013333 -0.29352117 0.25270617 -0.3730713 -0.27321115 -0.5336753 0.09889083
-0.24834278 0.01818687 -0.5037859 0.065638855 -0.30809253 -0.7297064 0.6754103 -0.44448978
-0.017639238 0.5543413 0.07927233 -0.07851773 0.64976126 0.15732603 -0.14291005 0.6611865
-0.013567049 -0.2796694 -0.05279255 0.31666934 0.20389825 -0.54792786 -0.6195354 0.15186666
-0.6353727 -0.69015175 0.5445183 -0.032433625 0.76270187 -0.21349537 -0.23423184 0.06636585
1.0818918 -0.29479218 -0.13323183 0.53324145 -0.27780318 -1.2586097 0.25466987 0.21320604
0.37313774 -0.32509115 -0.3349472 0.6304681 0.13019788 0.37281328 -0.77839583 0.23649998
0.00941907 0.32591605 0.20631108 0.020443153 -0.9519201 0.23703639 0.009743192 -0.6452008
0.29001004 0.6081452 0.0152947735 0.074004084 -0.49564108 0.9864039 0.25833607 -0.81775415
-0.4871001 -1.0129569 1.0679657 -0.15125808 0.34896865 -0.4412885 -0.13530415 0.52417046
1.2026112 -0.023982137 0.01092756 0.60620546 -0.7138563 -0.43559566 -0.23971856 0.036541503
0.19518651 0.360173 -0.6974924 0.6057444 -0.6526353 0.33840358 -0.048125956 0.13001928
0.466347 -0.35727647 -0.1323929 -0.34688604 0.24105102 -0.6492317 0.22150809 0.6753777
0.2578989 -0.32826105 0.024285091 0.03602788 0.040949408 -0.1712452 -1.0363951 0.21443075
-0.8893469 -0.87891144 -0.16482756 0.40131018 -0.46944502 -0.19801627 0.14069694 0.52523065
0.12081561 -0.45262888 -0.5690139 0.12908451 -0.59118295 -0.11459972 -0.169445 -0.057741206
-0.16228631 -0.06637725 -0.046509765 -0.09449051 0.7196165 -0.13655715 0.123386525 0.1832231
0.6600642 0.18871465 -0.4359264 -0.77121073 0.32880345 -0.17252916 0.3310271 0.3816823
-0.29511827 -0.22079328 0.11212608 0.07785513 0.06240763 0.29248098 -0.06950993 0.15538587
-0.43659472 0.09246632 0.021095254 -0.7046151 0.029629923 0.41896725 0.010447021 -0.23892073
0.142053 -0.13964021 -0.88061744 0.24791121 -0.77977496 0.096003205 0.12565126 0.27382824
-0.04996604 -0.3278529 -0.37017122 -0.30582446 -0.549058 -0.28300247 0.67536527 -0.63236606
0.2754208 -0.025453119 0.12752463 -0.23633707 1.0157206 -0.24423774 -0.18779784 0.2563088
-0.4274462 -0.6345948 -0.17906436 0.37783235 -0.00039136337 -0.69045657 -0.1940955 0.19216175
-0.041645724 -0.6044213 0.12123539 -0.59774715 0.53541106 0.47090092 0.44611794 0.29469752
-0.083418645 0.024785873 -0.90613234 0.16043456 -0.43502057 -0.44951445 0.80997425 0.11975995
00000000: 74f2 223c 2f1d 783e 93da 9c3f 3b8e eb3e
00000010: 6327 853e 80e7 dc3e 03cc 43bd 316f 79be
00000020: d884 233f 74ea c73d 618a a6be a20b 33bf
00000030: 88fd 96bd 6e92 4fbf 27d7 773e 5981 4b3e
00000040: b282 9b3e 490d 6abf 4b1e 2d3e 030d c33f
00000050: 8dff 74be 0451 1ebf 0f66 7d3f 2829 afbc
00000060: 49f0 f63d 6b64 ae3e eb3c 103e a870 b3be
00000070: 71b9 a53d 4116 1c3f 4f4d d83e cf57 36bf
00000080: 4f4d 84be d6df 04bf 7359 263e 639e d83e
00000090: 3b12 ce3d ed05 b03c 2ca4 b43e 3a90 7fbe
000000a0: 4677 80bf 301e 7cbf 52ff ddbd c63c 1d3e
000000b0: 67af 1ebf f905 c4be fc61 0e3f 2171 163f
000000c0: 4d0f 243e 6157 00bf 6848 96be b462 813e
000000d0: 3403 bfbe 55e2 8bbe f29e 08bf 4787 ca3d
000000e0: 924d 7ebe a1fc 943c 1df8 00bf aa6d 863d
000000f0: 4ebe 9dbe 0ace 3abf b0e7 2c3f 2a94 e3be
00000100: 2a80 90bc 50e9 0d3f 8859 a23d e7cd a0bd
00000110: c156 263f 131a 213e 0357 12be 8543 293f
00000120: 5448 5ebc d430 8fbe 003d 58bd 7c22 a23e
00000130: b4ca 503e 0045 0cbf df99 1ebf ef82 1b3e
00000140: c9a7 22bf c9ad 30bf 8d65 0b3f 1fd9 04bd
00000150: 6e40 433f 889e 5abe 79da 6fbe d2ea 873d
00000160: 6e7b 8a3f 00ef 96be ed6d 08be 8382 083f
00000170: 383c 8ebe 1f1a a1bf 1764 823e af52 5a3e
00000180: e90b bf3e 5972 a6be 337e abbe 5b66 213f
00000190: 9852 053e 62e1 be3e f344 47bf 0d2d 723e
000001a0: 7152 1a3c 78de a63e 3643 533e 6678 a73c
000001b0: 09b1 73bf abb9 723e e9a1 1f3c e12b 25bf
000001c0: 327c 943e 67af 1b3f ee96 7a3c 748f 973d
000001d0: abc4 fdbe f784 7c3f a044 843e 5658 51bf
000001e0: 2f65 f9be 92a8 81bf 1ab3 883f 66e3 1abe
000001f0: 05ac b23e 91f0 e1be 2c8d 0abe 0930 063f
00000200: 2aef 993f 3076 c4bc 8209 333c 4830 1b3f
00000210: 49bf 36bf 6506 dfbe c878 75be 8bac 153d
00000220: f9de 473e 9868 b83e dd8e 32bf 1112 1b3f
00000230: 1b13 27bf 3c43 ad3e b91f 45bd c623 053e
00000240: 09c5 ee3e f1ec b6be 0192 07be 0c9b b1be
00000250: 14d6 763e 0c34 26bf 04d3 623e 8ee5 2c3f
00000260: 530b 843e d511 a8be 87f1 c63c f891 133d
00000270: 91ba 273d e75a 2fbe 98a8 84bf bc93 5b3e
00000280: 3dac 63bf 5700 61bf 8ec8 28be 8778 cd3e
00000290: 195b f0be c7c4 4abe dc12 103e 8475 063f
000002a0: 2d6e f73d f9be e7be e5aa 11bf bb2e 043e
000002b0: c457 17bf 42b3 eabd fd82 2dbe 0b82 6cbd
000002c0: 622e 26be ccf0 87bd 0681 3ebd 3e84 c1bd
000002d0: c938 383f a3d5 0bbe 13b2 fc3d d69e 3b3e
000002e0: f8f9 283f 6a3e 413e bf31 dfbe 116e 45bf
000002f0: ed58 a83e 7cab 30be 627c a93e dd6b c33e
00000300: be19 97be a217 62be 5ca2 e53d 8372 9f3d
00000310: 259f 7f3d 11c0 953e 395b 8ebd 791d 1f3e
00000320: 5889 dfbe fb5e bd3d f4cf ac3c a861 34bf
00000330: 74ba f23c e082 d63e fb29 2b3c a3a7 74be
00000340: 5776 113e d8fd 0ebe 2570 61bf 70dc 7d3e
00000350: 559f 47bf 549d c43d b9aa 003e 3733 8c3e
00000360: 31a9 4cbd 56dc a7be 1587 bdbe 0695 9cbe
00000370: 118f 0cbf b3e5 90be bde4 2c3f bee2 21bf
00000380: f503 8d3e 0f83 d0bc d195 023e 5802 72be
00000390: 2203 823f 7519 7abe 144e 40be e83a 833e
000003a0: 3ada dabe ce74 22bf a65c 37be 3e73 c13e
000003b0: e72f cdb9 c3c1 30bf f9c0 46be 0dc6 443e
000003c0: b594 2abd 5bbb 1abf 434a f83d f505 19bf
000003d0: b310 093f ed19 f13e 9269 e43e 98e2 963e
000003e0: 65d7 aabd be0b cb3c 4af8 67bf f548 243e
000003f0: 04bb debe c226 e6be 795a 4f3f b444 f53d

net.4.bias f4 [20]
-0.02223397 -0.057788048 -0.36766592 -0.28613928 -0.41209146 0.33818704 -0.42891124 -0.2518367
-0.307765 0.10640309 -0.26343068 -0.3063094 -0.040358666 0.09437656 0.12161907 0.5607264
0.42424768 -0.2208927 0.017519927 0.023006156
00000000: 0424 b6bc 29b3 6cbd b53e bcbe d980 92be
00000010: a7fd d2be da26 ad3e 419a dbbe bdf0 80be
00000020: 6093 9dbe dde9 d93d 63e0 86be 96d4 9cbe
00000030: 214f 25bd 7f48 c13d 6b13 f93d c48b 0f3f
00000040: fe36 d93e b231 62be f385 8f3c 6877 bc3c
