checkpoints/best_model_v2.pth (torch, 105175 bytes, 99 tensors)

ini_net.0.weight f4 [20, 2]
-0.3361997 0.13919121 0.04313609 0.26123375 0.37277016 -0.44131973 0.0406222 0.5976873
-0.4064604 0.59077036 -0.2915855 -0.26968476 -0.33720052 -0.5052532 -0.007900957 0.3480416
-0.044599257 -0.50354606 0.40202352 0.087818064 -0.3189832 -0.15385683 0.23772083 -0.07080395
-0.23135477 0.8269884 0.24393271 0.40226933 0.38133892 0.24300088 0.19382176 0.08097207
0.23497802 0.33705246 -0.3672647 0.27835685 0.14951949 -0.2576128 0.21557374 -0.018256685
00000000: 5e22 acbe 2488 0e3e 78af 303d 6ec0 853e
00000010: bbdb be3e a9f4 e1be 7763 263d 0902 193f
00000020: 941b d0be ba3c 173f b24a 95be 1f14 8abe
00000030: 8ca5 acbe 4658 01bf 0473 01bc 8232 b23e
00000040: b6ad 36bd 65e8 00bf 07d6 cd3e f5d9 b33d
00000050: c451 a3be a58c 1dbe 176d 733e a901 91bd
00000060: 44e8 6cbe 83b5 533f 7fc9 793e 3ff6 cd3e
00000070: db3e c33e 39d5 783e 3679 463e afd4 a53d
00000080: 149e 703e 2492 ac3e 1e0a bcbe ca84 8e3e
00000090: a31b 193e d3e5 83be 5dbf 5c3e 0b8f 95bc

ini_net.0.bias f4 [20]
0.36830497 0.09051816 0.111155026 0.13774519 -0.43793765 0.27373758 0.21765178 0.13566858
0.46656573 0.3978475 -0.09587314 -0.2687843 -0.33977824 0.053490072 0.03490005 0.056249127
0.26811182 0.08279034 -0.21664226 -0.20548072
00000000: 7892 bc3e 9661 b93d 3fa5 e33d 130d 0d3e
00000010: 5d39 e0be 5527 8c3e 1ce0 5e3e b4ec 0a3e
00000020: b4e1 ee3e abb2 cb3e 2359 c4bd 199e 89be
00000030: 6af7 adbe 6818 5b3d 5bf3 0e3d 7c65 663d
00000040: f445 893e fb8d a93d 78d7 5dbe 8a69 52be

net.0.weight f4 [20, 20]
-0.33165374 -0.36943656 0.47230703 0.13700558 -0.40426067 -0.0930191 0.1545612 0.37625018
0.26511407 0.33231184 -0.35553092 -0.16453445 0.03326841 0.54035664 0.2917522 0.4435446
0.55756795 0.28516072 -0.06871682 0.28458977 0.06123516 0.28830096 -0.13056768 0.39476374
0.2145612 0.1752488 0.14297663 0.5632472 0.42162144 0.05381015 -0.5141162 -0.24181864
0.31754732 0.35088608 0.15974768 -0.104672074 0.34471598 0.22729705 -0.5157641 0.09141696
0.31059226 0.28276366 -0.19920482 0.3291864 0.17685714 0.17129731 -0.3908593 -0.7732481
0.29725477 -0.30558217 0.1926082 0.6590228 0.102043964 0.40347204 0.19054002 -0.57793224
-0.12199209 -0.11720552 -0.4860815 0.61469686 0.27914593 0.2555778 -0.15904759 -0.00988267
0.21580641 0.57923275 0.5067589 0.6505487 -0.17493586 -0.1836191 0.16791658 -0.23029938
-0.057817016 0.3748462 -0.24281202 -0.2786875 0.36389184 0.23527929 -0.047038484 -0.37586746
-0.19574933 -0.059683394 -0.35602948 -0.20182477 0.21127093 -0.732702 0.033321884 0.26721975
-1.0114008 -0.3495956 -0.4682169 -0.08633958 -0.44443247 -0.22475559 -0.15660517 -0.5953994
0.2548982 0.2560909 0.09312994 0.4959765 -0.46008095 -0.09466186 0.32239315 -0.100728884
-0.19291927 -0.8944014 -0.44590223 0.32303333 -0.45164326 -0.14402886 -0.42987338 0.45879692
0.3503266 0.14567964 0.5014227 -0.062286664 0.12911943 -0.28204244 0.2072124 0.71298176
0.14720182 0.47498497 -0.22113363 -0.16443251 0.11067466 0.33832246 0.7675823 0.06135327
-0.10709019 0.049416207 0.48507693 -0.68006116 -0.06269275 0.2442034 -0.017734366 -0.5915171
0.27711028 0.67557114 -0.7141296 0.020060264 0.24157935 -0.53916466 -0.19537424 -0.18759416
0.07741256 -0.18953152 0.15749505 0.074726604 -0.06328108 0.16119154 0.25416663 0.0012670644
-0.018484391 0.004292015 -0.46748704 0.54708785 -0.19092372 0.24744324 0.44620535 0.31324536
-0.32793856 -0.74502367 0.30378893 -0.5957996 0.09899152 -0.69836986 -0.069343336 -0.41246358
0.12144091 0.06915584 -0.24718963 0.52790344 -0.1938022 -0.3587278 -0.09590234 0.7450123
-0.7059208 -0.5138357 0.86773276 0.2337024 -0.6013353 0.32549822 0.5346283 0.35303205
-0.2306611 -0.23113859 0.4020615 0.30822566 -0.020891901 0.3227548 0.2669279 0.042965934
-0.14552574 0.57924646 0.041875932 -0.14507945 0.3586333 -0.46522355 -0.049765155 -0.27894464
0.36147916 0.028412538 -0.21023175 -0.02745842 -0.3068962 -0.8704417 -0.4269543 -0.20254557
-0.67381185 -0.7003335 0.3355321 0.76321214 -0.040996987 0.075452745 -0.13305607 -0.19491407
-0.7055473 -0.5253028 0.3495684 0.6723945 0.07005541 0.14050539 0.58544314 0.56992143
-0.3226768 0.08326391 -0.11988103 0.49395838 0.021018166 0.75439984 0.113069735 -0.37096405
-0.14409633 -0.031516276 0.17639564 -0.09783848 0.8649288 -0.3203696 0.30725417 0.29777935
-0.15132226 -0.123297654 -0.4383621 -0.107857026 0.3989594 -0.2329661 0.35801062 0.16212521
0.022116588 -0.42724046 0.0883299 -0.0020816445 -0.31144646 -0.15958567 -0.5067501 -0.23953906
00000000: 85ce a9be ca26 bdbe 3ad2 f13e 314b 0c3e
00000010: 41fb cebe cc80 bebd 4b45 1e3e dda3 c03e
00000020: 08bd 873e c724 aa3e 2608 b6be b87b 28be
00000030: 7544 083d d054 0a3f 8b60 953e 4718 e33e
00000040: c6bc 0e3f 9600 923e 67bb 8cbd c0b5 913e
00000050: b8d1 7a3d 2f9c 933e 89b3 05be 791e ca3e
00000060: eeb5 5b3e 6c74 333e 7768 123e f830 103f
00000070: c4de d73e 0868 5c3d 1f9d 03bf 4e9f 77be
00000080: 9095 a23e 57a7 b33e e594 233e 505e d6bd
00000090: 9d7e b03e 8fc0 683e 1e09 04bf d138 bb3d
000000a0: f305 9f3e 66c6 903e 59fc 4bbe 1f8b a83e
000000b0: 0a1a 353e 9068 2f3e b61e c8be 96f3 45bf
000000c0: c731 983e 4475 9cbe 153b 453e b8b5 283f
000000d0: 6dfc d03d e393 ce3e ec1c 433e 5ef3 13bf
000000e0: fdd6 f9bd 7309 f0bd addf f8be c65c 1d3f
000000f0: 37ec 8e3e 18db 823e 5fdd 22be ecea 21bc
00000100: 5bfc 5c3e 9948 143f f4ba 013f 5c8a 263f
00000110: 6322 33be a506 3cbe 53f2 2b3e 9ad3 6bbe
00000120: 89d1 6cbd d7eb bf3e b7a3 78be 21b0 8ebe
00000130: 0850 ba3e 0eed 703e 6dab 40bd b371 c0be
00000140: 8372 48be 9376 74bd 7f49 b6be 27ab 4ebe
00000150: 6857 583e 5c92 3bbf 877c 083d 07d1 883e
00000160: 9575 81bf 32fe b2be 20ba efbe ced2 b0bd
00000170: a78c e3be 5426 66be 1b5d 20be 186c 18bf
00000180: 0482 823e 591e 833e e9ba be3d a2f0 fd3e
00000190: bb8f ebbe 14de c1bd b710 a53e f24a cebd
000001a0: a18c 45be 7df7 64bf 4c4d e4be a064 a53e
000001b0: c93d e7be 4d7c 13be 5d18 dcbe 6ee7 ea3e
000001c0: 025e b33e 0b2d 153e 3d5d 003f 4d20 7fbd
000001d0: e237 043e de67 90be 7d2f 543e f985 363f
000001e0: 13bc 163e 3b31 f33e db70 62be ff60 28be
000001f0: 65a9 e23d 9a38 ad3e 4680 443f 914d 7b3d
00000200: 1a52 dbbd a668 4a3d 015c f83e 7d18 2ebf
00000210: 0e65 80bd 7510 7a3e a947 91bc aa6d 17bf
00000220: 66e1 8d3e 3bf2 2c3f 33d1 36bf 6c55 a43c
00000230: 9460 773e b206 0abf 2f10 48be af18 40be
00000240: 7a8a 9e3d 8d14 42be 6246 213e 430a 993d
00000250: 8399 81bd 650f 253e 2122 823e a013 a63a
00000260: 946c 97bc 08a4 8c3b 765a efbe f30d 0c3f
00000270: 8281 43be c361 7d3e 0775 e43e b261 a03e
00000280: 90e7 a7be dfb9 3ebf 398a 9b3e 5386 18bf
00000290: 11bc ca3d 5ec8 32bf e103 8ebd 6d2e d3be
000002a0: 03b6 f83d 94a1 8d3d 471f 7dbe ae24 073f
000002b0: 1574 46be 2cab b7be 7268 c4bd 20b9 3e3f
000002c0: 3ab7 34bf bd8a 03bf bc23 5e3f af4f 6f3e
000002d0: 1cf1 19bf b4a7 a63e 66dd 083f 9ec0 b43e
000002e0: 6c32 6cbe 98af 6cbe 01db cd3e c1cf 9d3e
000002f0: 7e25 abbc 1e40 a53e c6aa 883e 0cfd 2f3d
00000300: b304 15be 7f49 143f 1986 2b3d b58f 14be
00000310: c99e b73e c831 eebe 8cd6 4bbd d5d1 8ebe
00000320: cc13 b93e 69c1 e83c fe46 57be 7bf0 e0bc
00000330: 8021 9dbe 44d5 5ebf c199 dabe 1b68 4fbe
00000340: ef7e 2cbf 0e49 33bf ddca ab3e df61 433f
00000350: 75ec 27bd f886 9a3d da3f 08be 8e97 47be
00000360: bf9e 34bf 3f7a 06bf a1fa b23e 0c22 2c3f
00000370: 3679 8f3d a5e0 0f3e 9adf 153f 5fe6 113f
00000380: e535 a5be 4586 aa3d 2f84 f5bd 1de8 fc3e
00000390: 4a2e ac3c 5920 413f 1b91 e73d 00ef bdbe
000003a0: fd8d 13be 3617 01bd 0fa1 343e 8a5f c8bd
000003b0: f96b 5d3f 7c07 a4be 6b50 9d3e 8976 983e
000003c0: 39f4 1abe 7b83 fcbd ff70 e0be 25e4 dcbd
000003d0: 6844 cc3e aa8e 6ebe 2b4d b73e 2704 263e
000003e0: d92d b53c 43bf dabe 4ee6 b43d 336c 08bb
000003f0: e975 9fbe 6d6a 23be 60ba 01bf ba49 75be

net.0.bias f4 [20]
-0.27815905 -0.16334456 -0.090351105 -0.063639216 0.03909161 0.10360892 -0.052487742 -0.03879474
0.12177218 -0.15951686 0.004224765 -0.10316725 0.056392554 -0.1896643 0.4230821 0.6330767
-0.003474028 -0.063957766 0.1821425 0.16102326
00000000: dd6a 8ebe cc43 27be 000a b9bd 4755 82bd
00000010: 861e 203d ea30 d43d 63fd 56bd 3ce7 1ebd
00000020: b163 f93d 6358 23be e66f 8a3b 5a49 d3bd
00000030: e1fb 663d 5c37 42be 389e d83e 5111 223f
00000040: 85ac 63bb 4afc 82bd 9083 3a3e 48e3 243e

net.2.weight f4 [20, 20]
0.14297596 -0.21916072 0.36170393 -0.15921234 0.16340564 0.42463845 -0.73048663 -0.23758478
0.52369195 -0.38671678 0.025418602 -0.019074347 -0.16129285 -0.5622366 0.4991374 0.18685804
-0.22749734 -0.5604597 -0.11789498 -0.30458483 -0.3753635 -0.17568786 0.22685643 0.3135726
0.5151733 0.25087705 -0.1786333 -0.5454777 0.23132522 -0.6408963 0.46030542 -0.75594765
-0.42103225 0.00445449 -0.15585221 -0.3263102 -0.4989814 -0.17788386 0.11340194 -0.108187295
0.0075307814 0.4540421 -0.12297848 0.05650011 -0.37169784 0.084850855 0.67499876 0.5472249
-0.26403332 -0.0006697368 0.11434651 0.13612093 -0.0071816244 0.0996649 0.4720543 0.055941634
1.0153652 0.2860295 -1.0624465 -0.365224 0.04022577 0.21619844 0.5341753 -0.19335772
0.57194227 0.3989922 0.15553251 -0.5377162 -0.023667516 -0.6878336 -0.056030016 -0.1564448
0.2931354 -0.48422152 -0.12884463 0.40937707 -0.23742592 -0.2372509 -0.113793515 -0.6329011
0.11426396 0.14987203 0.11378884 0.47476315 -0.59529835 -0.06728633 0.38686863 -0.054973863
-0.09635347 -0.15556084 -0.5507687 -0.16503161 0.032728154 0.39556745 -0.21152976 0.25274676
0.41277212 -0.048349407 -0.4908768 -0.3308609 -0.1289058 0.43779263 -0.33479646 0.86616254
-0.40227938 -0.37733468 0.77797073 0.19609945 -0.11267372 0.08933287 -1.0528423 0.28340524
-0.29593533 0.56949764 0.92845106 0.9801725 0.6886572 0.25145033 -0.3881132 0.15928017
0.20680071 0.05866007 -0.4555024 0.5245589 -0.18015695 -0.5622807 0.8343609 0.36763152
-0.65705824 0.70580685 -0.8949993 0.47663006 -0.3073441 0.53850716 1.0334665 1.0360764
0.7503345 0.5083962 -0.6556481 0.3161628 -0.25512475 -0.4124561 -0.49840632 -0.081566915
-0.2264878 -0.0429248 -0.5365935 0.18330444 0.592618 -0.5201135 -0.27499303 -0.5699507
0.35504383 -0.16015492 -0.13613807 0.17283337 -0.16709705 -0.38259688 0.38658887 0.5574389
0.68313307 -0.087528065 0.13380249 -0.3574371 -0.34995443 0.14431933 -0.11018781 0.028266588
-0.27200338 -0.10442976 0.30684477 0.41003287 -0.4697375 0.048588376 -0.18364777 -0.32928973
0.417614 0.7162985 -0.39392933 0.18106751 -0.20467967 0.076103315 0.16420233 0.1954878
-0.3486623 -0.39609808 0.83214724 0.77219427 -0.3725623 0.43448585 0.38517305 0.009487658
-0.42837507 -0.35134557 0.52560174 0.2546358 0.28292462 -0.060402483 0.12796624 0.117426075
-0.31970486 -0.43464568 0.061331917 -0.7186666 0.20823637 0.7823174 -0.16008137 -0.35287225
0.19469222 -0.43509597 0.8893704 -0.6933628 0.19737658 -0.32002863 -0.3858559 -0.9601717
-0.20744494 -0.5395759 0.15052347 -0.17240256 0.567538 0.33547184 -0.2035728 0.52675563
-0.28915 -0.08016403 -0.05644355 -0.14761046 -0.5425179 0.5340997 -0.20773533 0.53183293
-0.19489779 0.1594199 -0.42412212 -0.60621494 0.6114101 0.28382662 -0.52894956 -0.23062544
0.14469449 -0.15385716 0.6762781 -0.39674842 0.08266685 0.5843329 -0.5184061 -0.6799763
0.20599985 -0.2948251 0.20128608 -0.14874344 0.07487354 -0.6365496 0.40045765 -0.15385672
00000000: 4a68 123e ab6b 60be 4231 b93e 8f08 23be
00000010: cf53 273e 366a d93e 2c01 3bbf 6d49 73be
00000020: ad10 063f beff c5be ac3a d03c ce41 9cbc
00000030: f429 25be bdee 0fbf f08e ff3e b757 3f3e
00000040: 10f5 68be 497a 0fbf ec72 f1bd 8bf2 9bbe
00000050: a52f c0be 85e7 33be 0d4d 683e 968c a03e
00000060: 66e2 033f f572 803e a6eb 36be 6da4 0bbf
00000070: 85e0 6c3e c811 24bf 27ad eb3e c985 41bf
00000080: 8a91 d7be f8f6 913b b997 1fbe 2112 a7be
00000090: 7d7a ffbe 3027 36be 473f e83d 4d91 ddbd
000000a0: c6c4 f63b 3578 e83e 24dc fbbd a96c 673d
000000b0: 2e4f bebe 49c6 ad3d b8cc 2c3f ee16 0c3f
000000c0: 602f 87be 4791 2fba 812e ea3d 4963 0b3e
000000d0: d553 ebbb 1c1d cc3d 1ab1 f13e 0e23 653d
000000e0: 7df7 813f 7572 923e 3ffe 87bf a4fe babe
000000f0: c7c3 243d 2063 5d3e b6bf 083f 91ff 45be
00000100: cf6a 123f b548 cc3e ea43 1f3e c5a7 09bf
00000110: 61e2 c1bc dd15 30bf bb7f 65bd 1133 20be
00000120: d815 963e e2eb f7be d9ef 03be df99 d13e
00000130: c81f 73be e6f1 72be 930c e9bd ce05 22bf
00000140: 3903 ea3d 0e78 193e 200a e93d 2814 f33e
00000150: 7965 18bf 6acd 89bd a513 c63e 462c 61bd
00000160: f854 c5bd 574b 1fbe 2dff 0cbf 0cfe 28be
00000170: f50d 063d d187 ca3e 429b 58be 0668 813e
00000180: de56 d33e 070a 46bd 3454 fbbe 9a66 a9be
00000190: e2ff 03be 5b26 e03e 716a abbe d4bc 5d3f
000001a0: 90f7 cdbe 0332 c1be 1729 473f 4bce 483e
000001b0: 7bc1 e6bd 27f4 b63d 89c3 86bf 7e1a 913e
000001c0: d684 97be 99ca 113f f8ae 6d3f 96ec 7a3f
000001d0: d74b 303f 19be 803e c6b6 c6be 571a 233e
000001e0: 91c3 533e 8b45 703d 9c37 e9be 7e49 063f
000001f0: 107b 38be a1f1 0fbf ad98 553f 333a bc3e
00000200: f834 28bf c2af 343f ad1e 65bf db08 f43e
00000210: 355c 9dbe 9bdb 093f a148 843f 279e 843f
00000220: ec15 403f 4126 023f 8ed8 27bf 17e0 a13e
00000230: b69f 82be 722d d3be 1d2f ffbe 8e0c a7bd
00000240: 6bec 67be ead1 2fbd 315e 09bf 29b4 3b3e
00000250: d0b5 173f 2926 05bf e3cb 8cbe 4ae8 11bf
00000260: 4ec8 b53e a7ff 23be c767 0bbe 3bfb 303e
00000270: 7d1b 2bbe bde3 c3be faee c53e 51b4 0e3f
00000280: cfe1 2e3f ea41 b3bd 8503 093e ff01 b7be
00000290: 3a2d b3be 72c8 133e 26aa e1bd 558f e73c
000002a0: 0744 8bbe 45df d5bd c21a 9d3e d4ef d13e
000002b0: 6f81 f0be 9b04 473d 290e 3cbe aa98 a8be
000002c0: 81d1 d53e 575f 373f 1bb1 c9be c369 393e
000002d0: 8c97 51be 0edc 9b3d a824 283e f42d 483e
000002e0: dd83 b2be 5ecd cabe 9a07 553f 86ae 453f
000002f0: 7cc0 bebe ee74 de3e 6735 c53e 1f72 1b3c
00000300: fa53 dbbe 91e3 b3be d68d 063f a05f 823e
00000310: 7fdb 903e 9868 77bd 9509 033e 157d f03d
00000320: 5bb0 a3be e189 debe 2d37 7b3d 89fa 37bf
00000330: ea3b 553e f445 483f 5fec 23be acab b4be
00000340: 665d 473e e6c4 debe c7ad 633f 3980 31bf
00000350: 161d 4a3e cbda a3be e88e c5be d0cd 75bf
00000360: 726c 54be a521 0abf d322 1a3e 4c8a 30be
00000370: 2c4a 113f f7c2 ab3e 6375 50be 75d9 063f
00000380: 780b 94be 0a2d a4bd 5a31 67bd 3227 17be
00000390: 74e2 0abf c2ba 083f 92b8 54be 3426 083f
000003a0: 4993 47be f83e 233e 8926 d9be e730 1bbf
000003b0: 5f85 1c3f b951 913e 3d69 07bf 1329 6cbe
000003c0: cb2a 143e bb8c 1dbe 9020 2d3f 9c22 cbbe
000003d0: 3d4d a93d d796 153f 43b6 04bf ed12 2ebf
000003e0: a0f1 523e 51f3 96be f01d 4e3e 3350 18be
000003f0: 4c57 993d eaf4 22bf c908 cd3e 9e8c 1dbe

net.2.bias f4 [20]
0.35937876 0.26262665 -0.015682666 0.10353793 -0.2458372 0.622638 0.78412575 0.2796095
-0.0911537 0.08741495 -0.4444233 -0.32707414 0.050617054 0.4058372 -0.32650438 0.4726582
-0.3339852 0.2578076 0.7301141 -0.35063428
00000000: 7e00 b83e 0077 863e ef78 80bc b20b d43d
00000010: bfbc 7bbe 3465 1f3f 77bc 483f fa28 8f3e
00000020: cbae babd 9c06 b33d 738b e3be 4376 a7be
00000030: d453 4f3d e5c9 cf3e 952b a7be 4100 f23e
00000040: 1c00 abbe 5cff 833e c2e8 3a3f 5686 b3be

net.4.weight f4 [20, 20]
0.39886755 -0.30020574 0.5518881 -0.18460867 0.43720382 1.1276776 0.6644488 -0.5012012
0.23311713 0.2757678 -0.64490885 0.21654946 -0.38688698 -0.26485646 0.8650743 0.61932033
-0.20871912 0.16368333 0.8243114 0.15124905 0.3588671 0.10887617 0.89824903 0.03526872
0.19437462 0.95304865 0.38624254 0.03442454 -0.14985187 0.66284615 -0.85188633 -0.22419861
-0.53226495 -0.54139704 0.71327406 0.9264815 -0.3008897 -0.44027844 0.42347273 0.110912174
-0.5579053 -0.8093048 0.14862105 -0.22137333 0.37286103 -0.18993454 -0.1357787 -0.84149605
-0.17026855 0.55902106 -0.4958331 0.6036327 -0.5784174 -0.26112673 0.7699361 -0.05779154
0.7009604 -0.4382568 -0.25145063 0.5628505 0.07425348 0.06276592 0.16182968 0.01914887
-0.17169969 0.92233515 0.4200518 -0.4562679 0.3423571 0.5091188 -0.5491942 -0.042477846
-0.4477482 -0.329373 0.19544308 0.7331448 0.2550653 0.043762185 0.8332017 0.38977307
-0.55179125 -0.23817326 0.45695752 -0.20065053 0.44365948 -0.39196336 -0.30137202 -0.30283394
0.21892045 -0.44104496 0.109091565 0.717676 -0.6172679 -0.6645223 0.50806373 0.07454285
0.5998047 -0.18958063 -0.76094484 0.6416681 -0.17209497 0.3325043 -0.17166461 0.24563636
-0.13262221 -0.19637969 -0.037204754 0.629967 -0.020870075 -0.41679847 -0.123212114 -0.14649007
0.1261639 0.23194186 -0.039449744 0.0039598583 -0.43290713 0.16231397 0.060349856 -0.29729122
-0.030091058 -0.16655675 0.73299366 -0.16871989 0.21549578 0.03750028 0.067813806 -0.13122222
0.44222596 -0.12819393 0.3953415 -0.0027234356 0.26152262 -0.78159934 -0.01457203 -0.14207567
0.0693595 -0.009944245 -0.1083208 -0.047731463 -0.6221875 -0.3911444 0.6254284 -0.4423288
0.57373303 -0.15747134 -0.48048562 -0.6697078 0.41330123 0.30366665 0.109005295 0.2620736
0.004090638 -0.6009288 0.42531577 0.20695588 0.21334274 -0.30495703 -0.44881684 0.30144083
-0.5343599 0.53650284 0.670462 0.090706624 -0.4021084 -0.031313345 0.55457366 -0.34458268
0.10204266 0.56166357 0.04815595 0.3929721 0.36872414 -0.25378424 0.45641792 0.60014045
0.06418734 0.3187602 0.7264055 0.37894768 0.1460788 -0.17992833 0.07331118 0.37084517
0.20646662 -0.010053658 -0.18481776 0.08832327 -0.13559382 -0.34875524 -0.20822558 -0.63957465
0.4071142 -0.026009897 0.36557508 0.013352978 -0.46939155 0.35845578 0.10878969 -0.35641608
-0.0898213 -0.43099785 0.050227337 -0.024641499 -0.29724988 0.13040745 0.25003237 0.13151193
0.05831222 0.29351237 0.039728858 0.11571633 -0.083535306 -0.45891774 0.16356948 0.24133945
0.4251402 0.039007433 0.49265206 -0.06748684 0.64800954 -0.2918058 0.25997427 0.5929783
0.07033533 -0.029482177 -0.0148276435 0.31174192 -0.53479624 -0.22022423 0.43638617 -0.09650967
0.115252875 -0.008723487 -0.60807365 -0.42002597 -0.5507084 0.5790019 0.31673285 0.32760474
0.024216866 -0.55359316 -0.025784263 0.22358839 0.7628229 0.022646008 0.025615841 -0.37612268
-0.1388172 -0.355768 0.07421276 0.020800041 -0.3165207 -0.5952368 -0.06049939 -0.5042607
00000000: 5e38 cc3e 91b4 99be 8a48 0d3f 0e0a 3dbe
00000010: 2ed9 df3e bd57 903f 5119 2a3f b94e 00bf
00000020: 42b6 6e3e 7031 8d3e bf18 25bf 24bf 5d3e
00000030: 0d16 c6be 449b 87be 8275 5d3f c78b 1e3f
00000040: 77ba 55be 9a9c 273e 1206 533f 08e1 1a3e
00000050: 6ebd b73e 78fa de3d a6f3 653f ef75 103d
00000060: 240a 473e fffa 733f 95c1 c53e bf00 0d3d
00000070: c572 19be 49b0 293f 3915 5abf 5294 65be
00000080: 8442 08bf ff98 0abf 2199 363f e42d 6d3f
00000090: 370e 9abe 2d6c e1be 6bd1 d83e ec25 e33d
000000a0: e2d2 0ebf 992e 4fbf 1e30 183e b1af 62be
000000b0: a4e7 be3e 337e 42be 9209 0bbe 496c 57bf
000000c0: e15a 2ebe 011c 0f3f d6dd fdbe ac87 1a3f
000000d0: 2a13 14bf 67b2 85be 881a 453f d2b6 6cbd
000000e0: 2472 333f 3263 e0be 23be 80be f816 103f
000000f0: 3512 983d 6b8b 803d aeb6 253e 17de 9c3c
00000100: 0bd2 2fbe 281e 6c3f 0811 d73e f29b e9be
00000110: 6e49 af3e 9c55 023f fe97 0cbf 40fd 2dbd
00000120: 413f e5be 94a3 a8be 3b22 483e 61af 3b3f
00000130: eb97 823e fa3f 333d b54c 553f 5690 c73e
00000140: 3142 0dbf b1e3 73be 56f6 e93e 5577 4dbe
00000150: 5627 e33e 6caf c8be 6f4d 9abe 0d0d 9bbe
00000160: af2c 603e a5d0 e1be 666b df3d 9db9 373f
00000170: 4505 1ebf 221e 2abf 7710 023f eca9 983d
00000180: cd8c 193f 6d21 42be 48cd 42bf 5c44 243f
00000190: aa39 30be 013e aa3e d9c8 2fbe 1988 7b3e
000001a0: 1ece 07be c217 49be 0364 18bd 8445 213f
000001b0: b8f7 aabc 9c66 d5be a256 fcbd 7e01 16be
000001c0: 1c31 013e 2b82 6d3e 0e96 21bd b3c1 813b
000001d0: 01a6 ddbe a235 263e 6931 773d 8e36 98be
000001e0: 8681 f6bc da8d 2abe 79a5 3b3f e8c4 2cbe
000001f0: edaa 5c3e e599 193d f7e1 8a3d 1e5f 06be
00000200: 716b e23e 4545 03be 336a ca3e ab7b 32bb
00000210: 4be6 853e e516 48bf 86bf 6ebc 497c 11be
00000220: 5b0c 8e3d 30ed 22bc 4cd7 ddbd 1182 43bd
00000230: ae47 1fbf 1444 c8be 131c 203f ec78 e2be
00000240: 2be0 123f 2b40 21be 3602 f6be f871 2bbf
00000250: 389c d33e 327a 9b3e 2b3e df3d 832e 863e
00000260: c20a 863b 78d6 19bf fdc2 d93e 3eec 533e
00000270: 8576 5a3e 5423 9cbe 52cb e5be 7456 9a3e
00000280: cfcb 08bf 4058 093f 66a3 2b3f 65c4 b93d
00000290: 27e1 cdbe 6c42 00bd 8af8 0d3f 246d b0be
000002a0: befb d03d 2fc9 0f3f 2c3f 453d a433 c93e
000002b0: 69c9 bc3e 02f0 81be 9caf e93e cea2 193f
000002c0: a774 833d 8934 a33e b6f5 393f 6e05 c23e
000002d0: ae95 153e 223f 38be 2c24 963d 6bdf bd3e
000002e0: fc6b 533e 19b8 24bc de40 3dbe d5e2 b43d
000002f0: 1bd9 0abe 0c90 b2be 1639 55be 2abb 23bf
00000300: 4671 d03e b512 d5bc a82c bb3e 73c6 5a3c
00000310: 1754 f0be 8487 b73e 21cd de3d 2b7c b6be
00000320: 3bf4 b7bd c0ab dcbe 2ebb 4d3d f8dc c9bc
00000330: 2331 98be 8889 053e 3e04 803e 10ab 063e
00000340: cbd8 6e3d 4147 963e baba 223d affc ec3d
00000350: 8f14 abbd 44f7 eabe c27e 273e b021 773e
00000360: faab d93e 42c6 1f3d e43c fc3e 8a36 8abd
00000370: f4e3 253f 9267 95be 591b 853e 6dcd 173f
00000380: f80b 903d 9b84 f1bc a5ef 72bc a39c 9f3e
00000390: 68e8 08bf 7682 61be 026e df3e dda6 c5bd
000003a0: b309 ec3d f5ec 0ebc b7aa 1bbf a50d d7be
000003b0: 3afb 0cbf 7839 143f cf2a a23e cfbb a73e
000003c0: 7362 c63c 48b8 0dbf 8539 d3bc 5bf4 643e
000003d0: 5d48 433f 1f84 b93c 50d8 d13c 2793 c0be
000003e0: 1926 0ebe 3927 b6be dcfc 973d d964 aa3c
000003f0: 000f a2be 7061 18bf 35ce 77bd 3b17 01bf

net.4.bias f4 [20]
0.32834688 0.29968086 -0.17288421 0.23649125 -0.27833977 -0.013832452 -0.097104535 0.024146646
0.08644385 0.38244247 0.0043684053 -0.013358478 -0.32847413 0.14675301 -0.20260483 0.050129466
0.42124367 0.11966209 0.016304404 0.13819967
00000000: 151d a83e c56f 993e 8f08 31be c32a 723e
00000010: 8d82 8ebe 82a1 62bc bede c6bd 30cf c53c
00000020: 7909 b13d 80cf c33e d724 8f3b 85dd 5abc
00000030: c32d a8be 6c46 163e a477 4fbe 8e54 4d3d
00000040: 40ad d73e 6611 f53d d090 853c 3784 0d3e

net.6.weight f4 [20, 20]
0.042339224 -0.009209106 -0.10408314 0.15763679 0.20017661 -0.18391424 0.3323182 0.3525271
-0.34188852 0.21006137 -0.20702392 -0.4134479 -0.23092978 -0.7554059 -0.21497348 0.3207864
-0.3263804 -0.18424363 -0.23644522 0.11119151 0.10615723 -0.007483366 -0.212302 0.31714982
-0.117998876 0.29248548 -0.15105216 -0.7385233 0.55931854 0.5263245 0.22310182 0.8218385
-0.12483319 0.58924836 -0.26954675 -0.69975215 0.28501308 0.1330437 -0.39650023 0.3762232
-0.36788788 0.23585762 0.5049398 0.23063962 0.5369522 -0.09155302 0.5562841 0.37289754
-0.32208422 -0.70937586 -0.23329663 -0.056090698 -0.1674496 -0.46425602 0.30204365 -0.050254956
-1.1207894 0.3364981 -0.022048146 0.31811288 0.18060675 0.5165594 0.033175364 0.22149523
-0.47784647 -0.0652827 -0.32545403 -0.9643527 -0.21221876 0.34107888 0.24951977 0.54460907
0.13952734 0.96862394 0.036125615 0.23413372 0.26495212 0.05766021 0.45872378 -0.31205386
0.7860038 0.591502 0.39825532 0.38428757 0.06811675 -0.48538104 0.6360833 -0.4778607
0.20572397 0.28322864 0.6131732 0.15239775 0.3953579 0.49657243 -0.32169977 -0.44498897
-0.037133735 0.5148099 0.4396596 0.64140385 -0.42217153 -0.8929663 0.049189705 -0.54933953
-0.13395263 0.0498502 -0.14105995 0.16497488 -0.94079036 0.55118716 -0.56822664 0.022933353
-0.32393274 -0.41570982 0.773689 0.22375482 -0.2623983 -0.74405026 -0.34661454 -0.594104
0.13685675 0.23087478 -0.22394408 0.5707478 -0.0756506 -0.68578684 0.17651547 0.19785623
0.15390325 -0.123305865 0.94733196 0.65194684 0.0802183 -0.19293597 -0.90378344 -0.64594734
0.029027449 0.33807588 0.32368147 0.12853296 0.22149335 -0.3813942 0.123410046 -0.46405017
0.29944345 -0.074710205 -0.05695308 0.5736236 -0.3279003 -0.2568092 -0.32454187 -0.63844067
-0.20695446 -0.8208502 0.14711344 0.038911484 -0.19224992 0.26825038 0.053145166 -0.11201492
-0.55295604 -0.8525195 0.40534186 -0.8009193 0.06882718 0.49730286 0.0639827 -0.14042945
-0.851318 0.19762835 -0.63037175 -0.5934114 0.18649454 -0.675353 0.75225115 0.30625317
-0.20016089 -0.7531985 -0.72938585 -0.5095559 0.2950237 0.9074588 0.53690815 0.7266072
-0.33610922 -0.4689004 -0.16585039 -0.3675688 0.8981521 -0.6003895 0.35615137 0.62869924
-0.3411164 0.04218482 -0.3777557 -0.4726322 0.025330521 0.31080052 0.7455903 0.68497753
-0.20024964 -0.5473913 -0.15085806 -0.734133 -0.4925343 0.2255569 -0.47741097 0.28662235
-0.67104036 0.062690675 -0.56839293 -0.6396641 -0.11353637 -0.16599193 0.9690972 0.66785896
-0.25197127 -0.58695114 -0.5766409 -0.31174615 0.74612224 0.3818966 0.022352938 0.4687521
0.436348 -0.81481135 -0.006448962 -0.25634748 0.5606292 -0.24869083 0.9438291 0.34549347
0.04077724 0.15153898 -0.59499747 -0.7024707 0.6738058 0.6761124 0.37251157 0.7106363
0.11547336 0.2250209 -0.36211753 0.3080817 -0.42687365 -0.36000592 -0.009748927 -0.1871589
0.7126579 -0.20436768 0.6772533 0.0057524457 -0.4548113 0.5076577 -0.64100206 -0.54393125
00000000: e56b 2d3d cae1 16bc 8b29 d5bd 8a6b 213e
00000010: 19fb 4c3e 0454 3cbe 9c25 aa3e 6f7e b43e
00000020: 030c afbe 541a 573e 14fe 53be 71af d3be
00000030: db78 6cbe 4862 41bf 0222 5cbe 1d3e a43e
00000040: 551b a7be 5daa 3cbe b21e 72be 60b8 e33d
00000050: f668 d93d 0637 f5bb b265 59be 7661 a23e
00000060: 65a9 f1bd a8c0 953e 6bad 1abe dd0f 3dbf
00000070: 802f 0f3f 34bd 063f ce74 643e 0264 523f
00000080: 8ba8 ffbd fbd8 163f 0802 8abe f522 33bf
00000090: 3ced 913e 9c3c 083e 1402 cbbe 54a0 c03e
000000a0: cd5b bcbe a984 713e bc43 013f cb2c 6c3e
000000b0: b375 093f 2680 bbbd a368 0e3f 6dec be3e
000000c0: 39e8 a4be a899 35bf 50e5 6ebe 5cbf 65bd
000000d0: e877 2bbe f7b2 edbe 77a5 9a3e 24d8 4dbd
000000e0: 0776 8fbf 7b49 ac3e 509e b4bc b1df a23e
000000f0: faf0 383e 3d3d 043f e4e2 073d a5cf 623e
00000100: 4ba8 f4be f0b2 85bd e9a1 a6be d2df 76bf
00000110: e04f 59be e4a1 ae3e 1c82 7f3e 806b 0b3f
00000120: 41e0 0e3e bdf7 773f 74f8 133d c0c0 6f3e
00000130: cea7 873e 1d2d 6c3d d8dd ea3e 86c5 9fbe
00000140: 8c37 493f ad6c 173f 1fe8 cb3e 57c1 c43e
00000150: cb80 8b3d dd83 f8be 5bd6 223f 28aa f4be
00000160: 4ea9 523e 5803 913e ebf8 1c3f 280e 1c3e
00000170: 5a6c ca3e be3e fe3e d5b5 a4be 98d5 e3be
00000180: 8b19 18bd 95ca 033f 101b e13e 0b33 243f
00000190: de26 d8be 7099 64bf 257b 493d 84a1 0cbf
000001a0: e12a 09be b92f 4c3d 0572 10be 2def 283e
000001b0: a3d7 70bf 9a1a 0d3f 4d77 11bf bade bb3c
000001c0: 83da a5be ebd7 d4be 7b10 463f fc1f 653e
000001d0: 1259 86be 147a 3ebf 7677 b1be 3317 18bf
000001e0: 2d24 0c3e 706a 6c3e 9951 65be 871c 123f
000001f0: b4ee 9abd ba8f 2fbf 79c0 343e d39a 4a3e
00000200: d098 1d3e c987 fcbd 5984 723f fde5 263f
00000210: 7e49 a43d 0291 45be 5a5e 67bf ce5c 25bf
00000220: f9ca ed3c 4818 ad3e 94b9 a53e 259e 033e
00000230: 27cf 623e 1a46 c3be 68be fc3d fc97 edbe
00000240: a750 993e aa01 99bd a247 69bd ffd8 123f
00000250: 8ce2 a7be 7f7c 83be 5a2a a6be d970 23bf
00000260: dfeb 53be 3d23 52bf e8a4 163e a661 1f3d
00000270: 2add 44be 1d58 893e bfae 593d 1468 e5bd
00000280: 878e 0dbf b83e 5abf f888 cf3e 0c09 4dbf
00000290: 44f5 8c3d 7b9e fe3e 5d09 833d bdcc 0fbe
000002a0: faef 59bf 165f 4a3e 0b60 21bf cfe9 17bf
000002b0: 6df8 3e3e efe3 2cbf 8893 403f 37cd 9c3e
000002c0: faf6 4cbe 9ed1 40bf 08b9 3abf 4172 02bf
000002d0: 590d 973e 384f 683f d072 093f ee02 3a3f
000002e0: 8216 acbe b713 f0be afd4 29be fa31 bcbe
000002f0: 4ced 653f 20b3 19bf 7959 b63e 6ff2 203f
00000300: cfa6 aebe fdc9 2c3d 3269 c1be d9fc f1be
00000310: f481 cf3c 3f21 9f3e 02df 3e3f b05a 2f3f
00000320: 3e0e 4dbe d621 0cbf 897a 1abe 24f0 3bbf
00000330: 752d fcbe 63f8 663e 366f f4be 2ac0 923e
00000340: 4dc9 2bbf f863 803d 3382 11bf 07c1 23bf
00000350: c285 e8bd caf9 29be c116 783f cef8 2a3f
00000360: 6102 81be 6e42 16bf bd9e 13bf 319d 9fbe
00000370: de01 3f3f f387 c33e 821d b73c 4600 f03e
00000380: 0169 df3e 7a97 50bf d051 d3bb fa3f 83be
00000390: 6585 0f3f cfa8 7ebe c99e 713f 85e4 b03e
000003a0: 0906 273d 092d 1b3e c151 18bf 1fd5 33bf
000003b0: 897e 2c3f b415 2d3f d6b9 be3e 43ec 353f
000003c0: 4c7d ec3d e16b 663e 7867 b9be e2bc 9d3e
000003d0: 2f8f dabe b252 b8be f7b9 1fbc 95a6 3fbe
000003e0: c070 363f c345 51be 7960 2d3f 037f bc3b
000003f0: 07dd e8be dbf5 013f b618 24bf 143f 0bbf

net.6.bias f4 [20]
0.108511776 0.20762743 0.13019563 -0.067089595 0.2913271 -0.45813957 0.7020906 0.08687891
-0.23398393 0.4445557 -0.6473357 0.48370078 0.3888601 0.072202325 -0.07835351 0.06322368
0.049569137 0.04556508 -0.3060661 0.11607687
00000000: 6c3b de3d 499c 543e 0152 053e 4566 89bd
00000010: d328 953e 4591 eabe 36bc 333f 92ed b13d
00000020: 7c99 6fbe ce9c e33e cbb7 25bf a1a7 f73e
00000030: ac18 c73e d0de 933d ce77 a0bd 6b7b 813d
00000040: 0209 4b3d 73a2 3a3d b2b4 9cbe b6b9 ed3d

out_net.0.weight f4 [1, 20]
-1.9095207 1.4362475 -1.2087995 1.7152234 1.5083542 -1.4801391 0.8373118 -1.6810344
-1.3438603 1.4866403 -1.1556344 1.4864637 1.0748066 1.6845366 -1.7931632 -1.718055
-1.8071078 1.2524118 -1.9206412 1.8552464
00000000: 2d6b f4bf f5d6 b73f f1b9 9abf 718c db3f
00000010: c011 c13f 3375 bdbf 115a 563f 232c d7bf
00000020: 9d03 acbf 3b4a be3f d4eb 93bf 7144 be3f
00000030: 4393 893f e59e d73f 5f86 e5bf 3ae9 dbbf
00000040: 4f4f e7bf 084f a03f 92d7 f5bf b778 ed3f

ini_net.0.weight f4 [20, 2]
-0.4449048 -0.46042186 -0.01678682 0.15148093 0.05073137 -0.31099978 -0.26493943 0.16411741
0.20609358 0.62538666 -0.30824745 0.3111622 -0.22717997 0.3156671 0.28425163 0.044653155
-0.5723534 -0.22031264 0.5357985 -0.22447856 -0.44583338 -0.07986183 -0.082301676 -0.44083026
-0.047082353 0.23897412 -0.38677213 0.10386148 0.12400821 0.048544843 0.34889957 -0.573044
0.4538718 0.49384123 -0.026531378 0.33349994 0.54195184 0.057030544 -0.22806719 -0.111224405
00000000: 90ca e3be 6abc ebbe 8384 89bc d11d 1b3e
00000010: b2cb 4f3d 5d3b 9fbe 24a6 87be 650e 283e
00000020: 320a 533e 5719 203f 9cd2 9dbe a750 9f3e
00000030: dea1 68be 1e9f a13e 6e89 913e 3ae6 363d
00000040: c185 12bf a399 61be 172a 093f b5dd 65be
00000050: 4644 e4be 998e a3bd c88d a8bd 81b4 e1be
00000060: 6dd9 40bd a2b5 743e ff06 c6be 54b5 d43d
00000070: 04f8 fd3d f5d6 463d f7a2 b23e 03b3 12bf
00000080: e261 e83e c2d8 fc3e 5558 d9bc 81c0 aa3e
00000090: 5bbd 0a3f dc98 693d 728a 69be 9fc9 e3bd

ini_net.0.bias f4 [20]
0.36830497 0.09051816 0.111155026 0.13774519 -0.43793765 0.27373758 0.21765178 0.13566858
0.46656573 0.3978475 -0.09587314 -0.2687843 -0.33977824 0.053490072 0.03490005 0.056249127
0.26811182 0.08279034 -0.21664226 -0.20548072
00000000: 7892 bc3e 9661 b93d 3fa5 e33d 130d 0d3e
00000010: 5d39 e0be 5527 8c3e 1ce0 5e3e b4ec 0a3e
00000020: b4e1 ee3e abb2 cb3e 2359 c4bd 199e 89be
00000030: 6af7 adbe 6818 5b3d 5bf3 0e3d 7c65 663d
00000040: f445 893e fb8d a93d 78d7 5dbe 8a69 52be

net.0.weight f4 [20, 20]
-0.3645684 0.004109719 0.41833645 0.5380905 -0.33201408 0.3497924 0.31811386 0.22727509
0.077762 0.38549554 0.01883645 0.24141149 -0.030205969 0.48396987 0.26371175 0.5067883
0.0098178955 -0.1069766 0.18333413 0.34922838 0.10123705 0.15233938 0.054115925 0.2796822
0.105561875 0.22018838 0.061205473 0.6241175 0.019542374 0.12711355 -0.5356327 -0.626948
-0.07343095 -0.001722625 -0.09589692 -0.33340165 0.47494256 -0.22399445 -0.027006073 -0.12113051
0.22410962 0.014441815 -0.023729099 -0.2172104 0.101585865 -0.36588413 0.23050395 -0.6104553
-0.11847678 -0.5852266 0.5151897 0.5182759 0.3503026 0.3993022 -0.04264059 0.051329073
-0.2978706 0.16833837 0.052094247 0.112090304 0.13762532 0.48139375 0.1872129 -0.12841776
0.37889 0.2065179 0.040474918 0.2717942 0.22723405 0.26333153 0.15207343 -0.6783042
0.34562528 0.08548758 -0.29310602 -0.456246 0.3205404 0.293234 -0.2415008 -0.12552157
-0.41286793 -0.4421526 -0.58205575 -0.0315763 0.17398399 -0.5905597 -0.33792585 0.23211461
-0.35289195 -0.6263035 -0.8132577 -0.15386039 0.08120459 -0.62031776 -0.16755617 -0.46500775
-0.0916627 0.3632726 0.05432467 0.033973854 0.022261731 -0.10862471 0.10105979 0.053227592
0.361457 -0.45746276 -0.21885033 0.11629722 -0.16669509 0.19318134 -0.0033663278 0.31987152
0.19636458 -0.13612111 0.6356532 0.0062554623 -0.16066684 -0.13152823 -0.073525116 0.24462657
0.409551 -0.113086835 0.00369815 0.27733034 0.19373433 0.07037965 0.21653917 -0.08196282
-0.19063629 -0.054021213 0.42672932 0.010704122 -0.11959525 0.047710545 0.023193542 -0.01166697
-0.19865337 0.4726805 -0.6543581 -0.03847963 0.06591716 0.12538125 0.30213213 -0.4183189
0.08682213 -0.15809628 -0.34357765 0.6153916 -0.17215571 -0.21424949 -0.15658435 -0.20988242
0.117673285 0.017988238 0.052427657 0.38557458 0.41995823 -0.09259896 -0.14619523 -0.2793132
-0.42434087 -0.8552625 0.17448214 -0.18788972 -0.038877282 -0.36321324 0.053979706 -0.6071077
0.078785144 -0.19846526 -0.35301176 0.78636056 0.20549074 -0.51656246 0.37456468 0.24850231
-0.29177484 -0.21348952 0.35185027 -0.1620534 -0.35019517 -0.13562948 0.350669 0.622962
-0.26889583 -0.029369239 0.18125339 0.36353907 0.21502215 0.6968043 -0.33812568 -0.38514364
0.004268323 0.2509773 0.1948648 0.3718022 -0.0112343775 -0.23607849 0.5076834 -0.27707875
-0.286728 0.21277386 0.032402612 -0.11075737 -0.37012073 -0.71716964 -0.5608495 -0.053773403
-0.56505334 -0.49283305 0.072818086 0.2714857 0.21519026 0.28459233 -0.05003426 0.06167477
-0.49719882 -0.4644544 -0.20864241 0.5542718 0.06637849 -0.19633012 0.67418164 -0.09530229
-0.25235644 -0.04639275 -0.026694048 0.6079091 -0.08294504 0.7414482 0.16287258 -0.53014314
-0.12963632 0.45092404 -0.2819242 0.29674983 0.63006055 -0.47339037 -0.24738076 -0.22677302
-0.64354193 -0.26348028 -0.67110974 -0.24056168 0.23981999 -0.43617168 -0.1635553 -0.0134668285
-0.4474221 -0.53219473 -0.5039788 0.4527285 -0.25114372 -0.056656275 0.008269229 -0.5574225
00000000: b6a8 babe d2aa 863b 3230 d63e 4dc0 093f
00000010: c0fd a9be fd17 b33e d2df a23e cdba 683e
00000020: af41 9f3d ac5f c53e e64e 9a3c 9334 773e
00000030: 8272 f7bc e6ca f73e 3a05 873e e1bc 013f
00000040: 3ddb 203c 8c16 dbbd f1bb 3b3e 10ce b23e
00000050: 5f55 cf3d dbfe 1b3e a9a8 5d3d 8132 8f3e
00000060: d330 d83d 1079 613e 97b2 7a3d 2ac6 1f3f
00000070: 5417 a03c 0e2a 023e 3a1f 09bf aa7f 20bf
00000080: f762 96bd b4c9 e1ba 9b65 c4bd 9fb3 aabe
00000090: ac2b f33e cd5e 65be d73b ddbc 4613 f8bd
000000a0: fe7c 653e 5d9d 6c3c 8763 c2bc 676c 5ebe
000000b0: 400c d03d 2a55 bbbe 3a09 6c3e cc46 1cbf
000000c0: f4a3 f2bd 69d1 15bf 79e3 033f bbad 043f
000000d0: dd5a b33e 5771 cc3e e6a7 2ebd 6f3e 523d
000000e0: 7f82 98be e560 2c3e c760 553d 9a8f e53d
000000f0: a7ed 0c3e 3e79 f63e bdb4 3f3e f27f 03be
00000100: dffd c13e 6e79 533e 07c9 253d 9c28 8b3e
00000110: 0bb0 683e 64d3 863e 23b9 1b3e 58a5 2dbf
00000120: ccf5 b03e 1d14 af3d fe11 96be 1399 e9be
00000130: df1d a43e c422 963e fc4b 77be ba88 00be
00000140: 6d63 d3be d361 e2be 9b01 15bf 2656 01bd
00000150: dc28 323e ec2e 17bf 9e04 adbe 74af 6d3e
00000160: 41ae b4be 6d55 20bf a831 50bf 948d 1dbe
00000170: 984e a63d 25cd 1ebf d893 2bbe 7f15 eebe
00000180: a7b9 bbbd defe b93e 8c83 5e3d 2b28 0b3d
00000190: 3c5e b63c a276 debd 6ff8 ce3d 2d05 5a3d
000001a0: e410 b93e 8f38 eabe 4d1a 60be 3d2d ee3d
000001b0: 1eb2 2abe 54d1 453e 9c9d 5cbb 33c6 a33e
000001c0: cc13 493e 5563 0bbe 2bba 223f 9ffa cc3b
000001d0: d985 24be 56af 06be 5694 96bd 637f 7a3e
000001e0: abb0 d13e 129a e7bd a95c 723b 3efe 8d3e
000001f0: 4b62 463e 3523 903d 72bc 5d3e 1fdc a7bd
00000200: 2936 43be 5945 5dbd 447c da3e 5760 2f3c
00000210: 5bee f4bd 226c 433d 6200 be3c d226 3fbc
00000220: ca6b 4bbe 2e03 f23e 0384 27bf d19c 1dbd
00000230: 93ff 863d f163 003e 10b1 9a3e e52d d6be
00000240: cdcf b13d fee3 21be 69e9 afbe 4e8a 1d3f
00000250: 9649 30be 3864 5bbe a657 20be 6beb 56be
00000260: b1fe f03d 125c 933c 62be 563d 086a c53e
00000270: c404 d73e 86a4 bdbd 34b4 15be 2402 8fbe
00000280: 3543 d9be 7cf2 5abf 72ab 323e 2a66 40be
00000290: c93d 1fbd 16f7 b9be d319 5d3d 696b 1bbf
000002a0: 1b5a a13d 7a3a 4bbe f5bd b4be ed4e 493f
000002b0: 2a6c 523e 703d 04bf f1c6 bf3e 6477 7e3e
000002c0: 8363 95be ff9c 5abe b825 b43e 54f1 25be
000002d0: c84c b3be 74e2 0abe e38a b33e 707a 1f3f
000002e0: b7ac 89be c297 f0bc 7d9a 393e cb21 ba3e
000002f0: c42e 5c3e c461 323f cf1e adbe 8c31 c5be
00000300: 4add 8b3b 1980 803e a38a 473e dc5c be3e
00000310: 6510 38bc 8fbe 71be 8af7 013f 44dd 8dbe
00000320: 03ce 92be 64e1 593e 9ab8 043d c3d4 e2bd
00000330: 7780 bdbe 6e98 37bf d593 0fbf 8041 5cbd
00000340: 56a7 10bf 9d54 fcbe a621 953d 2c00 8b3e
00000350: d65a 5c3e 16b6 913e b9f0 4cbd af9e 7c3d
00000360: d890 febe f8cc edbe 5ba6 55be c2e4 0d3f
00000370: 72f1 873d c30a 49be 2b97 2c3f d92d c3bd
00000380: dd34 81be 5306 3ebd 7aad dabc ee9f 1b3f
00000390: 17df a9bd 8dcf 3d3f 12c8 263e 76b7 07bf
000003a0: 62bf 04be 84df e63e 5e58 90be 98ef 973e
000003b0: a64b 213f 3960 f2be 6251 7dbe 3037 68be
000003c0: 2abf 24bf e3e6 86be d9cd 2bbf cd55 76be
000003d0: 5f93 753e e551 dfbe 0a7b 27be f9a3 5cbc
000003e0: 8214 e5be ea3d 08bf c104 01bf 08cc e73e
000003f0: e995 80be 6910 68bd a97b 073c 3eb3 0ebf

net.0.bias f4 [20]
-0.27815905 -0.16334456 -0.090351105 -0.063639216 0.03909161 0.10360892 -0.052487742 -0.03879474
0.12177218 -0.15951686 0.004224765 -0.10316725 0.056392554 -0.1896643 0.4230821 0.6330767
-0.003474028 -0.063957766 0.1821425 0.16102326
00000000: dd6a 8ebe cc43 27be 000a b9bd 4755 82bd
00000010: 861e 203d ea30 d43d 63fd 56bd 3ce7 1ebd
00000020: b163 f93d 6358 23be e66f 8a3b 5a49 d3bd
00000030: e1fb 663d 5c37 42be 389e d83e 5111 223f
00000040: 85ac 63bb 4afc 82bd 9083 3a3e 48e3 243e

net.2.weight f4 [20, 20]
-0.03136573 -0.5554 0.58867985 -0.343396 -0.13410865 -0.0009122529 -0.5411216 -0.19886741
0.390747 -0.5051454 0.36902994 -0.31112906 -0.088757314 -0.5622163 -0.1605025 0.5912161
-0.32773829 -0.42326137 0.32202226 0.13645536 -0.16526246 -0.36990204 0.41245916 0.02090123
0.17610659 0.029516345 0.18499802 -0.12168821 0.34529963 -0.28790334 0.6914414 -0.057709984
-0.047183853 0.52408993 -0.05115644 -0.3075438 0.06541198 -0.082981125 0.35933268 -0.30730802
0.58333915 0.22825271 -0.21871008 -0.3201837 -0.42352653 -0.17626344 0.81481874 0.62158644
-0.6184777 0.413047 -0.27989978 0.4633397 0.14671564 0.26317605 0.03057457 0.3567113
0.9963633 -0.031114437 -0.62925357 -0.05510536 0.013430237 0.17999434 0.120105684 0.29933494
0.14884523 0.62409145 -0.09439468 -0.60070777 -0.32306135 -0.2598538 -0.107834324 -0.6145891
0.21216027 -0.14501332 -0.19194439 -0.33723852 -0.676192 -0.4937404 0.5996422 -0.1529038
0.26466364 0.7264174 0.056371585 0.057013445 -0.6407555 -0.44841218 0.5131949 0.2605695
-0.50987196 -0.23336476 -0.06589235 0.23997064 -0.26311272 -0.058881033 0.059258357 0.22642489
0.50212806 -0.022790797 -0.49791974 -0.2971579 0.4301656 0.12776825 -0.9269653 0.5548536
-0.63056475 -0.48863235 0.28524148 0.54063547 -0.2762198 0.22112541 -0.6239503 0.07655936
-0.37117445 0.36700788 0.74971604 0.61596686 0.4000858 0.19129477 -0.6941181 0.31897157
0.5336088 0.31455016 0.04371122 0.11360452 -0.2065429 -0.3583439 0.7896687 0.6799142
-0.061295666 0.36183125 -0.46415085 0.27207693 -0.27831078 0.45078623 0.55206704 0.8291059
0.6109583 0.25609088 -0.38703215 0.48920438 -0.34955767 -0.54688793 -0.30562985 -0.59864783
0.42727727 0.27048823 -0.25949895 0.10812564 0.6352146 -0.2562062 0.23886186 -0.41519877
0.819767 -0.13207786 0.11215826 0.07895957 -0.21672888 0.080033034 0.15925606 0.6102995
0.26635608 0.55184793 -0.36250898 -0.1449576 -0.1478419 -0.22299793 0.110726036 0.5136503
-0.12534553 0.019008297 -0.10463467 0.5132563 -0.19948055 0.027112624 0.10854532 0.17220004
0.51449347 0.6107027 -0.7349509 0.14740926 0.41590807 0.62317955 -0.22810349 0.5383855
-0.39070815 -0.040408295 0.8622488 0.5469504 -0.12158424 0.1336937 -0.13083307 0.07056915
-0.32361805 -0.12752347 0.4864696 0.14016165 -0.05769279 0.5650786 0.08639813 0.5556948
-0.37578228 -0.26774925 0.58866704 -0.13882147 0.38456106 0.86429054 -0.3800048 0.019473404
0.2748881 -0.07418649 0.6369093 -0.829749 -0.19710274 -0.46317703 -0.21615404 -0.72885925
0.21468167 -0.0538264 0.13318913 -0.84687275 0.049533546 0.36410767 0.112907976 0.50387174
-0.35412115 -0.44037378 0.4001292 0.0809698 -0.27064845 0.30784437 -0.36502925 -0.093048826
-0.61907816 0.20254634 -0.02251146 -0.034630865 0.14283516 -0.2497621 -0.2081507 0.1458003
-0.12314908 -0.4540559 0.06937129 -0.3073903 0.07749448 0.37171 -0.46917582 -0.48807287
0.07084849 -0.41131204 0.12455391 0.004524802 0.05911019 -0.58106047 -0.2005188 0.006762836
00000000: 5a79 00bd b22e 0ebf b9b3 163f 9ad1 afbe
00000010: c753 09be 4124 6fba f286 0abf e6a3 4bbe
00000020: fe0f c83e 3551 01bf 7ef1 bc3e 4f4c 9fbe
00000030: 65c6 b5bd 68ed 0fbf c45a 24be f059 173f
00000040: 50cd a7be b7b5 d8be 1ae0 a43e f4ba 0b3e
00000050: 903a 29be cd63 bdbe d92d d33e 0e39 ab3c
00000060: 4955 343e 43cc f13c 1f70 3d3e ab37 f9bd
00000070: 1dcb b03e 1168 93be 4e02 313f 4e61 6cbd
00000080: db43 41bd c22a 063f 6a89 51bd 6276 9dbe
00000090: b7f6 853d 02f2 a9bd 74fa b73e 7a57 9dbe
000000a0: b755 153f 14bb 693e 89f5 5fbe 1eef a3be
000000b0: 78d8 d8be 677e 34be f697 503f 4a20 1f3f
000000c0: 8e54 1ebf e57a d33e 064f 8fbe dc3a ed3e
000000d0: a03c 163e 03bf 863e 8577 fa3c dda2 b63e
000000e0: aa11 7f3f b4e3 febc c316 21bf 28b6 61bd
000000f0: 7f0a 5c3c 7050 383e f8f9 f53d 6e42 993e
00000100: e26a 183e 75c4 1f3f ff51 c1bd fcc7 19bf
00000110: 4c68 a5be 8f0b 85be 3ed8 dcbd b655 1dbf
00000120: 8b40 593e 5f7e 14be 128d 44be 87aa acbe
00000130: eb1a 2dbf 8bcb fcbe 2782 193f d092 1cbe
00000140: fe81 873e 7ef6 393f e4e5 663d ee86 693d
00000150: 8d08 24bf 4896 e5be be60 033f 5e69 853e
00000160: f886 02bf 2cf7 6ebe 92f2 86bd ddba 753e
00000170: b6b6 86be 3d2d 71bd e4b8 723d eddb 673e
00000180: 778b 003f c4b3 babc 56ef febe 1525 98be
00000190: aa3e dc3e aed5 023e 994d 6dbf e30a 0e3f
000001a0: b16c 21bf 052e fabe 2c0b 923e 1667 0a3f
000001b0: ae6c 8dbe b36e 623e 35bb 1fbf 27cb 9c3d
000001c0: 940a bebe 75e8 bb3e 64ed 3f3f 01b0 1d3f
000001d0: 0cd8 cc3e c7e2 433e b9b1 31bf 3e50 a33e
000001e0: 969a 083f b80c a13e 890a 333d 7da9 e83d
000001f0: fb7f 53be da78 b7be ba27 4a3f db0e 2e3f
00000200: 2a11 7bbd f241 b93e 2ea5 edbe ab4d 8b3e
00000210: c07e 8ebe 74cd e63e 4454 0d3f 4940 543f
00000220: c367 1c3f 581e 833e 1429 c6be ff78 fa3e
00000230: 39f9 b2be d900 0cbf 847b 9cbe fc40 19bf
00000240: 16c4 da3e 6f7d 8a3e 0cdd 84be fa70 dd3d
00000250: 6d9d 223f 762d 83be 3498 743e ef94 d4be
00000260: 40dc 513f 6b3f 07be 3bb3 e53d 8eb5 a13d
00000270: 2dee 5dbe 5ce8 a33d 0514 233e 973c 1c3f
00000280: d35f 883e e845 0d3f c79a b9be c46f 14be
00000290: de63 17be 9259 64be 55c4 e23d 967e 033f
000002a0: 945a 00be 4ab7 9b3c b44a d6bd c464 033f
000002b0: a144 4cbe 4b1b de3c 024d de3d 3555 303e
000002c0: d8b5 033f 0357 1c3f be25 3cbf 74f2 163e
000002d0: e7f1 d43e b288 1f3f f693 69be a2d3 093f
000002e0: e60a c8be 2b83 25bd 56bc 5c3f f104 0c3f
000002f0: 2801 f9bd 00e7 083e 1bf9 05be 8f86 903d
00000300: 44b1 a5be 8395 02be 8b12 f93e 8986 0f3e
00000310: 464f 6cbd fea8 103f 81f1 b03d 0442 0e3f
00000320: 8966 c0be 6e16 89be e2b2 163f 3727 0ebe
00000330: 30e5 c43e 2542 5d3f fd8f c2be b086 9f3c
00000340: 22be 8c3e 16ef 97bd 7d0c 233f 6e6a 54bf
00000350: 4dd5 49be 8a25 edbe 7c57 5dbe 8596 3abf
00000360: 83d5 5b3e 1279 5cbd bb62 083e a7cc 58bf
00000370: b0e3 4a3d 526c ba3e 4c3c e73d bdfd 003f
00000380: 5e4f b5be ac78 e1be bcdd cc3e 7fd3 a53d
00000390: 6f92 8abe c79d 9d3e 1de5 babe 6290 bebd
000003a0: e87b 1ebf 4f68 4f3e f469 b8bc 18d9 0dbd
000003b0: 6143 123e a3c1 7fbe 7525 55be ad4c 153e
000003c0: 9635 fcbd 047a e8be 8912 8e3d 4362 9dbe
000003d0: 6db5 9e3d c650 be3e d037 f0be b0e4 f9be
000003e0: 0319 913d 7e97 d2be 1f16 ff3d ca44 943b
000003f0: 871d 723d 61c0 14bf cd54 4dbe c89a dd3b

net.2.bias f4 [20]
0.35937876 0.26262665 -0.015682666 0.10353793 -0.2458372 0.622638 0.78412575 0.2796095
-0.0911537 0.08741495 -0.4444233 -0.32707414 0.050617054 0.4058372 -0.32650438 0.4726582
-0.3339852 0.2578076 0.7301141 -0.35063428
00000000: 7e00 b83e 0077 863e ef78 80bc b20b d43d
00000010: bfbc 7bbe 3465 1f3f 77bc 483f fa28 8f3e
00000020: cbae babd 9c06 b33d 738b e3be 4376 a7be
00000030: d453 4f3d e5c9 cf3e 952b a7be 4100 f23e
00000040: 1c00 abbe 5cff 833e c2e8 3a3f 5686 b3be

net.4.weight f4 [20, 20]
0.033978384 -0.22942871 0.8643928 0.0178032 0.28656188 0.737269 0.3568494 0.1373656
0.22278856 0.23682356 -0.9272658 -0.37190643 -0.30313885 -0.44639814 0.6000973 0.7832865
-0.095671475 0.181997 0.48928946 0.46027076 0.2702702 -0.5576849 0.71188295 -0.31127217
0.43689322 0.53162575 0.9289697 -0.115966655 -0.16912788 0.7935826 -0.23725046 -0.21669753
-0.25324324 -0.069139235 0.5452046 0.595544 0.15364435 -0.095470406 0.6767838 -0.08230092
-0.9840915 -0.7508278 0.044351067 -0.39097485 -0.20404693 -0.21149987 -0.025239104 -0.21553512
0.2156107 -0.0063793985 0.12053945 0.29840308 -0.122805044 -0.04128788 0.10214671 -0.24059838
0.2538417 -0.6558759 -0.26587304 0.008642371 0.082316466 -0.6687158 0.6689212 -0.32447776
0.02276289 0.9178724 0.69778514 -0.16337293 0.15117255 0.8438376 -0.27559364 0.49743164
-0.10539163 -0.17433797 0.061256163 0.4493042 0.16562279 -0.4039942 0.25996336 -0.05036368
-0.37958756 -0.5301429 0.26560077 -0.027530998 0.81191915 -0.551002 -0.5147388 -0.47939754
0.35243696 -0.2999427 0.020899763 0.45186254 0.06497805 -0.74255055 0.41857257 -0.18402585
0.15253063 -0.09359424 -0.2920471 0.018100858 -0.054546658 0.4763844 -0.7508385 -0.28001955
-0.050185848 0.111483045 0.2218057 0.7834155 -0.45375627 -0.44659117 -0.029719196 -0.33947748
0.47660688 0.4067658 -0.49401504 0.03293213 -0.52417594 0.21516155 -0.16580673 -0.46207362
-0.37742868 -0.22302523 0.57227385 -0.32944322 0.13981521 -0.21840487 -0.29549396 -0.14707443
0.48056903 0.40439978 0.3794767 0.44993055 -0.41111535 -0.47133607 0.15123697 0.05064132
0.26118156 0.3698283 -0.30378717 0.3248135 -0.9049388 -0.14108494 0.40691042 -0.20361978
0.20658162 0.012774839 0.014651299 -0.76120245 0.3589277 0.05303277 -0.19161293 0.47733945
0.0033715514 -0.46956784 0.65052706 0.35135248 0.46963778 -0.62522507 -0.4751005 0.503239
-0.4291827 -0.02204605 0.25478473 0.09891311 -0.43767226 0.36116067 0.13214783 -0.3319752
0.46956623 0.08865189 -0.21177353 0.32678854 0.27632672 0.00088069297 0.17719448 0.13334228
-0.1982602 -0.14620127 0.5252526 0.22322711 0.80364066 -0.1002103 0.06759813 0.375702
0.38326448 0.39668903 -0.3004526 0.26922715 0.2907866 -0.21951342 -0.10294207 -0.12691423
0.044759702 -0.29843378 0.106110625 0.26939696 -0.21567078 0.544152 0.26289278 -0.0944682
0.122752674 0.17560351 0.32896075 0.0010382335 -0.14633708 0.46063268 0.026356312 -0.15386698
-0.20406272 0.13100831 -0.36908796 -0.2041558 -0.4287891 -0.11176899 -0.08147598 0.35269475
0.11622504 -0.07699802 0.1504296 -0.6121685 0.22806172 0.08991517 0.10502136 0.11904865
-0.15581638 0.11714025 0.01728111 0.08190575 -0.085858114 -0.3218889 0.23384285 -0.12557545
-0.13461208 -0.27389148 -0.41012627 0.09254725 -0.41488597 0.0649659 0.22563452 -0.23328522
0.15916826 -0.4196611 -0.1523519 0.053443395 0.74784064 -0.059417956 -0.50351304 -0.3559349
-0.09780488 -0.3092242 0.0052240714 0.07843827 -0.029798103 -0.4660684 0.29746073 -0.42175987
00000000: eb2c 0b3d 5cef 6abe d948 5d3f 04d8 913c
00000010: 3db8 923e a9bd 3c3f f7b4 b63e 91a9 0c3e
00000020: af22 643e e081 723e 4b61 6dbf 856a bebe
00000030: 0435 9bbe 4c8e e4be fa9f 193f 7785 483f
00000040: 68ef c3bd 6c5d 3a3e 2684 fa3e 9ca8 eb3e
00000050: db60 8a3e 70c4 0ebf f63d 363f 115f 9fbe
00000060: 78b0 df3e a018 083f f5d0 6d3f ed7f edbd
00000070: dc2f 2dbe 3b28 4b3f c9f1 72be f5e5 5dbe
00000080: 19a9 81be df98 8dbd 8792 0b3f 9275 183f
00000090: f254 1d3e fd85 c3bd b441 2d3f 628d a8bd
000000a0: 6ced 7bbf 4036 40bf 77a9 353d db2d c8be
000000b0: aef1 50be 6c93 58be 3dc2 cebc 3db5 5cbe
000000c0: 0dc9 5c3e 460a d1bb 63dd f63d 4ac8 983e
000000d0: 3681 fbbd 7b1d 29bd 4b32 d13d 6c5f 76be
000000e0: 8af7 813e 7ce7 27bf 8320 88be bb98 0d3c
000000f0: 8995 a83d f530 2bbf 6b3e 2b3f f321 a6be
00000100: 3e79 ba3c b0f9 6a3f 0ca2 323f 3c4b 27be
00000110: facc 1a3e be05 583f 9c1a 8dbe 5caf fe3e
00000120: 91d7 d7bd a785 32be bee7 7a3d 330b e63e
00000130: 0599 293e 54d8 cebe eb19 853e 254a 4ebd
00000140: 4d59 c2be 72b7 07bf d3fc 873e b088 e1bc
00000150: efd9 4f3f 780e 0dbf ecc5 03bf 9873 f5be
00000160: 9e72 b43e 1792 99be fb35 ab3c 875a e73e
00000170: 3613 853d cb17 3ebf 254f d63e 4671 3cbe
00000180: fd30 1c3e 56ae bfbd 3387 95be 4048 943c
00000190: 516c 5fbd a8e8 f33e f436 40bf b95e 8fbe
000001a0: ad8f 4dbd 3951 e43d 0921 633e eb8d 483f
000001b0: be52 e8be 99a7 e4be ac75 f3bc fecf adbe
000001c0: d105 f43e 9b43 d03e 8aef fcbe d7e3 063d
000001d0: 6530 06bf 4f53 5c3e 3dc9 29be ea94 ecbe
000001e0: 553e c1be ba60 64be 8a80 123f c8ac a8be
000001f0: b82b 0f3e 87a5 5fbe fc4a 97be ae9a 16be
00000200: 250d f63e 7d0d cf3e c54a c23e 4c5d e63e
00000210: b67d d2be f652 f1be dddd 1a3e 466d 4f3d
00000220: 97b9 853e 235a bd3e fe89 9bbe f44d a63e
00000230: 12aa 67bf 9278 10be 9056 d03e b481 50be
00000240: 228a 533e 8f4d 513c 010c 703c 2ade 42bf
00000250: 5fc5 b73e e438 593d 2e36 44be d665 f43e
00000260: 3ff5 5c3b 326b f0be f188 263f 79e4 b33e
00000270: 5d74 f03e c00e 20bf 5f40 f3be 45d4 003f
00000280: d6bd dbbe eb99 b4bc 2573 823e f592 ca3d
00000290: 9416 e0be 0dea b83e c351 073e a7f8 a9be
000002a0: fc6a f03e 1f8f b53d 29db 58be d450 a73e
000002b0: b27a 8d3e 4ede 663a 7872 353e e18a 083e
000002c0: b904 4bbe c9b5 15be f476 063f a695 643e
000002d0: 65bb 4d3f 0f3b cdbd e370 8a3d 035c c03e
000002e0: 3e3b c43e d31a cb3e ecd4 99be 24d8 893e
000002f0: fbe1 943e 20c8 60be 4bd3 d2bd cef5 01be
00000300: f355 373d 50cc 98be 8750 d93d 66ee 893e
00000310: cdd8 5cbe 8c4d 0b3f e299 863e 8b78 c1bd
00000320: c165 fb3d 68d1 333e 8b6d a83e 5615 883a
00000330: 63d9 15be 0cd8 eb3e 31e9 d73c 4e8f 1dbe
00000340: d1f5 50be 0b27 063e 19f9 bcbe 380e 51be
00000350: 3f8a dbbe 24e7 e4bd e1dc a6bd 6894 b43e
00000360: 6507 ee3d 23b1 9dbd 380a 1a3e 13b7 1cbf
00000370: 0389 693e 7225 b83d 7015 d73d c7cf f33d
00000380: 548e 1fbe 3ae7 ef3d 1d91 8d3c 34be a73d
00000390: 61d6 afbd 9fce a4be 8074 6f3e da96 00be
000003a0: c0d7 09be 813b 8cbe 12fc d1be 6a89 bd3d
000003b0: ef6b d4be d70c 853d bc0c 673e 52e2 6ebe
000003c0: 01fd 223e d2dd d6be 2302 1cbe 76e7 5a3d
000003d0: 7c72 3f3f 3e60 73bd 3be6 00bf 193d b6be
000003e0: ed4d c8bd a252 9ebe b02e ab3b 3ea4 a03d
000003f0: 271b f4bc 84a0 eebe c64c 983e e9f0 d7be

net.4.bias f4 [20]
0.32834688 0.29968086 -0.17288421 0.23649125 -0.27833977 -0.013832452 -0.097104535 0.024146646
0.08644385 0.38244247 0.0043684053 -0.013358478 -0.32847413 0.14675301 -0.20260483 0.050129466
0.42124367 0.11966209 0.016304404 0.13819967
00000000: 151d a83e c56f 993e 8f08 31be c32a 723e
00000010: 8d82 8ebe 82a1 62bc bede c6bd 30cf c53c
00000020: 7909 b13d 80cf c33e d724 8f3b 85dd 5abc
00000030: c32d a8be 6c46 163e a477 4fbe 8e54 4d3d
00000040: 40ad d73e 6611 f53d d090 853c 3784 0d3e
