checkpoints/best_model_KAN.pth (torch, 195563 bytes, 78 tensors)

layers.0.base_weight f4 [20, 2]
0	0x3ea273a8	0.31728864
1	0xbf072703	-0.527939
2	0xbed52a97	-0.41634056
3	0xbf318b1f	-0.69352907
4	0x3ee6334e	0.44961017
5	0x3da00131	0.07812727
6	0xbf3022c3	-0.6880304
7	0x3f26a95f	0.6510219
8	0x3f2111dd	0.6291788
9	0xbec89985	-0.39179626
10	0x3d96bbbf	0.073600285
11	0xbe8ba919	-0.2727745
12	0xbc002d4a	-0.007823298
13	0xbf2b3cb8	-0.66889524
14	0xbedea89e	-0.4348802
15	0x3e1a9f6b	0.15099876
16	0x3f111af3	0.56681746
17	0xbecc87b3	-0.3994728
18	0xbe972b75	-0.29525343
19	0x3d75327d	0.059862603
20	0x3ec91261	0.39271834
21	0x3f2874c7	0.6580319
22	0x3ed6a3bb	0.4192179
23	0xbf1ac437	-0.6045565
24	0x3f1fd71a	0.62437594
25	0x3ed04993	0.40681133
26	0x3e84b97a	0.25922757
27	0xbdb91b4a	-0.09038408
28	0xbf059ad5	-0.5218938
29	0x3eefbdad	0.468244
30	0xbeb3d3c7	-0.3512251
31	0x3f10ec1c	0.56610274
32	0x3f2411e5	0.64089805
33	0x3e09fd33	0.13475494
34	0x3dc3405c	0.0953376
35	0x3ea7c4a3	0.3276721
36	0xbe35e2fb	-0.17762367
37	0xbdcd0631	-0.100109465
38	0x3f06da74	0.52677083
39	0x3f28ec07	0.6598515

layers.0.spline_weight f4 [20, 2, 8]
0	0xba855242	-0.001017161
1	0xbaa4986a	-0.001255763
2	0x3c4af761	0.012388081
3	0x3bb0e4c0	0.005398363
4	0xbc9443ee	-0.018098798
5	0x3c355889	0.011068472
6	0x3c2aa581	0.010415436
7	0x3ad6a47c	0.0016375924
8	0xbb6cf2d5	-0.0036155481
9	0xbc0b938f	-0.008519067
10	0x3c63358f	0.01386775
11	0xbc4578df	-0.012052744
12	0x3c99696b	0.018727025
13	0xbbacce4a	-0.005273615
14	0x3b992604	0.0046737213
15	0x3b0801a6	0.0020752936
16	0x3b11aec5	0.0022229415
17	0x3b8e5bef	0.0043444554
18	0xbc2a1008	-0.010379799
19	0x3c3421af	0.010994359
20	0xbc92b388	-0.017907873
21	0x3c15798f	0.00912322
22	0x3c00df63	0.00786576
23	0x3a87c053	0.0010357
24	0xbb803f93	-0.0039138286
25	0xbc166afa	-0.009180779
26	0x3c774f34	0.015094567
27	0xbc97a3b2	-0.018510673
28	0x3b73f476	0.0037224567
29	0x3b45d2d2	0.0030185473
30	0xbb431358	-0.0029766168
31	0xba57da89	-0.00082341634
32	0x3b270bcd	0.0025489212
33	0x3bcd9c8f	0.0062747668
34	0xbc467c24	-0.012114558
35	0x3b612db5	0.003435952
36	0x3c01772f	0.007901951
37	0xbc8a21a7	-0.01686175
38	0x3c518879	0.012788885
39	0x3b9bbe28	0.004752893
40	0x3b19619b	0.0023404125
41	0x3c0b176b	0.00848947
42	0xb9d47d0b	-0.00040528955
43	0xbaa47588	-0.0012547234
44	0xbbb814a0	-0.005617693
45	0x3c985db4	0.018599369
46	0xbc93df68	-0.018050864
47	0xbbcdb0a8	-0.0062771626
48	0x399c5873	0.00029820538
49	0x3a59c5be	0.0008307359
50	0xbb259bad	-0.0025269792
51	0xbbc57b34	-0.00602665
52	0x3b27c836	0.0025601513
53	0x3c5ac001	0.013351441
54	0xbc6cc886	-0.014452105
55	0xbb9bcb64	-0.0047544707
56	0x3b83f08b	0.0040264777
57	0x3c237407	0.009976394
58	0xbc4e4b47	-0.01259119
59	0x3c8b6092	0.017013822
60	0xbc9f4efe	-0.019446846
61	0x3c862331	0.016374202
62	0x3b05d5bf	0.0020421592
63	0xba919c55	-0.0011109213
64	0xba22eac4	-0.00062147924
65	0xbbbc8fcc	-0.0057544466
66	0xbc19274b	-0.009347747
67	0x3c765e10	0.015037075
68	0x3bdc768e	0.006728
69	0xba9b746f	-0.0011860261
70	0x3c301ef8	0.010749571
71	0x3b4509db	0.0030065689
72	0xbb302470	-0.0026877187
73	0xbb7e8b55	-0.0038840373
74	0x3c87dbf0	0.016584367
75	0xbc9d7e0a	-0.01922514
76	0x3c374536	0.011185935
77	0xbc95b2d0	-0.018273741
78	0x3c308b6f	0.010775431
79	0x3b94b072	0.0045376355
80	0xbb925be6	-0.0044665216
81	0xbc5a5051	-0.013324813
82	0x3c5e2c9f	0.013560443
83	0x3b8f6b79	0.0043768254
84	0x3a83efd3	0.001006598
85	0xbb303638	-0.0026887786
86	0xbbcaffb2	-0.006195032
87	0xbabda576	-0.0014468867
88	0xb8828161	-6.222982e-05
89	0xbb7e3ac7	-0.0038792358
90	0xbc270c24	-0.010195766
91	0x3bfe6777	0.007763799
92	0xbc868bdc	-0.016424112
93	0x3beecc22	0.007287518
94	0xbb6249d7	-0.0034528875
95	0xbaee2a4e	-0.0018170567
96	0x3b872f53	0.0041255145
97	0x3c688835	0.014192631
98	0xbba20364	-0.004944252
99	0x3b8b75b2	0.0042559737
100	0x3c8be992	0.017079148
101	0xbc8495b6	-0.016184669
102	0x3c3ea481	0.0116359005
103	0x3b95e823	0.004574792
104	0x3ab98392	0.0014153591
105	0x3b22bdcc	0.0024832366
106	0xbc0268c0	-0.007959545
107	0x3b616977	0.0034395137
108	0xbc904ef0	-0.017615765
109	0x3c6c757a	0.0144323055
110	0xbba5e342	-0.0050624916
111	0xbb34f328	-0.0027610753
112	0x3a9bd180	0.0011887997
113	0x3c01c98e	0.00792159
114	0x3bdd6956	0.006756942
115	0xbc9ad47a	-0.018900145
116	0x3c1cb078	0.009563558
117	0xbcb19430	-0.021677107
118	0x3c8f227f	0.017472504
119	0x3bd5d82f	0.0065260152
120	0xbab6cc48	-0.0013946379
121	0xbbe079e9	-0.0068504703
122	0xbbbbe430	-0.005733989
123	0x3afe4689	0.0019399683
124	0x3b999f43	0.004688175
125	0x3c199a94	0.009375233
126	0xbc1948fd	-0.009355781
127	0xbb4b8296	-0.0031053177
128	0x3b411af0	0.002946552
129	0x3c4abd5a	0.0123742465
130	0x3ab432ea	0.0013748084
131	0xbc6a3960	-0.014295906
132	0xb9a7472c	-0.0003190575
133	0x3b05c68c	0.0020412533
134	0xb9ef085b	-0.00045591858
135	0xb9557106	-0.00020355367
136	0xb9b23418	-0.00033989619
137	0xbb9b7570	-0.0047442243
138	0xbc3f5b0e	-0.011679424
139	0x3b493974	0.003070441
140	0xbb96cc39	-0.004601982
141	0x3c1ea959	0.00968393
142	0x3c1e273f	0.009652912
143	0x3ae8516d	0.0017724462
144	0xbb688e3b	-0.0035485167
145	0xbc2b9cdf	-0.010474413
146	0x3c337383	0.010952833
147	0xb9e7c171	-0.00044203878
148	0xbc259696	-0.010106703
149	0xba3a1fef	-0.00071000954
150	0xbbb2754d	-0.0054461122
151	0xbacf5492	-0.0015818051
152	0x3ad313e7	0.0016103954
153	0x3bc953af	0.006144009
154	0x3b18df87	0.0023326592
155	0x3ba4ad95	0.0050255754
156	0xbb6e1229	-0.0036326742
157	0x3c60f931	0.013731287
158	0x3bff2ead	0.0077875466
159	0x3a83dfdb	0.0010061221
160	0xba52ce03	-0.00080415624
161	0xbadb77ec	-0.0016744114
162	0x3b913dc1	0.0044324105
163	0xba938b14	-0.0011256658
164	0x39768333	0.00023509264
165	0xbc496960	-0.01229319
166	0xbbeda685	-0.0072525167
167	0xba88cd03	-0.0010437075
168	0xba9cdb18	-0.001196715
169	0xb9ffe577	-0.00048808355
170	0x3c53f197	0.0129360175
171	0xbc0bb21b	-0.00852635
172	0xbbfc18fb	-0.0076934076
173	0xbbd04b76	-0.006356652
174	0x3c41620b	0.01180316
175	0x3b678865	0.00353291
176	0xb9ff9cf7	-0.00048754338
177	0xbb50bf7f	-0.0031852422
178	0xbbd05d97	-0.006358813
179	0xba737cab	-0.00092882913
180	0x3c6f599d	0.014608768
181	0x394e5154	0.00019675988
182	0xbbd8d289	-0.0066168946
183	0xbac5c7aa	-0.0015089412
184	0x3bb94963	0.0056545003
185	0x3c818084	0.015808351
186	0xbc6da31a	-0.0145042185
187	0x3c990bb0	0.01868233
188	0xbafc207c	-0.0019235755
189	0x3b84603c	0.0040397923
190	0xbbe9b48e	-0.0071321195
191	0xbb1aa589	-0.0023597202
192	0x3b9c5d11	0.0047718366
193	0x3c41803c	0.011810359
194	0xbc85530f	-0.016274957
195	0x3ca46c20	0.02007109
196	0xbc20d16b	-0.009815554
197	0x3b6c689e	0.00360731
198	0x3c0930a1	0.00837341
199	0x3ada5d40	0.0016659871
200	0xbb504c81	-0.003178388
201	0xbc0f1b05	-0.008734469
202	0x3c123a36	0.008925011
203	0xbc175b38	-0.009238057
204	0x3abdd3db	0.0014482694
205	0xbbfec563	-0.007774995
206	0x3b806be2	0.0039191106
207	0x3adeb342	0.0016990679
208	0xbb00feb5	-0.0019683067
209	0xbb22f372	-0.0024864343
210	0x3c822698	0.015887544
211	0xbc4e8685	-0.012605314
212	0xbc4224ae	-0.011849565
213	0x3c61df31	0.013786123
214	0xbb50b645	-0.0031846922
215	0xbb01fcc0	-0.0019834489
216	0x3af1f349	0.0018459345
217	0x3c0ff7a1	0.008787067
218	0x3b9e826d	0.0048373253
219	0xbc12a6c9	-0.0089508975
220	0x3b0e89ad	0.0021749542
221	0x3c561606	0.013066774
222	0xbc481746	-0.01221258
223	0xbb86f7ea	-0.004118909
224	0xb8bb5bfc	-8.933988e-05
225	0x3b45f3db	0.0030205164
226	0x3c12d472	0.008961784
227	0xbc0d56bd	-0.008626637
228	0x3c83ed70	0.01610443
229	0xbbb2f263	-0.0054610237
230	0xbb61b6b5	-0.0034441177
231	0xb92d41ca	-0.00016523074
232	0x38a916a5	8.062766e-05
233	0x3beb4c3f	0.00718072
234	0x3c94b1de	0.01815122
235	0xbcb64750	-0.022250801
236	0x3ca06f10	0.019584209
237	0xbc0e7b22	-0.008696349
238	0xbafef78e	-0.0019452439
239	0x3a21bf6d	0.0006170187
240	0xbb3edc76	-0.0029123104
241	0xbbb1d972	-0.005427533
242	0x3c8b33b1	0.016992422
243	0xbc1a255e	-0.009408323
244	0x3c3d9f19	0.011573576
245	0x3ad63643	0.0016343076
246	0xba8ec941	-0.0010893719
247	0xb8ecc277	-0.00011289579
248	0xbb162dbb	-0.002291544
249	0xbc1e5d35	-0.009665777
250	0xbb825a83	-0.003978075
251	0xbaa0e9b2	-0.0012276678
252	0xbba767ae	-0.005108795
253	0x3bb18f6f	0.00541871
254	0xbbfa8a85	-0.0076459073
255	0xbb25ed8b	-0.0025318589

layers.0.spline_scaler f4 [20, 2]
0	0xbf06a43d	-0.5259436
1	0x3e991af0	0.29903364
2	0x3df83b8e	0.12120734
3	0xbe7ddf71	-0.24792267
4	0xbe1cbb62	-0.15305856
5	0x3f11eac7	0.56998867
6	0xbe1e67bc	-0.15469259
7	0xbe90ffa0	-0.28320026
8	0xbe28b73b	-0.16476147
9	0xbd2b9af4	-0.04189582
10	0xbead78c2	-0.33881193
11	0x3e229ec2	0.15880874
12	0xbe91b5d9	-0.2845905
13	0xbf21862f	-0.6309537
14	0x39cbc782	0.00038867822
15	0xbe6ab28e	-0.22919676
16	0x3ed1a485	0.4094583
17	0xbf031c93	-0.51215476
18	0x3eb912d7	0.36147186
19	0xbe883e4c	-0.2661003
20	0xbf271b1a	-0.6527573
21	0x3f2c5ab6	0.67325914
22	0x3f0fa618	0.56112814
23	0xbe16e577	-0.14735971
24	0x3f0e09ac	0.5548351
25	0x3ef75b31	0.4831176
26	0xbd88fe05	-0.066890754
27	0x3ea4974d	0.32146683
28	0xbef815a8	-0.48454022
29	0x3eac53f6	0.33657807
30	0xbf0ff53f	-0.5623359
31	0x3f257827	0.6463646
32	0xbf1f9708	-0.6233983
33	0xbec4fc31	-0.38473657
34	0xbe033261	-0.12812187
35	0x3f19314f	0.59840864
36	0x3f188d63	0.5959074
37	0x3f1f08cf	0.62122816
38	0x3f28ceb5	0.6594041
39	0x3dd62de6	0.10457973

layers.0.grid f4 [2, 12]
0	0xc00ccccd	-2.2
1	0xbfe66666	-1.8
2	0xbfb33333	-1.4
3	0xbf800000	-1.0
4	0xbf19999a	-0.6
5	0xbe4ccccc	-0.19999999
6	0x3e4cccd0	0.20000005
7	0x3f19999a	0.6
8	0x3f800000	1.0
9	0x3fb33334	1.4000001
10	0x3fe66666	1.8
11	0x400ccccd	2.2
12	0xc00ccccd	-2.2
13	0xbfe66666	-1.8
14	0xbfb33333	-1.4
15	0xbf800000	-1.0
16	0xbf19999a	-0.6
17	0xbe4ccccc	-0.19999999
18	0x3e4cccd0	0.20000005
19	0x3f19999a	0.6
20	0x3f800000	1.0
21	0x3fb33334	1.4000001
22	0x3fe66666	1.8
23	0x400ccccd	2.2

layers.1.base_weight f4 [20, 20]
0	0xbe3e0a25	-0.18558557
1	0x3e50d3cf	0.20393299
2	0xbe2940a9	-0.16528572
3	0xbe4dc290	-0.20093751
4	0x3c39cf51	0.011340932
5	0x3e24f89c	0.16110462
6	0xbe1f1e46	-0.15538892
7	0x3bb84a20	0.0056240708
8	0x3cbde621	0.023181023
9	0x3da41b1b	0.080129825
10	0xbdae6d17	-0.08516901
11	0x3ca5f6cd	0.020259285
12	0x3b1783bb	0.002311929
13	0xbddd2676	-0.107983515
14	0xbe1b3f64	-0.151609
15	0xbe5f8ff1	-0.21832253
16	0xbe2bd574	-0.16780645
17	0xbdfb5d5b	-0.122736655
18	0xbd754f85	-0.05989029
19	0xbe3e4221	-0.18579914
20	0xbdc510da	-0.09622355
21	0xbe44f8f6	-0.19235596
22	0x3db37ac8	0.08763653
23	0x3d774866	0.06037178
24	0xbd891878	-0.0669412
25	0x3e626314	0.22108108
26	0x3dc4dde2	0.09612633
27	0x3db90a7c	0.09035203
28	0x3dc80d76	0.097681925
29	0x3cd37dbf	0.025816796
30	0x3d8b1c63	0.06792524
31	0xbc28b167	-0.010296202
32	0x3e388daa	0.1802279
33	0x3e4125fa	0.18862143
34	0x3e2f01e6	0.17090568
35	0x3c002bba	0.007822925
36	0xbd2ff385	-0.042956848
37	0x3d92f48b	0.07175549
38	0x3e3fcfe2	0.18731645
39	0x3d95cd52	0.07314552
40	0xbe1b9f14	-0.15197402
41	0xbe4621fe	-0.19348904
42	0xbd7834c0	-0.06059718
43	0x3e2f27fd	0.17105098
44	0xbe03a57e	-0.12856099
45	0x3a203fcc	0.0006113022
46	0xbe428b92	-0.18998554
47	0xbe0dbb69	-0.13841023
48	0x3ba1c958	0.004937332
49	0xbd73ca64	-0.059519187
50	0xbdceac83	-0.10091498
51	0x3da552e6	0.08072452
52	0xbe406f9e	-0.18792579
53	0x3e289569	0.16463245
54	0x3d9525be	0.072825894
55	0x3da7ee0b	0.081997
56	0xbddeb2b1	-0.108739264
57	0xbd596232	-0.053072162
58	0xbd22478b	-0.03961901
59	0xbe1c35ae	-0.15254852
60	0xbd830212	-0.06396879
61	0x3c6352c9	0.013874718
62	0xbdd8fff0	-0.10595691
63	0x3e07b9f2	0.13254526
64	0x3d6031be	0.054734938
65	0x3deff3ee	0.11716448
66	0x3d9294d0	0.0715729
67	0x3e3b4ee8	0.18291819
68	0x3cabe7a9	0.020984488
69	0x3e3a9b4d	0.18223305
70	0x3e5e9f79	0.21740521
71	0xbdf139ec	-0.11778626
72	0x3d601e67	0.054716494
73	0xbda11f0e	-0.07867251
74	0x3e20c7c2	0.15701202
75	0xbe36b5f5	-0.17842849
76	0xbd2973ff	-0.041370388
77	0xbd8990d7	-0.06717079
78	0xbe58d342	-0.21174338
79	0x3da5b9e5	0.08092097
80	0xbceefd64	-0.02917356
81	0xbe29b684	-0.1657353
82	0x3d841ae8	0.064504445
83	0x3e3f9bdb	0.18711798
84	0x3b526bc5	0.0032107693
85	0x3e4c2a5d	0.19938035
86	0xbe0519c9	-0.12998118
87	0xbe509bf3	-0.2037199
88	0x3d4a4545	0.049382467
89	0xbbbac27d	-0.0056994543
90	0xbc9d39d7	-0.01919262
91	0xbd7ee90b	-0.062233966
92	0xbd8f94d9	-0.07010812
93	0xbe3eb9ff	-0.1862564
94	0xbdb932ae	-0.090428695
95	0xbe5640d3	-0.20923166
96	0x3e155a04	0.1458512
97	0x3d879911	0.06620992
98	0x3de6fa02	0.11278154
99	0xbd81a171	-0.06329621
100	0x3e402cb0	0.18767047
101	0x3d935d2d	0.07195506
102	0x3d5f7419	0.05455408
103	0xbe284d33	-0.16435699
104	0xbd7ca05e	-0.061676376
105	0xbe60e15d	-0.2196097
106	0x3d930f2b	0.071806274
107	0xbdeeef14	-0.11666694
108	0x3d71ef24	0.059065953
109	0xbd210d03	-0.03931905
110	0x3e2cc51a	0.16872063
111	0xbe4e29a9	-0.2013308
112	0xbe4b77a1	-0.19869854
113	0x3e2cbf08	0.16869748
114	0xbd4beb29	-0.049784813
115	0xbe022dcc	-0.12712783
116	0x3e57e81d	0.21084638
117	0x3cf43b25	0.029813359
118	0x3e122fa5	0.14275987
119	0xbd08cfba	-0.03340123
120	0xbe13e7e4	-0.14443928
121	0xbdefdb9d	-0.1171181
122	0xbe31996e	-0.17343685
123	0xbdec36fa	-0.115339234
124	0x3e5dfde0	0.21678877
125	0xbe334edd	-0.17510553
126	0xbd9f855d	-0.07789109
127	0xbe541cc0	-0.20714092
128	0x3d892e7b	0.066983186
129	0x3b3c1304	0.0028697858
130	0x3dee3c44	0.116325885
131	0xbe46e72e	-0.19424126
132	0x3d9fd4ca	0.07804258
133	0xbe5217fd	-0.20516963
134	0xbcbdb085	-0.02315546
135	0x3e4936bb	0.19649784
136	0xbe5447dd	-0.20730539
137	0xbe104761	-0.14089729
138	0x3e3608fa	0.17776862
139	0xbe305835	-0.17221148
140	0xbdd6c3a4	-0.10486534
141	0xbd5c992f	-0.053857025
142	0x3e25a003	0.16174321
143	0x3e3e37ff	0.18576048
144	0x3d14c308	0.03631881
145	0x3d22452b	0.039616745
146	0x3e382ad1	0.17985083
147	0x3e531050	0.20611691
148	0x3abad663	0.0014254566
149	0xbdf236ab	-0.11826833
150	0x3d1ba437	0.037998404
151	0xbe0fb4b8	-0.14033782
152	0xbe32bf76	-0.17455849
153	0xbe36ce8a	-0.17852226
154	0x3df8beed	0.12145791
155	0x3d5e4f90	0.054275095
156	0x3e46a632	0.19399336
157	0xbe527e65	-0.20556028
158	0x3d24cef1	0.040236417
159	0xbda6ed54	-0.081507355
160	0xbe314572	-0.17311648
161	0xbe14f2cf	-0.14545749
162	0x3d9d28ca	0.076737955
163	0x3e5c7050	0.21527219
164	0xbdcf47a0	-0.10121083
165	0xbe5f8e7d	-0.21831699
166	0x3e1c1e6e	0.15245983
167	0x3dcde784	0.10053924
168	0xbe4f3508	-0.20235074
169	0x3e539228	0.20661223
170	0x3e3fdb2a	0.18735948
171	0xbe179ff2	-0.14807108
172	0x3cf0ac9e	0.029379185
173	0xbe245a88	-0.1605016
174	0xbd6394b2	-0.05556173
175	0xbd68a181	-0.056794647
176	0x3d3fc18c	0.04681544
177	0x3d3b5fe1	0.045745734
178	0x3e095921	0.13412906
179	0xbe55c732	-0.20876768
180	0xbe1df45b	-0.15425245
181	0xbdef9e51	-0.11700118
182	0x3e4b37e7	0.19845544
183	0x3e32eff6	0.1747435
184	0xbd6efc1b	-0.058345895
185	0xbcf750d0	-0.030189902
186	0x3dd148df	0.10218977
187	0x3e4ca84a	0.19986072
188	0x3d0da1fb	0.034578305
189	0x3e2962f4	0.16541654
190	0xbd92329f	-0.071385615
191	0x3d7805ae	0.06055229
192	0xbcf7a8cd	-0.030231858
193	0xbdc0e5e9	-0.09418852
194	0xbe0ff815	-0.1405948
195	0xbe165789	-0.1468183
196	0x3e5ab974	0.21359807
197	0xbd3373fd	-0.043811787
198	0x3db131fe	0.086521134
199	0xbb847d93	-0.00404329
200	0x3deaccc7	0.114648394
201	0xbe5f2c21	-0.21794178
202	0xbe259271	-0.16169144
203	0x3cd57c4c	0.026060246
204	0x3e6198f4	0.22031003
205	0xbd579e1f	-0.05264103
206	0x3d3b367c	0.045706257
207	0xbe571ec1	-0.21007825
208	0x3ca28118	0.019836947
209	0xbe21a3fd	-0.15785213
210	0xbe423424	-0.18965203
211	0xbd50e513	-0.050999712
212	0x3d8e20d6	0.06939857
213	0xbdf69531	-0.12040175
214	0x3d30bb1e	0.0431472
215	0xbdccb6ec	-0.09995827
216	0xbd7c3591	-0.061574522
217	0xbdb498b8	-0.08818191
218	0x3d4f85e6	0.050664805
219	0xbd41e154	-0.04733403
220	0xbc022717	-0.00794389
221	0xb89a10a9	-7.3463954e-05
222	0x3dd10ef2	0.10207929
223	0xbe198b49	-0.1499454
224	0x3e142645	0.14467724
225	0xbe46966b	-0.19393317
226	0xbdfbbbfb	-0.12291714
227	0xbe305fc3	-0.1722403
228	0xbae679c9	-0.0017583902
229	0xbd7ac99f	-0.061227437
230	0x3e37ba0a	0.17942062
231	0xbe2f3e4a	-0.17113605
232	0xbe1df479	-0.1542529
233	0xbe44faf7	-0.1923636
234	0xbe5c4c9e	-0.21513602
235	0xbe5a167b	-0.21297638
236	0xbdae1b8e	-0.085013494
237	0x3e2d6e13	0.16936521
238	0x3e64260e	0.22280142
239	0x3d84fe71	0.06493843
240	0x3d0285d8	0.031865925
241	0xbe336759	-0.17519893
242	0x3e0a7580	0.13521385
243	0xbd310ef1	-0.04322714
244	0x3dd9e75b	0.10639831
245	0xbe1d01da	-0.15332738
246	0x3e16615e	0.1468558
247	0xbe18fdbb	-0.1494054
248	0x3e2d768e	0.16939756
249	0x3e19dcd0	0.1502564
250	0xbe05ae3f	-0.13054751
251	0xbe531b26	-0.20615825
252	0x3da423a8	0.080146134
253	0x3c95dc54	0.018293537
254	0xbd8f3af2	-0.06993665
255	0x3d119add	0.03554808

layers.1.spline_weight f4 [20, 20, 8]
0	0xbace763e	-0.0015751792
1	0xbb851df8	-0.0040624104
2	0x3bddcb41	0.0067686145
3	0x3b65b3f1	0.003504988
4	0x3c43484b	0.011919091
5	0xbbd0ea01	-0.0063755517
6	0xbbc40b18	-0.005982768
7	0xba7210cb	-0.000923407
8	0xbb236a6f	-0.0024935266
9	0xbc17e89d	-0.009271768
10	0x3b952b6e	0.0045522964
11	0x3c6a331c	0.014294412
12	0xbbec6468	-0.007214118
13	0x3a358ed4	0.0006925885
14	0xbc59a32f	-0.013283535
15	0xbb79d354	-0.0038120346
16	0x3b18c5e6	0.0023311316
17	0x3be6c61f	0.007042661
18	0xbc33569c	-0.010945942
19	0xbc67d05b	-0.014148797
20	0x3c74553d	0.0149129005
21	0x3b8a1a16	0.0042145355
22	0xbb86cefa	-0.004114029
23	0xba8b473a	-0.0010626086
24	0x3b177bc4	0.0023114542
25	0x3c1152e9	0.008869865
26	0x3b9d174e	0.004794038
27	0x3c5f28d0	0.01362057
28	0xbad2d202	-0.0016084316
29	0x3bab12d0	0.0052207485
30	0xbb8e42ae	-0.004341445
31	0xbad66525	-0.0016357048
32	0xbb5bcf14	-0.0033540176
33	0xbbf9b720	-0.007620707
34	0x3c767837	0.01504331
35	0xbc60e2a9	-0.013725915
36	0xbbf5374b	-0.007483398
37	0xbba0c3c7	-0.004906151
38	0xba32bfc2	-0.0006818735
39	0x38facd8c	0.00011959215
40	0xba23cad4	-0.000624818
41	0xbb4bb0e2	-0.0031080772
42	0xbb8434eb	-0.0040346286
43	0xbad190ff	-0.0015988647
44	0x3c3f106c	0.01166163
45	0x3bff60cb	0.007793521
46	0x3b934fd1	0.004495599
47	0x3a64e3bb	0.0008731444
48	0xba762769	-0.0009390028
49	0xbb904112	-0.0044022882
50	0xbc089fc5	-0.008338873
51	0xbc3dae6f	-0.011577233
52	0x3ca220ca	0.019791026
53	0xbca6d6cc	-0.020366095
54	0x3c819de3	0.015822357
55	0x3bc8f0f5	0.00613224
56	0xbb238a69	-0.0024954325
57	0xbb574c79	-0.0032851978
58	0x3c9a3c9e	0.018827733
59	0xbc5d1136	-0.013492873
60	0x3a72d68a	0.0009263536
61	0x3ac6b858	0.001516114
62	0x3b59a9a5	0.0033212688
63	0x3a6abaff	0.0008954256
64	0xba1e1ee7	-0.00060318265
65	0xbbe72fce	-0.0070552593
66	0xbc5ca137	-0.013466171
67	0x3c5a69aa	0.013330856
68	0xbc736902	-0.014856579
69	0xbc120362	-0.008911939
70	0x3a71aea4	0.0009219444
71	0x3a0758e9	0.000516309
72	0x3a2e29ca	0.00066438003
73	0xbb112ace	-0.0022150758
74	0xbc72da6d	-0.014822585
75	0x3c45c9a8	0.012072004
76	0x3bbf671a	0.005841148
77	0xbb24425e	-0.0025063972
78	0x3c6e3ad8	0.014540397
79	0x3b86909d	0.0041065947
80	0x3b978477	0.0046239453
81	0x3c62b0db	0.013836111
82	0xbc7d9e09	-0.015479573
83	0xbc29d160	-0.01036486
84	0xba987c5f	-0.0011633745
85	0x39b144e1	0.0003381139
86	0x3bb306af	0.005463443
87	0x3abd5a8f	0.0014446544
88	0xbb10c0a1	-0.0022087472
89	0xbb808e41	-0.003923208
90	0x3c7a8902	0.015291454
91	0xb96b054a	-0.00022413317
92	0x3c4f2ca2	0.012644919
93	0x3bc35bf3	0.005961889
94	0xbb9b08b5	-0.0047312626
95	0xbabb4db2	-0.0014290123
96	0xba9587cb	-0.0011408267
97	0xbb89fc75	-0.0042110034
98	0x39cd0e07	0.00039111098
99	0xb789a991	-1.6410633e-05
100	0xbbf6bd38	-0.007529881
101	0xbc68bb9c	-0.014204886
102	0x3c211548	0.009831734
103	0x3b6620e1	0.0035114812
104	0x3b8cf392	0.004301497
105	0x3c63b40a	0.013897905
106	0xbc264f25	-0.010150705
107	0xbb8042c5	-0.0039142095
108	0x3c729f29	0.014808455
109	0x3b4b54c3	0.0031025864
110	0x3c390825	0.011293446
111	0x3b4a7b7e	0.003089636
112	0xba9695f6	-0.0011488784
113	0xbb9bc960	-0.0047542304
114	0x38f48a30	0.00011660566
115	0x3b2b8081	0.0026169124
116	0xbc472c6b	-0.012156586
117	0x3c846025	0.016159127
118	0x3babedc3	0.0052468493
119	0x34336772	1.6708307e-07
120	0x39a126fa	0.00030737353
121	0x3b2aedf5	0.0026081775
122	0x3c02c5cf	0.007981732
123	0x3bf909b2	0.0076000327
124	0xbbe20aaa	-0.006898244
125	0x3acfa67f	0.0015842466
126	0x3be046ff	0.006844401
127	0x3acc43b2	0.001558414
128	0xbaae0813	-0.0013277553
129	0xbbee9a78	-0.0072815977
130	0xbbf2cdbc	-0.0074097794
131	0x3be7446e	0.007057718
132	0x3bcbb39f	0.006216481
133	0xbbecf075	-0.007230813
134	0x3bea76d6	0.0071552796
135	0x3b249f5c	0.00251194
136	0x3bc9b01a	0.006155026
137	0x3c81b539	0.015833484
138	0xbca5c00f	-0.020233182
139	0x3c8c1609	0.01710035
140	0xbcb2902c	-0.021797262
141	0x3c7af38e	0.015316857
142	0x3bf3027c	0.0074160676
143	0x39b5cc57	0.00034675255
144	0x3af8d526	0.0018984422
145	0x3c1edee9	0.009696701
146	0x3c30ebc9	0.010798403
147	0xbb45c54c	-0.0030177413
148	0xbc98c562	-0.018648807
149	0x3cbb0e4b	0.022833964
150	0xbc913f85	-0.017730484
151	0xbbdc43f1	-0.0067219664
152	0x3aa27b9d	0.0012396459
153	0x3b51c164	0.003200614
154	0x3a61300c	0.00085902284
155	0x3c8aa9eb	0.016926726
156	0xbc9adc13	-0.018903768
157	0x3c802f6c	0.015647613
158	0x3b1bd8dd	0.0023780384
159	0xba75a45f	-0.00093705015
160	0xb9fe7a88	-0.00048537948
161	0x3b301b9a	0.002687192
162	0x3c77bf20	0.015121251
163	0xbbe44b7f	-0.0069670076
164	0xbb8b74b9	-0.004255858
165	0xbb2eee62	-0.002669238
166	0x3c3e52ea	0.011616448
167	0x3b56d61f	0.0032781435
168	0x3a50357b	0.00079425395
169	0x3b7c794e	0.0038524452
170	0xba521839	-0.0008014474
171	0xbc4cc16e	-0.012497289
172	0x3c327e59	0.010894381
173	0xb88d29fa	-6.731223e-05
174	0xbb5184af	-0.0031969955
175	0xba181bd1	-0.0005802485
176	0xbb8db08e	-0.0043240255
177	0xbc76a275	-0.015053381
178	0x3bfc00e9	0.007690538
179	0x3c27580a	0.010213861
180	0xbbd875dc	-0.006605847
181	0x3c9cced3	0.01914159
182	0xbc66e011	-0.0140915075
183	0xbbae21bc	-0.00531408
184	0x3a8ce02a	0.0010747958
185	0x3a82c429	0.0009976673
186	0xbc17553d	-0.009236631
187	0x3b8ab5de	0.004233106
188	0xbc5f8474	-0.013642419
189	0xbc09a00b	-0.008399974
190	0xbc44ad8a	-0.012004266
191	0xbb3ec203	-0.002910734
192	0x3ba91d5f	0.005160972
193	0x3c584638	0.013200335
194	0xbc9aba8b	-0.018887779
195	0x3c8a9d3b	0.016920676
196	0x3c2b7883	0.010465744
197	0xbba6b264	-0.005087184
198	0xbc1c9cde	-0.009558884
199	0xbb0a7022	-0.0021123965
200	0x39364dee	0.00017385904
201	0xbb396e7d	-0.0028294616
202	0xbc421d8b	-0.011847864
203	0x3b09d393	0.002103065
204	0xbbaf8175	-0.0053560087
205	0x3c4743c4	0.012162153
206	0x3c21e166	0.009880399
207	0x3ad79f29	0.0016450632
208	0x3b8fbea1	0.0043867384
209	0x3c36a141	0.011146844
210	0xbc741388	-0.014897235
211	0x3c8ed22f	0.017434208
212	0x3a8ca821	0.0010731259
213	0x3b041103	0.0020151741
214	0x3bd67d34	0.006545687
215	0x3ac6abbb	0.0015157381
216	0x3b89e1b1	0.0042078127
217	0x3c04edbc	0.008113321
218	0xbca659eb	-0.020306548
219	0x3cbd5058	0.0231096
220	0xbcad71a6	-0.021172356
221	0x3c858dd3	0.016302979
222	0x39ece65a	0.00045185053
223	0xbad2910e	-0.0016064958
224	0x3a82c994	0.0009978288
225	0x3be376aa	0.006941636
226	0x3c271e78	0.010200135
227	0xbbe815fb	-0.0070826984
228	0xbaf08efd	-0.0018353161
229	0xbb36f2e9	-0.0027915782
230	0xbb16b7f0	-0.002299782
231	0xb9d346d7	-0.00040297836
232	0x3b537e98	0.00322715
233	0x3bdf9d55	0.0068241754
234	0xbc92979c	-0.017894559
235	0x3bcefc7a	0.0063167186
236	0xba8006b7	-0.0009767626
237	0xbbe10971	-0.0068675806
238	0x3c1bb76e	0.009504182
239	0x3b4214a2	0.002961435
240	0xb9855d0a	-0.00025437056
241	0x3af15104	0.0018410985
242	0x3bf648ae	0.0075159883
243	0xbc184320	-0.009293348
244	0x3b060ccb	0.0020454403
245	0xbc323807	-0.010877616
246	0x3c35563f	0.011067926
247	0x3b7be40a	0.0038435482
248	0x3ae0b8c4	0.0017144908
249	0x3a61f970	0.0008620238
250	0xbc740dc0	-0.014895856
251	0x3ca40a5b	0.02002447
252	0xbc0f1e8d	-0.008735311
253	0xbc340e32	-0.010989713
254	0x3b4fd51f	0.0031712723
255	0x3ab08631	0.0013467727

layers.1.spline_scaler f4 [20, 20]
0	0xbce757b7	-0.028240068
1	0xbe07ed97	-0.13274227
2	0xbda01eea	-0.078183964
3	0xbe247479	-0.16060056
4	0xbe05799d	-0.13034673
5	0xbe4d051b	-0.20021479
6	0xbde8de2c	-0.11370501
7	0xbe0c203a	-0.13684168
8	0x3e1503c8	0.14552224
9	0xbe48168a	-0.19539848
10	0xbdd9a2c3	-0.106267475
11	0x3e071c99	0.13194503
12	0x3d5cbc09	0.05389026
13	0xbd8f401a	-0.06994648
14	0xbe00de55	-0.12584813
15	0xbd83e4e4	-0.06440142
16	0xbdba1269	-0.09085543
17	0x3d4ee020	0.05050671
18	0xbe39f879	-0.18161191
19	0xbe3e53d8	-0.18586671
20	0xbe4f1965	-0.20224531
21	0x3e53fe52	0.20702484
22	0xbd8d511b	-0.06900235
23	0x3dc0f68e	0.094220266
24	0xbe2e8fd9	-0.17047061
25	0x3e40553b	0.18782513
26	0x3c8eee92	0.017447744
27	0x3c8e279d	0.017352873
28	0x3c4f7952	0.012663202
29	0xbe295b4e	-0.16538736
30	0x3d8a502e	0.06753574
31	0xbe3a33e3	-0.18183856
32	0x3db3459b	0.087535106
33	0xbcd61476	-0.026132803
34	0xbddde792	-0.10835184
35	0x3bb90d8f	0.0056473683
36	0xbd3d38e4	-0.046196833
37	0x3e4d6481	0.2005787
38	0x3e479161	0.19489051
39	0x3da9ad53	0.08285012
40	0x3b825c6b	0.0039783022
41	0x3d71185e	0.05886113
42	0xbced80fb	-0.028992167
43	0x3e5f5d4a	0.2181293
44	0xbde2c7d8	-0.110732734
45	0x3d9a7dab	0.075435005
46	0x3de42ecd	0.11141739
47	0x3e1ac646	0.15114698
48	0xbe618cfa	-0.22026435
49	0xbe0cf8f3	-0.13766842
50	0x3e63af18	0.22234762
51	0xbd8c6314	-0.06854835
52	0xbda8f6a7	-0.0825017
53	0x3e178dcc	0.14800185
54	0xbe12f3ee	-0.14350864
55	0x3dbcf4a6	0.092263505
56	0xbdcdaa1f	-0.10042214
57	0x3d813fd3	0.06311002
58	0xbe2bffeb	-0.16796844
59	0xbda25830	-0.07926977
60	0x3c73ee8f	0.01488842
61	0xbe0a2138	-0.13489234
62	0x3e526c81	0.20549203
63	0x3e2f79bb	0.1713628
64	0x3d851ac8	0.06499249
65	0xbe112a2f	-0.14176248
66	0xbdb37c2d	-0.08763919
67	0xbdcc19e1	-0.099658735
68	0xbe0f070e	-0.13967535
69	0x3e62492f	0.2209823
70	0xbe39fb4d	-0.1816227
71	0xbc8a2d33	-0.016867256
72	0x3e1b77da	0.15182438
73	0xbd890643	-0.066906475
74	0xbe292111	-0.1651652
75	0x3de492ef	0.11160838
76	0xbb5bd9d5	-0.0033546586
77	0xbe3841b8	-0.1799382
78	0xbe0908f3	-0.1338232
79	0x3d64dacc	0.055872723
80	0x3df32cdf	0.11873793
81	0x3e0cc602	0.13747409
82	0xbdbe552a	-0.092935875
83	0xbdb3bdcb	-0.087764345
84	0x3cbb42d6	0.022859018
85	0xbe1f3a4c	-0.15549582
86	0xbdfde1c3	-0.12396576
87	0xbe2888c3	-0.1645842
88	0x3df2e17a	0.118594125
89	0xbd9b0710	-0.075697064
90	0x3da5a4cb	0.080880724
91	0x3def6105	0.11688427
92	0xbd52c07e	-0.051453106
93	0x3cc8880a	0.024478931
94	0xbd7cd08e	-0.06172233
95	0x3db557c3	0.0885463
96	0x3e2409ee	0.16019413
97	0xbe37cc3e	-0.17949006
98	0x3dd21bdc	0.1025922
99	0x3d9da0a8	0.076966584
100	0x3de0ab9f	0.10970234
101	0x3d27b277	0.04094168
102	0xbe4a20c0	-0.19739056
103	0xbcf1319b	-0.029442599
104	0xbe20a368	-0.15687335
105	0x3e4e7d5a	0.20165005
106	0xbe31a91b	-0.17349665
107	0xbcd0d487	-0.025491966
108	0x3c12dbae	0.0089635085
109	0xbd58c4a3	-0.052921902
110	0xbe305fdc	-0.17224067
111	0x3e289c46	0.16465864
112	0xbe1d3120	-0.15350771
113	0xbd1eac8d	-0.038738776
114	0xbd2fcd5e	-0.042920463
115	0x3d538629	0.051641617
116	0xbdcb7a44	-0.0993543
117	0x3e62ba26	0.22141322
118	0x3d0fab52	0.035075493
119	0xbe2d0fe6	-0.16900596
120	0x3d7f17c0	0.06227851
121	0xbe0281f0	-0.1274488
122	0xbd3d5c47	-0.04623058
123	0xbe11219e	-0.1417298
124	0xbe4c9bab	-0.19981258
125	0xbd5be0b5	-0.053681094
126	0xbd0e735d	-0.034777988
127	0xbe0938f5	-0.13400634
128	0xbdbc874e	-0.09205495
129	0x3dc8f432	0.098122016
130	0xbdaf6cde	-0.08565687
131	0x3e0474e9	0.12935223
132	0xbe5d0563	-0.21584086
133	0xbdcd790e	-0.10032855
134	0x3e5dde30	0.21666789
135	0x3cb2c1f8	0.021821007
136	0xbe0a24f9	-0.13490666
137	0xbe623ca0	-0.22093439
138	0x3d3a736a	0.045520224
139	0x3da0341a	0.078224376
140	0x3e491277	0.1963595
141	0x3c456034	0.012046862
142	0x3d801467	0.062538914
143	0xbcbba0cf	-0.022903828
144	0x3cf861d6	0.03032009
145	0x3d174fbe	0.036941282
146	0x3dd711f9	0.10501475
147	0xbe4c926e	-0.19977733
148	0xbe5fdafa	-0.21860877
149	0xbd72579f	-0.059165593
150	0xbd9f96fd	-0.077924706
151	0x3e2ce852	0.16885498
152	0xbdfdfc9f	-0.12401699
153	0xbddfabc3	-0.10921433
154	0x3dedb2f8	0.11606401
155	0xbdc7772b	-0.09739526
156	0xbca69940	-0.020336747
157	0x3dddb1e4	0.108249456
158	0xbd0d972a	-0.03456799
159	0x3dad930f	0.08475315
160	0xbe4c6d40	-0.1996355
161	0xbc4ebbb4	-0.012617994
162	0x3de749ef	0.112933986
163	0xbe5e9f39	-0.21740426
164	0xbdcea44b	-0.1008993
165	0x3e60ca17	0.21952091
166	0xbe422f05	-0.18963249
167	0x3e5df5c5	0.21675785
168	0x3e25ad38	0.16179359
169	0xbd40cadb	-0.047068458
170	0xbdeda652	-0.11603989
171	0xbe57a220	-0.2105794
172	0xbd7c07d7	-0.061530914
173	0x3d9a159f	0.07523655
174	0xbe4f1576	-0.2022303
175	0xbd5cce34	-0.053907588
176	0xbda914ba	-0.082559064
177	0xbd82332e	-0.06357418
178	0xbd111510	-0.035420477
179	0xbe0df993	-0.13864736
180	0x3e627ced	0.22117968
181	0xbe3b4d05	-0.182911
182	0xbe1b6b6f	-0.15177701
183	0xbd31b7ef	-0.043388303
184	0xbd9772fd	-0.07394979
185	0xbdabf009	-0.083953924
186	0x3e027a35	0.12741931
187	0xbe0d33e9	-0.13789333
188	0x3e377de0	0.17919111
189	0x3e31c664	0.17360836
190	0x3cd0f3e3	0.02550692
191	0xbdda623e	-0.106632695
192	0xbdfb23a6	-0.12262659
193	0x3e18fddb	0.14940588
194	0x3d83429f	0.06409191
195	0x3d6a44f7	0.057194676
196	0xbcfc6f25	-0.030814717
197	0x3d80cc3f	0.06288957
198	0xbe46dc71	-0.19420029
199	0x3defb10b	0.1170369
200	0x3d6b4820	0.05744183
201	0xbdea810b	-0.11450394
202	0xbe37fc25	-0.1796728
203	0x3dde3cdd	0.108514525
204	0xbe0fdeb4	-0.14049798
205	0xbe129fa3	-0.14318709
206	0x3e3058c9	0.17221369
207	0x3d89b661	0.06724239
208	0xbe22cab9	-0.15897645
209	0x3e1eee4c	0.1552059
210	0xbdc652b5	-0.09683744
211	0xbe28f1ba	-0.16498461
212	0xbbb41e2e	-0.0054967618
213	0xbe577ce3	-0.21043734
214	0x3deaeccf	0.11470949
215	0x3987f3f3	0.00025930963
216	0x3e4dfdb2	0.20116308
217	0x3dcf7305	0.1012936
218	0x3e28898a	0.16458717
219	0xbe26c7ad	-0.16287108
220	0x3dc803f5	0.0976638
221	0xbd3e457f	-0.046452995
222	0xbd472eca	-0.048628606
223	0x3e1d52dc	0.1536364
224	0x3e4bb898	0.19894636
225	0xbddee4f9	-0.10883517
226	0x3e5d7de7	0.21630059
227	0x3e5a9885	0.21347244
228	0xbe2b9a1f	-0.16758011
229	0x3e435a12	0.19077328
230	0x3dc7dfca	0.09759481
231	0xbe56ca61	-0.20975639
232	0xbdf463c1	-0.11933089
233	0x3d635600	0.055501938
234	0xbd9c0315	-0.07617775
235	0x3ccca150	0.024979264
236	0xbe04551a	-0.12923089
237	0x3dc0636c	0.09393963
238	0xbe5cdf08	-0.21569455
239	0xbd55c6f4	-0.05219169
240	0x3cf02f49	0.029319422
241	0x3e02a82c	0.12759465
242	0x3e5c867f	0.21535681
243	0xbe5a49db	-0.21317236
244	0xbdc972c9	-0.09836347
245	0xbe21d69f	-0.15804528
246	0xbe302308	-0.17200863
247	0x3e53aed6	0.20672163
248	0xbe41e5c2	-0.18935302
249	0xbca06063	-0.01957721
250	0xbe4f4723	-0.2024198
251	0x3dea6619	0.11445255
252	0xbd70cd92	-0.058789797
253	0xbde24d20	-0.11049867
254	0x3e5221ce	0.20520708
255	0x3df64b2d	0.120260574

layers.1.grid f4 [20, 12]
0	0xc00ccccd	-2.2
1	0xbfe66666	-1.8
2	0xbfb33333	-1.4
3	0xbf800000	-1.0
4	0xbf19999a	-0.6
5	0xbe4ccccc	-0.19999999
6	0x3e4cccd0	0.20000005
7	0x3f19999a	0.6
8	0x3f800000	1.0
9	0x3fb33334	1.4000001
10	0x3fe66666	1.8
11	0x400ccccd	2.2
12	0xc00ccccd	-2.2
13	0xbfe66666	-1.8
14	0xbfb33333	-1.4
15	0xbf800000	-1.0
16	0xbf19999a	-0.6
17	0xbe4ccccc	-0.19999999
18	0x3e4cccd0	0.20000005
19	0x3f19999a	0.6
20	0x3f800000	1.0
21	0x3fb33334	1.4000001
22	0x3fe66666	1.8
23	0x400ccccd	2.2
24	0xc00ccccd	-2.2
25	0xbfe66666	-1.8
26	0xbfb33333	-1.4
27	0xbf800000	-1.0
28	0xbf19999a	-0.6
29	0xbe4ccccc	-0.19999999
30	0x3e4cccd0	0.20000005
31	0x3f19999a	0.6
32	0x3f800000	1.0
33	0x3fb33334	1.4000001
34	0x3fe66666	1.8
35	0x400ccccd	2.2
36	0xc00ccccd	-2.2
37	0xbfe66666	-1.8
38	0xbfb33333	-1.4
39	0xbf800000	-1.0
40	0xbf19999a	-0.6
41	0xbe4ccccc	-0.19999999
42	0x3e4cccd0	0.20000005
43	0x3f19999a	0.6
44	0x3f800000	1.0
45	0x3fb33334	1.4000001
46	0x3fe66666	1.8
47	0x400ccccd	2.2
48	0xc00ccccd	-2.2
49	0xbfe66666	-1.8
50	0xbfb33333	-1.4
51	0xbf800000	-1.0
52	0xbf19999a	-0.6
53	0xbe4ccccc	-0.19999999
54	0x3e4cccd0	0.20000005
55	0x3f19999a	0.6
56	0x3f800000	1.0
57	0x3fb33334	1.4000001
58	0x3fe66666	1.8
59	0x400ccccd	2.2
60	0xc00ccccd	-2.2
61	0xbfe66666	-1.8
62	0xbfb33333	-1.4
63	0xbf800000	-1.0
64	0xbf19999a	-0.6
65	0xbe4ccccc	-0.19999999
66	0x3e4cccd0	0.20000005
67	0x3f19999a	0.6
68	0x3f800000	1.0
69	0x3fb33334	1.4000001
70	0x3fe66666	1.8
71	0x400ccccd	2.2
72	0xc00ccccd	-2.2
73	0xbfe66666	-1.8
74	0xbfb33333	-1.4
75	0xbf800000	-1.0
76	0xbf19999a	-0.6
77	0xbe4ccccc	-0.19999999
78	0x3e4cccd0	0.20000005
79	0x3f19999a	0.6
80	0x3f800000	1.0
81	0x3fb33334	1.4000001
82	0x3fe66666	1.8
83	0x400ccccd	2.2
84	0xc00ccccd	-2.2
85	0xbfe66666	-1.8
86	0xbfb33333	-1.4
87	0xbf800000	-1.0
88	0xbf19999a	-0.6
89	0xbe4ccccc	-0.19999999
90	0x3e4cccd0	0.20000005
91	0x3f19999a	0.6
92	0x3f800000	1.0
93	0x3fb33334	1.4000001
94	0x3fe66666	1.8
95	0x400ccccd	2.2
96	0xc00ccccd	-2.2
97	0xbfe66666	-1.8
98	0xbfb33333	-1.4
99	0xbf800000	-1.0
100	0xbf19999a	-0.6
101	0xbe4ccccc	-0.19999999
102	0x3e4cccd0	0.20000005
103	0x3f19999a	0.6
104	0x3f800000	1.0
105	0x3fb33334	1.4000001
106	0x3fe66666	1.8
107	0x400ccccd	2.2
108	0xc00ccccd	-2.2
109	0xbfe66666	-1.8
110	0xbfb33333	-1.4
111	0xbf800000	-1.0
112	0xbf19999a	-0.6
113	0xbe4ccccc	-0.19999999
114	0x3e4cccd0	0.20000005
115	0x3f19999a	0.6
116	0x3f800000	1.0
117	0x3fb33334	1.4000001
118	0x3fe66666	1.8
119	0x400ccccd	2.2
120	0xc00ccccd	-2.2
121	0xbfe66666	-1.8
122	0xbfb33333	-1.4
123	0xbf800000	-1.0
124	0xbf19999a	-0.6
125	0xbe4ccccc	-0.19999999
126	0x3e4cccd0	0.20000005
127	0x3f19999a	0.6
128	0x3f800000	1.0
129	0x3fb33334	1.4000001
130	0x3fe66666	1.8
131	0x400ccccd	2.2
132	0xc00ccccd	-2.2
133	0xbfe66666	-1.8
134	0xbfb33333	-1.4
135	0xbf800000	-1.0
136	0xbf19999a	-0.6
137	0xbe4ccccc	-0.19999999
138	0x3e4cccd0	0.20000005
139	0x3f19999a	0.6
140	0x3f800000	1.0
141	0x3fb33334	1.4000001
142	0x3fe66666	1.8
143	0x400ccccd	2.2
144	0xc00ccccd	-2.2
145	0xbfe66666	-1.8
146	0xbfb33333	-1.4
147	0xbf800000	-1.0
148	0xbf19999a	-0.6
149	0xbe4ccccc	-0.19999999
150	0x3e4cccd0	0.20000005
151	0x3f19999a	0.6
152	0x3f800000	1.0
153	0x3fb33334	1.4000001
154	0x3fe66666	1.8
155	0x400ccccd	2.2
156	0xc00ccccd	-2.2
157	0xbfe66666	-1.8
158	0xbfb33333	-1.4
159	0xbf800000	-1.0
160	0xbf19999a	-0.6
161	0xbe4ccccc	-0.19999999
162	0x3e4cccd0	0.20000005
163	0x3f19999a	0.6
164	0x3f800000	1.0
165	0x3fb33334	1.4000001
166	0x3fe66666	1.8
167	0x400ccccd	2.2
168	0xc00ccccd	-2.2
169	0xbfe66666	-1.8
170	0xbfb33333	-1.4
171	0xbf800000	-1.0
172	0xbf19999a	-0.6
173	0xbe4ccccc	-0.19999999
174	0x3e4cccd0	0.20000005
175	0x3f19999a	0.6
176	0x3f800000	1.0
177	0x3fb33334	1.4000001
178	0x3fe66666	1.8
179	0x400ccccd	2.2
180	0xc00ccccd	-2.2
181	0xbfe66666	-1.8
182	0xbfb33333	-1.4
183	0xbf800000	-1.0
184	0xbf19999a	-0.6
185	0xbe4ccccc	-0.19999999
186	0x3e4cccd0	0.20000005
187	0x3f19999a	0.6
188	0x3f800000	1.0
189	0x3fb33334	1.4000001
190	0x3fe66666	1.8
191	0x400ccccd	2.2
192	0xc00ccccd	-2.2
193	0xbfe66666	-1.8
194	0xbfb33333	-1.4
195	0xbf800000	-1.0
196	0xbf19999a	-0.6
197	0xbe4ccccc	-0.19999999
198	0x3e4cccd0	0.20000005
199	0x3f19999a	0.6
200	0x3f800000	1.0
201	0x3fb33334	1.4000001
202	0x3fe66666	1.8
203	0x400ccccd	2.2
204	0xc00ccccd	-2.2
205	0xbfe66666	-1.8
206	0xbfb33333	-1.4
207	0xbf800000	-1.0
208	0xbf19999a	-0.6
209	0xbe4ccccc	-0.19999999
210	0x3e4cccd0	0.20000005
211	0x3f19999a	0.6
212	0x3f800000	1.0
213	0x3fb33334	1.4000001
214	0x3fe66666	1.8
215	0x400ccccd	2.2
216	0xc00ccccd	-2.2
217	0xbfe66666	-1.8
218	0xbfb33333	-1.4
219	0xbf800000	-1.0
220	0xbf19999a	-0.6
221	0xbe4ccccc	-0.19999999
222	0x3e4cccd0	0.20000005
223	0x3f19999a	0.6
224	0x3f800000	1.0
225	0x3fb33334	1.4000001
226	0x3fe66666	1.8
227	0x400ccccd	2.2
228	0xc00ccccd	-2.2
229	0xbfe66666	-1.8
230	0xbfb33333	-1.4
231	0xbf800000	-1.0
232	0xbf19999a	-0.6
233	0xbe4ccccc	-0.19999999
234	0x3e4cccd0	0.20000005
235	0x3f19999a	0.6
236	0x3f800000	1.0
237	0x3fb33334	1.4000001
238	0x3fe66666	1.8
239	0x400ccccd	2.2

layers.2.base_weight f4 [20, 20]
0	0x3df0b5d3	0.1175343
1	0xbdfed4cf	-0.12442934
2	0x3e21ce6d	0.15801401
3	0x3bb3a169	0.005481888
4	0x3e6055a9	0.21907677
5	0xbd6aa056	-0.057281815
6	0x3cc6940e	0.02424052
7	0x3cbd3378	0.023095831
8	0x3e2a0118	0.1660198
9	0xbe390263	-0.18067317
10	0x3e0822e1	0.13294555
11	0x3e52905a	0.20562878
12	0xbe1b258b	-0.1515104
13	0xbd9287ea	-0.0715483
14	0xbe0f9385	-0.14021118
15	0x3deda55f	0.11603808
16	0x3e4308b5	0.1904629
17	0xbd6a601b	-0.05722056
18	0xbc3ef35a	-0.011654699
19	0x3d17f72b	0.037100952
20	0xbd3e11c3	-0.046403658
21	0xbe478672	-0.1948488
22	0xbdc9064b	-0.098156534
23	0x3cf55c19	0.029951142
24	0x3e434f97	0.1907333
25	0x3e3734f2	0.17891291
26	0x3d42a6b1	0.04752225
27	0xbe185735	-0.14877017
28	0x3dc34728	0.09535056
29	0x3af67236	0.0018802348
30	0xbe038dea	-0.12847105
31	0x3dffcddd	0.12490437
32	0x3dc1f766	0.09471016
33	0x3d932791	0.07185281
34	0xbe2e700d	-0.17034931
35	0x3e1adb47	0.1512271
36	0x3d812198	0.063052356
37	0x3e006333	0.12537841
38	0xbd623b15	-0.055232126
39	0x3d205a3d	0.039148558
40	0x3e41d926	0.18930492
41	0x3e460f18	0.19341695
42	0xbd963b64	-0.073355466
43	0xbddae245	-0.10687689
44	0x3d267edd	0.04064833
45	0x3e4974e3	0.19673495
46	0xbc94a54b	-0.018145224
47	0xbe1227be	-0.14272973
48	0x3da1bcf3	0.07897367
49	0x3c03481a	0.008012796
50	0xbcec7e6f	-0.028868882
51	0xbdcf9f04	-0.10137752
52	0x3e10169a	0.14071122
53	0xbe2f1f0d	-0.17101689
54	0xbe5fd751	-0.2185948
55	0xbd771616	-0.060323797
56	0xbd5bb8cb	-0.05364303
57	0x3deb4afd	0.11488912
58	0xbe11d4e5	-0.14241369
59	0x3dda93a1	0.10672689
60	0x3d5afa48	0.053461343
61	0xbe38cc7d	-0.18046756
62	0xbe1372fc	-0.14399332
63	0xbe0f0725	-0.13967569
64	0xbdbd9bc4	-0.092582256
65	0xbe46ed7c	-0.1942653
66	0xbd9697b6	-0.07353155
67	0xbda3612d	-0.07977519
68	0x3e0c79ef	0.13718389
69	0xbe20a297	-0.15687023
70	0x3d1fab9a	0.03898201
71	0xbcde0647	-0.027102603
72	0xbd42249b	-0.04739819
73	0xbe25f3ad	-0.16206236
74	0x3e3ad291	0.18244387
75	0xbbbcdab2	-0.005763375
76	0xbe4dbbfb	-0.2009124
77	0x3d63a9a8	0.05558172
78	0xbda6cd7a	-0.0814466
79	0x3e2b5127	0.16730176
80	0xbda7a264	-0.081852704
81	0xbe3ef852	-0.18649414
82	0xbe168586	-0.14699373
83	0x3d52e436	0.05148717
84	0xbe4bfcc1	-0.19920637
85	0x3e4e5219	0.20148505
86	0x3e3c75f1	0.18404366
87	0x3e1c9dca	0.15294567
88	0xbe334a74	-0.1750887
89	0x3cf4f919	0.029903935
90	0xbda80e04	-0.08205798
91	0xbc7469a7	-0.014917768
92	0xbe57e2ec	-0.21082658
93	0xbd892dd3	-0.066981934
94	0xbd2fb930	-0.042901218
95	0xbd9170af	-0.07101571
96	0xbe4f4f60	-0.20245123
97	0x3e1652d0	0.14680028
98	0x3d223ad3	0.03960688
99	0x3da27a75	0.07933513
100	0x3e0bbf9f	0.13647316
101	0xbc6977f9	-0.014249795
102	0xbe6281f7	-0.2211989
103	0xbd47b81d	-0.04875957
104	0xbc72d644	-0.014821593
105	0xbc0ad30f	-0.008473172
106	0x3e2f3368	0.17109454
107	0xbdbf634f	-0.093451135
108	0x3cd9b2b2	0.026574466
109	0xbddfd499	-0.10929222
110	0x3e3c0760	0.18362188
111	0xbb743876	-0.0037265099
112	0xbe62f895	-0.22165139
113	0xbe0e3135	-0.13885958
114	0x3c356670	0.011071786
115	0xbe56312a	-0.20917192
116	0xbd8b2d4c	-0.06795749
117	0x3e53ab45	0.20670803
118	0xbe646d70	-0.22307372
119	0x3ca90a2d	0.020634735
120	0xbc98f492	-0.018671308
121	0x3e34a2a7	0.17640172
122	0xbe4336f7	-0.19063936
123	0x3d987279	0.07443709
124	0xbd284b70	-0.041087568
125	0x3db4f0b5	0.08834974
126	0xbe1e676f	-0.15469144
127	0x3c23bf74	0.009994376
128	0x3e046e15	0.12932618
129	0xbd385405	-0.045002002
130	0x3d5bdde2	0.0536784
131	0x3e0044e0	0.12526274
132	0xbc9df71f	-0.019282876
133	0xbd85051f	-0.064951174
134	0xbd899dbd	-0.06719539
135	0xbc4b1579	-0.012395256
136	0x3e175154	0.14777118
137	0xbc623390	-0.013806239
138	0xbd0187be	-0.031623594
139	0x3d8f2536	0.06989519
140	0x3d991a5f	0.07475733
141	0x3e4d4ce9	0.2004887
142	0x3cc242a8	0.023713425
143	0x3e61fc94	0.22069007
144	0xbe4d5d37	-0.2005509
145	0xbdc35395	-0.095374264
146	0xbd554dd7	-0.052076187
147	0x3cf44fc5	0.029823193
148	0xbe361c39	-0.17784204
149	0x3d4f3fb0	0.050597847
150	0x3e159971	0.14609315
151	0xbda63ed1	-0.0811745
152	0x3e0da0e8	0.13830912
153	0xbdb48454	-0.08814302
154	0xbdfe9f9a	-0.12432785
155	0xbd72de5f	-0.0592941
156	0x3d2b3c44	0.04180552
157	0x3db8207e	0.089905724
158	0x3e2593e4	0.16169697
159	0xbe5071a7	-0.20355855
160	0x3b068d49	0.002053099
161	0x3b9a6fb2	0.004713022
162	0xbe2f6880	-0.17129707
163	0x3dfc526a	0.12320407
164	0xbe16a81f	-0.1471257
165	0x3d294498	0.04132518
166	0xbdd52a43	-0.104084514
167	0xbe101c72	-0.14073351
168	0x3e5e2c8c	0.21696681
169	0xbd7a888d	-0.06116538
170	0x3e4f7ef4	0.20263273
171	0x3d9a7586	0.07541947
172	0x3c57829e	0.0131537
173	0xbe05909e	-0.13043448
174	0xbd650c13	-0.055919718
175	0x3e107079	0.14105405
176	0xbdc53993	-0.09630122
177	0x3cf35e8e	0.029708173
178	0xbe60a1c0	-0.21936703
179	0x3d5c0de0	0.05372417
180	0x3d688d69	0.056775484
181	0x3d91c738	0.07118076
182	0x3d501c6a	0.050808348
183	0x3e1fab71	0.15592743
184	0xbc37246b	-0.011178116
185	0xbdd4359b	-0.10361787
186	0xbd0f2374	-0.03494592
187	0x3e21fc3d	0.15818878
188	0xbd8fb6d3	-0.07017293
189	0x3e512c76	0.20427117
190	0x3d554a59	0.052072857
191	0xbd975978	-0.07390112
192	0xbd91bb42	-0.07115795
193	0xbd7bd006	-0.061477683
194	0x3e340663	0.17580561
195	0x3d069fd8	0.032867283
196	0xbdb9e0ac	-0.09076056
197	0xbdbd830f	-0.09253513
198	0x3c931c4e	0.017957833
199	0xbe4d3a8e	-0.20041868
200	0xbe298134	-0.16553193
201	0x3e47910f	0.19488929
202	0x3e21fb25	0.1581846
203	0xbdf8c49d	-0.12146876
204	0xbe594a40	-0.2121973
205	0x3df9e55c	0.1220195
206	0xbe08e0ac	-0.13366956
207	0x3e2152fe	0.15754315
208	0x3e25e441	0.16200353
209	0xbcaa9d1e	-0.020826872
210	0xbe3ec896	-0.18631205
211	0xbd8b862b	-0.068127
212	0x3cd96ed5	0.026542107
213	0x3d0ee490	0.034885943
214	0xbd974644	-0.07386449
215	0x3d4c8ce2	0.049939044
216	0x3de96cd5	0.11397711
217	0x3e168f3b	0.14703076
218	0xbe2ba86b	-0.16763465
219	0x3df549b2	0.11976947
220	0x3d4a83c4	0.049442068
221	0xbd4c74ee	-0.0499162
222	0xbdd3e401	-0.10346223
223	0xbd177c12	-0.036983557
224	0xbd8b14cc	-0.06791076
225	0xbdce056c	-0.10059628
226	0xbd9a106c	-0.075226635
227	0xbe17c2ef	-0.14820455
228	0xbe310e03	-0.17290501
229	0x3d5cbb48	0.053889543
230	0xbe3c3c9f	-0.183825
231	0xbd71ab06	-0.05900099
232	0xbe6480d1	-0.22314765
233	0xbe0196eb	-0.12655227
234	0xbe24acac	-0.16081494
235	0x3df1d782	0.11808683
236	0x3dfcf415	0.123512425
237	0x3e4366ca	0.1908218
238	0x3d000670	0.03125614
239	0x3d0cb0af	0.034348186
240	0x3ccfed6e	0.02538177
241	0x3d9c335e	0.07626985
242	0x3d456abe	0.0481975
243	0x3d8349bd	0.06410549
244	0x3cb7a672	0.022418234
245	0xbe0c5da0	-0.1370759
246	0xbcbca736	-0.023028951
247	0xbe5e1a2a	-0.21689668
248	0xbcea0740	-0.02856791
249	0x3e309951	0.17245986
250	0xbe3268cb	-0.17422788
251	0x3d56bd49	0.05242661
252	0xbe55ee9d	-0.20891805
253	0xbe04fbd7	-0.12986694
254	0x3e01d21e	0.1267781
255	0x3dbfc4aa	0.093636826

layers.2.spline_weight f4 [20, 20, 8]
0	0xbae57936	-0.0017507437
1	0xbc01c431	-0.007920311
2	0xbb5d477f	-0.0033764539
3	0x3baa7808	0.005202297
4	0xbb4923c4	-0.0030691484
5	0x3be7b012	0.0070705498
6	0xbc257d58	-0.010100685
7	0xbb58645b	-0.00330188
8	0x3b0828dd	0.002077631
9	0x3c284d73	0.010272372
10	0x3c2bb51a	0.01048019
11	0x3bb3e892	0.005490371
12	0x3a1e0109	0.0006027376
13	0xbc80b095	-0.0157092
14	0x3c1ec10f	0.009689583
15	0x3b73afb7	0.0037183592
16	0xbb9bd4a7	-0.0047555747
17	0xbc7222cc	-0.014778804
18	0x3c2f0b68	0.010683872
19	0xba8d4615	-0.0010778332
20	0xba291874	-0.0006450482
21	0xbc339d64	-0.010962818
22	0xbc3ba43c	-0.011452731
23	0xbb14af61	-0.0022687542
24	0x3b013e9d	0.0019721158
25	0x3c3102ab	0.010803859
26	0x3c32f6a3	0.010923061
27	0xbbd7dae0	-0.006587371
28	0x3b322c21	0.0027186947
29	0x3b9ea94a	0.004841958
30	0x3c5444f7	0.012955896
31	0x3b531e93	0.0032214269
32	0x3ada9d0d	0.0016678885
33	0x3b9f9bdd	0.0048708753
34	0xbb940f43	-0.004518421
35	0x3bf4a68a	0.007466142
36	0x3c83edb9	0.016104566
37	0xbc629f2b	-0.013831894
38	0x3c1d9135	0.00961714
39	0x3b7b3a81	0.0038334432
40	0x3a5e938a	0.0008490613
41	0x3b724680	0.003696829
42	0x3afcb012	0.0019278547
43	0xbaad25e5	-0.0013210146
44	0xbbcc883e	-0.0062418273
45	0xbbc2db01	-0.0059465175
46	0x3b9efbda	0.0048518004
47	0x3ad3b147	0.0016150855
48	0xbbc2709a	-0.0059338333
49	0xbc88c98e	-0.016697671
50	0x3c940449	0.01806845
51	0xbbe500c0	-0.006988615
52	0x3c15ef80	0.0091513395
53	0x3c329b48	0.01090128
54	0xbc46b365	-0.012127732
55	0xbb785c16	-0.0037896684
56	0x3b0928e7	0.002092892
57	0x3c242c2b	0.010020296
58	0x3bfdf48d	0.0077501
59	0x3aa5c83d	0.0012648177
60	0x3c57e67e	0.013177512
61	0x3bb4c968	0.0055171736
62	0xba91e455	-0.001113067
63	0xb9e6c69d	-0.00044016997
64	0xbaf6a607	-0.001881779
65	0xbb38a069	-0.0028171784
66	0x3c385a17	0.011251948
67	0xbc61fafc	-0.0137927495
68	0x3c4cb3ba	0.012494022
69	0x3b8790db	0.004137141
70	0xbc6cce6d	-0.014453513
71	0xbb7bc9d8	-0.0038419869
72	0x3b30c432	0.002697241
73	0x3c395585	0.011311893
74	0x3bef78d3	0.0073081045
75	0x3b854b61	0.0040678238
76	0xbc702fc5	-0.014659827
77	0x3cb8fa17	0.02258019
78	0xbc919109	-0.017769353
79	0xbbdadde7	-0.006679285
80	0x3aa6aa53	0.0012715555
81	0x3bd6a5b0	0.006550513
82	0x3b82cda5	0.0039918
83	0xbc3e6150	-0.011619881
84	0xbbe3b838	-0.006949451
85	0xbbaf628a	-0.005352323
86	0x3bbbecae	0.0057350015
87	0x3af288bf	0.0018503888
88	0xba757d19	-0.00093646493
89	0xbb205b54	-0.0024468498
90	0x3b38532c	0.0028125746
91	0xbb87abfd	-0.0041403756
92	0xbb6244a9	-0.0034525788
93	0xbc526587	-0.012841589
94	0xbae6b228	-0.0017600702
95	0x39d6f490	0.00040999474
96	0x3b878a68	0.0041363724
97	0x3c51af51	0.012798146
98	0xbc142a00	-0.009043217
99	0x383c519a	4.489869e-05
100	0xbc1e7429	-0.009671249
101	0x3b99140e	0.00467158
102	0xbb0b367d	-0.0021242194
103	0xba912fe5	-0.0011076896
104	0xbaf713ac	-0.0018850467
105	0xbbde4c52	-0.0067840004
106	0x3bc7172b	0.00607576
107	0x3c774075	0.015091051
108	0xbc60b5ae	-0.013715191
109	0x3b1dab76	0.0024058498
110	0xbc5db91f	-0.013532906
111	0xbb87532f	-0.0041297893
112	0xb811d673	-3.4770415e-05
113	0xba641599	-0.0008700728
114	0xbb126f66	-0.002234423
115	0x3b0ffb48	0.0021969844
116	0xbb6b91f7	-0.0035945156
117	0xbc6a3024	-0.014293704
118	0x3c18d661	0.009328456
119	0x3b619c6a	0.0034425505
120	0x3a754e49	0.00093576737
121	0x3bf0860c	0.0073401984
122	0x3c1268a0	0.008936077
123	0xbc87597a	-0.016522158
124	0x3c81bc7d	0.015836949
125	0x3c088be7	0.008334137
126	0x3b8ad8e1	0.0042372798
127	0x3a7583e8	0.0009365664
128	0xbb136783	-0.0022492118
129	0xbc03ff84	-0.008056525
130	0x3baa5fec	0.005199423
131	0x3c33d204	0.010975365
132	0xbc7cd70f	-0.015432133
133	0xbbc849c7	-0.0061123106
134	0xbad99991	-0.0016601552
135	0xb9b73e59	-0.00034950933
136	0x3b9de328	0.004818339
137	0x3c501962	0.012701364
138	0xbc80d019	-0.015724229
139	0x3c3ff506	0.011716133
140	0xbc38d5d8	-0.011281453
141	0x3b559b36	0.0032593734
142	0x3bb7ae79	0.0056055156
143	0x3a7cde45	0.0009646158
144	0x3bb99c9a	0.0056644203
145	0x3c870530	0.016481966
146	0xbc82479f	-0.015903292
147	0x3bf1a862	0.007374809
148	0x3b60abca	0.0034282082
149	0xbc2cfa86	-0.010557776
150	0x3c22a461	0.009926886
151	0x3b60065f	0.0034183485
152	0x3aee25a7	0.001816918
153	0x3c06876e	0.008211
154	0x3b1e9092	0.0024195057
155	0xbc58eac5	-0.013239567
156	0xbbbc4d98	-0.0057465546
157	0x3c5d15c7	0.013493962
158	0x3c0d1f34	0.008613396
159	0x3aaa0a6f	0.001297308
160	0xbba17968	-0.004927803
161	0xbc4d6462	-0.01253614
162	0x3c81430f	0.015779046
163	0xbc94b3e0	-0.018152177
164	0x3c74792c	0.014921468
165	0xbbd0c995	-0.0063716867
166	0x3b43f5c7	0.0029901133
167	0x3ada4421	0.0016652384
168	0x3b2b9c74	0.0026185783
169	0x3c287490	0.010281697
170	0x39fc4e87	0.00048123693
171	0xbb391f99	-0.0028247593
172	0x3b6cabe1	0.003611319
173	0xbc96dd66	-0.018416118
174	0x3c2b1a53	0.010443288
175	0x3b89adee	0.0042016422
176	0xb9affbe1	-0.00033566265
177	0xbc00e2d4	-0.00786658
178	0xbc8e950c	-0.017405055
179	0x3cbe5af8	0.023236737
180	0xbc8711fe	-0.016488072
181	0xbba2ed3a	-0.0049721273
182	0x3bf6ae80	0.0075281262
183	0x3afb225c	0.001916002
184	0x39bf093b	0.00036437236
185	0x3b8b57f5	0.0042524287
186	0x3c1c0288	0.009522088
187	0xbc16096e	-0.009157522
188	0xbc5036b7	-0.012708358
189	0x3c285604	0.010274414
190	0xbc75e6e6	-0.015008664
191	0xbba208c2	-0.0049448917
192	0x3905033e	0.00012685076
193	0xbad4956a	-0.0016218845
194	0xbbb8c91f	-0.00563921
195	0x3b9256dd	0.0044659213
196	0xbc526df5	-0.012843599
197	0x37f55e53	2.9250199e-05
198	0xbc52f1ef	-0.012875064
199	0xbb746652	-0.0037292433
200	0xbb3d70ed	-0.002890642
201	0xbc2bda25	-0.010489021
202	0x3903462a	0.00012519272
203	0xbb81a06d	-0.003955892
204	0xba9c42d4	-0.0011921772
205	0xbb674405	-0.0035288346
206	0xbc2f647b	-0.010705109
207	0xbb2b4cfc	-0.0026138416
208	0xbbba9c71	-0.005694919
209	0xbc848293	-0.016175544
210	0x3c881d2a	0.016615469
211	0xbbcee423	-0.006313817
212	0x3c267574	0.010159839
213	0x3beb02c3	0.00717196
214	0x3c355bd2	0.011069255
215	0x3b316f60	0.0027074441
216	0xbabfa0d0	-0.0014620069
217	0xbbeae3e2	-0.007168279
218	0xbbfc8e05	-0.0077073597
219	0xbbaec8b0	-0.0053339824
220	0xb9f5403d	-0.00046777903
221	0x3aac4f8e	0.0013146268
222	0xbc33546b	-0.01094542
223	0xbb45b63e	-0.003016844
224	0xbae3ac79	-0.0017370126
225	0xbaee2f9e	-0.001817215
226	0x3c87d1bd	0.016579503
227	0xbbdefdea	-0.0068051713
228	0xbc46bad0	-0.0121295005
229	0x3b7b11e4	0.0038310224
230	0xbc2295d4	-0.009923417
231	0xbb4bbe91	-0.0031088928
232	0xbb284841	-0.0025677832
233	0xbc1913e5	-0.009343122
234	0x3adb63fa	0.0016738169
235	0x3b4e27a7	0.003145674
236	0x3b2a7bae	0.002601366
237	0x3bae0853	0.005311051
238	0xbb8bb83e	-0.0042639067
239	0xbac292f3	-0.001484482
240	0x3b2b08f4	0.0026097866
241	0x3c4a529b	0.012348796
242	0x3bea1777	0.0071439105
243	0xbc202f71	-0.009776936
244	0xbab8d437	-0.0014101331
245	0xbbd4c68e	-0.006493396
246	0xbc2afadb	-0.010435785
247	0xbb16d03c	-0.00230123
248	0xb9d3d37e	-0.0004040263
249	0x3af98aee	0.0019038597
250	0x3c612079	0.013740652
251	0x3a1ced44	0.0005986283
252	0xbc11b7b0	-0.008893892
253	0x3becc1c4	0.007225247
254	0xbc7307b4	-0.01483338
255	0xbb985918	-0.0046492927
