checkpoints/best_model_v3.pth (torch, 105175 bytes, 99 tensors)

ini_net.0.weight f4 [20, 2]
0	0x3de97251	0.11398757
1	0x3db287ca	0.08717306
2	0x3e60b317	0.21943317
3	0xbe35d88b	-0.17758386
4	0x3eb58783	0.3545495
5	0x3d917124	0.07101658
6	0x3d3d66bc	0.046240553
7	0x3ef714ad	0.48257962
8	0xbed8b1ec	-0.42323244
9	0x3f1fd2d1	0.62431055
10	0xbeb07cf4	-0.34470332
11	0xbd92f792	-0.071761265
12	0xbcfe3d7f	-0.031035183
13	0xbf09abc0	-0.53777695
14	0xbed5a56f	-0.41727778
15	0x3d6874f9	0.05675218
16	0x3de20a87	0.11037164
17	0xbe64c787	-0.22341739
18	0x3e471e73	0.19445209
19	0x3e87ab0b	0.26497683
20	0xbd95d54d	-0.073160745
21	0xbddc2c04	-0.10750583
22	0x3ec2948a	0.3800395
23	0xbcd2bcc7	-0.025724782
24	0xbf0e39ac	-0.5555675
25	0x3eaec0bc	0.3413142
26	0x3ef825f6	0.48466462
27	0x3ec0b30d	0.37636605
28	0x3e1bd299	0.15217055
29	0x3ee63f18	0.44970012
30	0x3e8c7301	0.2743149
31	0x3ea15288	0.3150828
32	0x3e1b36ba	0.15157595
33	0x3eb7e247	0.35914823
34	0xbe526d9d	-0.20549627
35	0x3e84031b	0.2578362
36	0x3ba0ff59	0.0049132523
37	0xbe02c769	-0.12771381
38	0x3e51394f	0.20432018
39	0xbe40c23f	-0.18824099

ini_net.0.bias f4 [20]
0	0x3e4f3555	0.20235188
1	0x3ee1bd53	0.44089755
2	0x3e084555	0.13307698
3	0x3d82351d	0.06357787
4	0xbece91ad	-0.40345517
5	0x3dfabae3	0.12242677
6	0x3edbd9fb	0.42939743
7	0x3e3c6390	0.18397355
8	0x3eb627b3	0.35577163
9	0x3e783f3b	0.2424287
10	0x3d91fe82	0.07128622
11	0xbe90efc3	-0.28307924
12	0xbe0cdf97	-0.13757168
13	0xbe821870	-0.2540927
14	0xbd7c91fc	-0.06166266
15	0x3e2f54a5	0.17122133
16	0x3ea14515	0.31498018
17	0xbe53e6fe	-0.20693585
18	0xbe843c4a	-0.25827247
19	0xbdd0d2bd	-0.10196445

net.0.weight f4 [20, 20]
0	0xbe50b684	-0.20382124
1	0x3ee290ef	0.442512
2	0x3f22f5a2	0.63656056
3	0x3e9df500	0.30850983
4	0xbef2e942	-0.47443587
5	0xbe9d6372	-0.30739933
6	0x3d729550	0.059224427
7	0x3f484dcf	0.78243726
8	0x3e20de16	0.15709719
9	0x3f136df7	0.5758967
10	0x3e39f00a	0.18157974
11	0xbeee368e	-0.46525997
12	0x3d3d1ed2	0.04617197
13	0xbd5a83f5	-0.0533485
14	0x3df8cfc2	0.12149002
15	0x3ea7486b	0.32672438
16	0x3f084ba1	0.532404
17	0x3d111196	0.035417162
18	0x3e7f3025	0.2492071
19	0x3c330f13	0.010928887
20	0x3ea17d40	0.3154087
21	0x3f2426e5	0.6412185
22	0xbe34e1bf	-0.1766424
23	0x3e44722e	0.19184181
24	0x3d0b64ab	0.03403155
25	0x3eb5670e	0.35430187
26	0x3e9efb58	0.31051135
27	0x3f197077	0.5993723
28	0x3f164cfc	0.5871122
29	0xbd341613	-0.043966364
30	0xbcdff45b	-0.027338197
31	0xbeac5709	-0.33660153
32	0x3ebd12a8	0.36928296
33	0xbe8c104c	-0.27356184
34	0xbdf27f42	-0.11840679
35	0x3deae6e7	0.114698224
36	0xbe1004d5	-0.14064343
37	0xbe8cd45d	-0.2750577
38	0xbede23d1	-0.433867
39	0xbe104804	-0.14089972
40	0x3e9efccd	0.31052247
41	0x3e5e4f4c	0.21709937
42	0xbec373c1	-0.3817425
43	0x3dff3795	0.12461773
44	0x3f037071	0.51343447
45	0x3e991529	0.29898956
46	0xbec04182	-0.37549978
47	0xbef406a4	-0.47661316
48	0xbda79dfe	-0.081844315
49	0xbd30fa37	-0.043207373
50	0xbf0545fb	-0.52059907
51	0x3ea53d26	0.32273215
52	0x3e187f54	0.14892322
53	0x3e877420	0.26455784
54	0x3e44f55e	0.19234225
55	0xbf120728	-0.5704217
56	0x3e6e1455	0.23249944
57	0x3e3ba253	0.1832364
58	0xbddeb222	-0.1087382
59	0x3b6eae0c	0.0036419658
60	0x3e98a89e	0.29816145
61	0x3ede9fe8	0.43481374
62	0x3e4d504c	0.20050162
63	0x3d2f13f1	0.042743627
64	0x3d9a7eab	0.07543691
65	0x3e6edf07	0.23327266
66	0x3e0bdd5e	0.13658664
67	0x3e7c14e4	0.24617344
68	0x3de4f0dd	0.111787535
69	0xbe35af09	-0.17742552
70	0x3ec7d4d8	0.39029574
71	0x3e563e6b	0.20922248
72	0xbe3f4838	-0.18679893
73	0x3e85fb87	0.26168463
74	0x3e25b67f	0.16182898
75	0x3e133945	0.14377315
76	0x3e819b4a	0.2531379
77	0xbf06ce93	-0.5265896
78	0xbdf66504	-0.12030986
79	0xbe868e50	-0.2628045
80	0x3dd31493	0.103066586
81	0xbedc7ea8	-0.4306538
82	0xbeb8b5df	-0.36076257
83	0xbf024c2a	-0.5089747
84	0x3b5ce8ed	0.003370817
85	0xbe07f094	-0.13275367
86	0x3e98e9ee	0.29865974
87	0xbc2113a9	-0.0098313475
88	0xbe9a0931	-0.30085137
89	0xbebefad2	-0.37300736
90	0x3d70a967	0.058755305
91	0xbe4e1cc0	-0.20128155
92	0xbec92b4b	-0.39290842
93	0x3d1cb26c	0.038256094
94	0xbed3c92e	-0.41364425
95	0xbf029542	-0.51009
96	0xbc1b26c9	-0.009469696
97	0x3e4c58f6	0.19955811
98	0xbe62811f	-0.22119568
99	0x3f03ae9c	0.5143831
100	0xbee7e03a	-0.4528826
101	0xbe87b230	-0.26503134
102	0x3e972e37	0.29527447
103	0xbe6aacf7	-0.22917543
104	0xbe86bc32	-0.26315457
105	0xbf3f28fd	-0.7467192
106	0xbdda5777	-0.10661214
107	0x3db103ad	0.08643279
108	0xbe9e31d0	-0.3089738
109	0xbec70e00	-0.3887787
110	0xbd7f73a5	-0.062366147
111	0x3eb11875	0.34588972
112	0x3f0e6c44	0.5563395
113	0x3ee23739	0.44182757
114	0x3eb6f113	0.357308
115	0xbedbc2e4	-0.42922127
116	0xbeac319b	-0.33631596
117	0xbe75c3c7	-0.24000464
118	0x3e87b5b2	0.2650581
119	0x3f43e5e3	0.76522654
120	0xbe769224	-0.24079186
121	0x3d031d50	0.032010376
122	0xbdc8b299	-0.0979969
123	0xbea67668	-0.32512212
124	0x3d54bedd	0.051939834
125	0x3dde6407	0.108589225
126	0x3ec9b491	0.39395574
127	0xbe64c886	-0.22342119
128	0xbe12d6c0	-0.14339733
129	0x3cff5483	0.031168228
130	0x3e87682b	0.2644666
131	0xbea2c2c6	-0.31789225
132	0xbe8ad195	-0.27113023
133	0x3eaac069	0.33349922
134	0x3ec82a4f	0.3909478
135	0xbeea7711	-0.45793965
136	0x3dc57e82	0.0964327
137	0x3eaf28ef	0.34210917
138	0xbe9b44d5	-0.30325952
139	0x3cf72968	0.030171111
140	0x3e678287	0.22608386
141	0xbdfc3d9b	-0.12316438
142	0xbe0f344d	-0.13984795
143	0x3dc2a987	0.09504991
144	0xbd14af47	-0.03629997
145	0xbcf3fede	-0.029784616
146	0x3e89c61c	0.26908958
147	0x3e748df6	0.23882279
148	0x3d156617	0.036474314
149	0x3e03650f	0.1283152
150	0x3f4f2086	0.80909
151	0xbe8afe33	-0.27147064
152	0x3e68eaaf	0.22745775
153	0x3d46d14c	0.048539445
154	0xbf4c427b	-0.7978894
155	0x3ef9f77c	0.48821628
156	0xbed499c1	-0.41523555
157	0x3db39912	0.0876943
158	0x3dd1da26	0.10246687
159	0x3ebdb830	0.37054586
160	0x3e00eacd	0.1258957
161	0xbeb18e53	-0.34678897
162	0x3e74c2d4	0.23902446
163	0xbe219b72	-0.15781954
164	0x3e858baa	0.26083118
165	0xbf1eaa7a	-0.61978877
166	0xbe3d1896	-0.1846641
167	0xbe52bb85	-0.20579346
168	0xbdda3641	-0.10654879
169	0x3c9fa632	0.019488428
170	0xbc1a0a71	-0.0094019035
171	0x3eb52fe7	0.3538811
172	0xbe288767	-0.16457902
173	0x3ed929c3	0.42414674
174	0xbd4eef4c	-0.05052118
175	0x3f2b1bd0	0.66839314
176	0xbefac282	-0.48976523
177	0xbddd6b66	-0.108115
178	0x3edf3720	0.43596745
179	0x3eb1a4d0	0.34696054
180	0xbf1baea2	-0.60813344
181	0x3e59ccbc	0.21269506
182	0x3ef1f182	0.47254568
183	0x3ea18819	0.31549147
184	0xbe8a4e73	-0.27012977
185	0xbd3dd90b	-0.046349566
186	0x3f27ad73	0.6549904
187	0x3e9fccdc	0.31210983
188	0x3ec8a425	0.39187732
189	0x3da16706	0.07880978
190	0x3f4cc722	0.7999135
191	0xbb5620c5	-0.003267334
192	0xbe265da6	-0.16246662
193	0x3f093053	0.5358936
194	0xbe84ce27	-0.25938532
195	0xbecbba30	-0.39790487
196	0x3e3887f8	0.18020618
197	0xbe501f10	-0.2032435
198	0xbe83c00a	-0.25732452
199	0xbea2aaa5	-0.31770816
200	0x3ec7e2e9	0.39040306
201	0x3c48f131	0.012264536
202	0xbe94e702	-0.29082495
203	0xbdfbc886	-0.12294106
204	0xbc934f6e	-0.017982211
205	0xbee0381f	-0.43792817
206	0xbe3dbfa6	-0.1853014
207	0xbe7e4bc5	-0.24833591
208	0xbea727a2	-0.32647425
209	0xbf1a3682	-0.6023942
210	0x3eed8984	0.4639398
211	0x3e086fa3	0.13323836
212	0xbe229dde	-0.15880534
213	0x3e849e72	0.25902134
214	0x3bf643e1	0.007515416
215	0xbf122112	-0.5708171
216	0xbea4cb6f	-0.32186458
217	0xbe913f96	-0.28368825
218	0x3eba774b	0.36419138
219	0x3f2b55a0	0.6692753
220	0xbe0f3f2f	-0.13988946
221	0xbe1cdbb5	-0.15318187
222	0x3ed0c5c3	0.4077588
223	0x3f39ee64	0.7262938
224	0x3d868a35	0.0656933
225	0x3f05a2d6	0.5220159
226	0xbe22772a	-0.1586577
227	0x3ee76d9e	0.4520082
228	0x3d75e807	0.06003573
229	0x3f03b168	0.51442575
230	0x3dc270a4	0.09494141
231	0xbf01236f	-0.5044469
232	0x3c577306	0.013149982
233	0xbf163a44	-0.58682656
234	0x3e1f080a	0.1553041
235	0xbdff9ebe	-0.124814495
236	0x3f30fb44	0.691334
237	0x3cd24244	0.025666364
238	0xbc340ca7	-0.010989345
239	0xbe5b2fda	-0.21404973
240	0x3dc332c9	0.09531171
241	0xbe078714	-0.13235122
242	0x3e090f32	0.13384703
243	0x3f02b54d	0.51057893
244	0xbd8146b5	-0.063123144
245	0xbeb25294	-0.34828627
246	0x3f0a73f5	0.54083186
247	0x3eb0ceba	0.3453272
248	0x3e90bcd6	0.2826907
249	0xbdbd4647	-0.0924192
250	0x3f3de0df	0.7417125
251	0x3e11c254	0.14234287
252	0xbe800d9f	-0.25010392
253	0x3eecf261	0.4627867
254	0xbe949ad5	-0.29024377
255	0x3e3586ac	0.17727154

net.0.bias f4 [20]
0	0x3c2824fa	0.010262722
1	0x3ec42005	0.3830568
2	0x3df06a5a	0.11739035
3	0xbc404b02	-0.011736633
4	0x3dd24e61	0.10268856
5	0xbda51df2	-0.08062352
6	0x3e7f2a56	0.24918494
7	0xba888136	-0.0010414484
8	0xbd8a650d	-0.06757555
9	0xbdabedc3	-0.08394959
10	0xbdcaa638	-0.09894985
11	0xbdc8f252	-0.09811844
12	0x3da9547e	0.08268069
13	0x3eb04c20	0.3443308
14	0x3d004c42	0.031322725
15	0x3d72b901	0.059258465
16	0xbdc59cf1	-0.09649075
17	0xbdb06724	-0.086134225
18	0x3ded51e3	0.11587884
19	0x3c25c88f	0.010118618

net.2.weight f4 [20, 20]
0	0x3e11dd9d	0.14244695
1	0x3e4a2b3b	0.19743054
2	0x3db68a0e	0.089130506
3	0xbdd15156	-0.10220592
4	0x3db24ff8	0.08706659
5	0x3e184884	0.14871413
6	0xbec8a4a9	-0.39188126
7	0xbe0313f6	-0.12800583
8	0x3d19e035	0.037567336
9	0xbe9506bb	-0.29106697
10	0xbe231851	-0.15927245
11	0x3de0a4b1	0.109689124
12	0xbe6150ee	-0.22003528
13	0xbef0636d	-0.46950856
14	0x3edd7987	0.4325678
15	0xbc632783	-0.013864401
16	0xbefc9e77	-0.4933965
17	0xbeec665d	-0.46171847
18	0xbe860860	-0.26178265
19	0xbea983d0	-0.33108377
20	0xbf16e723	-0.58946437
21	0xbf5b0471	-0.8555365
22	0x3f21ac4f	0.6315355
23	0x3d9056b9	0.07047791
24	0x3f39869c	0.7247102
25	0x3f8ddf2b	1.108373
26	0xbf866991	-1.0500966
27	0xbf381192	-0.7190181
28	0x3ee3da2a	0.44502383
29	0xbf431a13	-0.7621166
30	0x3f69c499	0.9131561
31	0xbf820bae	-1.0159814
32	0x3e1aeabe	0.1512861
33	0xbf68baa1	-0.90909773
34	0xbf8981e9	-1.074277
35	0xbf4789fc	-0.7794492
36	0xbf606243	-0.87649935
37	0xbf58ab72	-0.84636605
38	0x3dcd8183	0.10034468
39	0xbececb64	-0.4038955
40	0xbe0304bc	-0.12794775
41	0x3f113361	0.56719023
42	0xbe91a4ad	-0.2844595
43	0x3f04e4ff	0.5191192
44	0xbdf6eb24	-0.12056568
45	0xbe78edc9	-0.24309458
46	0x3eaca6a2	0.3372088
47	0x3ee7e4c7	0.4529173
48	0xbe1667c9	-0.14688028
49	0x3f123003	0.5710451
50	0xbb05cc69	-0.0020416027
51	0x3ea5cc63	0.32382497
52	0xbe0dd1d0	-0.13849568
53	0x3f15234a	0.5825697
54	0x3ec40722	0.38286692
55	0x3e50dcf5	0.20396788
56	0x3f795af8	0.9740443
57	0x3efc6745	0.49297538
58	0xbf1d9689	-0.61557823
59	0xbd9bddb6	-0.076106474
60	0x3ea8893c	0.32917202
61	0x3cd1a1a7	0.025589777
62	0x3e95ba66	0.29243773
63	0xbe75ffbd	-0.24023338
64	0x3e397a0b	0.18112962
65	0x3f114083	0.5673906
66	0x3e364ee3	0.1780353
67	0xbeb0aae9	-0.34505394
68	0x3e9adf68	0.3024857
69	0xbe960e04	-0.29307568
70	0x3e64cf02	0.22344592
71	0xbe8f1e16	-0.2795264
72	0x3ed86619	0.42265394
73	0xbec75ca1	-0.38937858
74	0xbe13e9fa	-0.14444724
75	0x3e5f71c9	0.2182075
76	0xbd0d18da	-0.03444753
77	0xbddcebab	-0.107871376
78	0xbedcd5df	-0.4313192
79	0xbebc371e	-0.367608
80	0xbe938946	-0.2881567
81	0xbe22d242	-0.1590052
82	0x3edeff79	0.43554285
83	0xbe4e47d9	-0.20144595
84	0x3e4e429b	0.20142595
85	0x3e960448	0.2930014
86	0x3ec4f151	0.3846536
87	0xbee3ee2f	-0.44517657
88	0x3dfe4989	0.124163695
89	0xbef2effd	-0.47448722
90	0xbd092fe1	-0.033492927
91	0xbeb6169a	-0.3556412
92	0x3e0fda2a	0.14048067
93	0xbe2a0d9a	-0.16606751
94	0xbe9a2252	-0.3010431
95	0x3e7c6ffe	0.24652097
96	0x3d8a11e7	0.06741696
97	0xbeb3993f	-0.35077855
98	0xbe10f758	-0.14156854
99	0xbf31c664	-0.69443345
100	0x3c95b758	0.018275902
101	0x3f64c933	0.89369506
102	0x3cd64e0c	0.026160263
103	0x3f626b6f	0.8844518
104	0x3e6c526d	0.23078318
105	0xbf5aa8fe	-0.8541411
106	0x3de95804	0.11393741
107	0x3e05f35c	0.13081115
108	0x3e1b443d	0.1516275
109	0x3e9af802	0.3026734
110	0xbf637d59	-0.8886314
111	0x3fa46ae9	1.2845126
112	0xbeac6c30	-0.3367629
113	0x3ef215ab	0.47282156
114	0x3f341050	0.7033739
115	0x3ef633fb	0.48086533
116	0x3f1a1591	0.6018916
117	0x3e1db671	0.15401627
118	0xbeb8edb3	-0.3611885
119	0x3f085a3d	0.5326269
120	0x3efb9c6f	0.49142787
121	0xbe96610c	-0.29370916
122	0xbe044b04	-0.12919241
123	0x3da2468d	0.07923613
124	0xbeb30dc8	-0.34971452
125	0xbf1d9350	-0.61552906
126	0x3e16870b	0.14699952
127	0xbd3b5074	-0.045731023
128	0xbcd2c1ab	-0.025727114
129	0x3f37d758	0.71812963
130	0xbf35fed5	-0.7109197
131	0x3f41fcb7	0.7577624
132	0x3e693451	0.22773863
133	0x3e86afb2	0.2630592
134	0x3f2a7d81	0.66597754
135	0x3e3373a4	0.17524582
136	0xbd88dd0b	-0.066827856
137	0xbc495de0	-0.012290448
138	0xbd840f09	-0.0644818
139	0x3f19d04f	0.6008348
140	0x3e85774b	0.26067576
141	0xbe908152	-0.28223664
142	0xbf10b46d	-0.5652531
143	0x3eddcdd0	0.43321085
144	0xbf5cd69c	-0.8626497
145	0xbefed13c	-0.49769008
146	0xbe9f7f8a	-0.31151992
147	0x3efe31c4	0.49647343
148	0x3ebcc8aa	0.36871845
149	0xbdb91f59	-0.09039182
150	0xbec85989	-0.3913081
151	0xbdaa91e1	-0.083286054
152	0xbc60f212	-0.013729589
153	0x3dbf7cbb	0.09349962
154	0x3dee1cc8	0.11626583
155	0x3d5d766d	0.054068018
156	0x3dde8023	0.10864284
157	0xbed55388	-0.41665292
158	0x3d34c7aa	0.044135727
159	0x3f28b4bc	0.6590078
160	0x3f45270f	0.77012724
161	0xbc0fbcb5	-0.008773019
162	0xbe9d829a	-0.30763704
163	0x3d8450ef	0.06460749
164	0xbe01896a	-0.12650076
165	0xbe44cff9	-0.1921996
166	0xbe9d5f3d	-0.30736724
167	0x3db6acc0	0.08919668
168	0xbe2262e0	-0.1585803
169	0xbcc48656	-0.023989838
170	0x3cad3649	0.02114405
171	0x3f3fd673	0.749366
172	0xbe4ce51c	-0.20009273
173	0xbdaad457	-0.08341282
174	0xbdfa2d22	-0.1221564
175	0xbe772998	-0.2413696
176	0x3f033a03	0.51260394
177	0x3f2761fb	0.6538388
178	0xbed99632	-0.42497402
179	0x3f15afcb	0.58471364
180	0xbf1b9d16	-0.6078657
181	0xbedd94a4	-0.43277466
182	0x3eddf4a9	0.43350723
183	0xbe5e64de	-0.21718165
184	0xbd894651	-0.06702865
185	0x3e762082	0.24035838
186	0x3e81359d	0.25236216
187	0x3e5ea5ff	0.2174301
188	0x3e94da91	0.29073003
189	0xbc7ca3b4	-0.015419889
190	0x3f146ec4	0.57981515
191	0xbf11e724	-0.5699332
192	0xbea34509	-0.31888607
193	0xbf3a805f	-0.7285213
194	0x3e88c7d8	0.2671497
195	0xbdc4a244	-0.09601262
196	0xbbf2ffa6	-0.0074157296
197	0xbef306a0	-0.47465992
198	0x3f1c296a	0.6100069
199	0xbeb2de73	-0.3493534
200	0xbe7585f5	-0.23976882
201	0xbbb04295	-0.005379031
202	0xbe80bd68	-0.25144506
203	0xbeab754e	-0.33487934
204	0x3e70291f	0.23453186
205	0x3eba66b1	0.36406472
206	0xbc1970bc	-0.009365257
207	0xbe580406	-0.21095285
208	0x3eae84d0	0.34085703
209	0xbd61e2cf	-0.055147942
210	0x3efc3024	0.49255478
211	0xbe35b450	-0.17744565
212	0x3f1bdb82	0.6088182
213	0x3e0111cd	0.12604447
214	0x3e082e59	0.1329893
215	0xbf0258e3	-0.5091688
216	0xbeffdae1	-0.4997168
217	0xbeb74306	-0.35793322
218	0xbe89cd5a	-0.26914483
219	0x3e13bfac	0.14428586
220	0x3ee0b562	0.43888384
221	0xbea4ffb2	-0.3222633
222	0xbe36fc94	-0.17869788
223	0x3e2c37b2	0.16818121
224	0xbe9f3008	-0.31091332
225	0x3e90a491	0.28250554
226	0xbe9642f0	-0.29347944
227	0x3e4e9847	0.20175277
228	0xbe78c787	-0.24294864
229	0x3e980db8	0.29697967
230	0xbd9ed432	-0.07755317
231	0x3d6c12e6	0.05763521
232	0x3edbd53e	0.42936128
233	0x3e97d897	0.29657432
234	0xbf074d15	-0.5285199
235	0xbece3341	-0.4027348
236	0x3e7e0e4b	0.2481014
237	0x3efe3431	0.49649194
238	0xbe91b186	-0.28455752
239	0xbeaa41bd	-0.3325328
240	0x3f0742cc	0.528363
241	0x3d08367a	0.033255078
242	0x3eb63141	0.35584453
243	0xbe4595a8	-0.1929537
244	0xbed46832	-0.41485745
245	0x3e698665	0.22805174
246	0xbf0b81fb	-0.5449521
247	0xbbe1bc7d	-0.0068889246
248	0x3e3e0a54	0.18558627
249	0xbd7145f1	-0.058904592
250	0x3df20e67	0.11819153
251	0x3da45b5e	0.080252394
252	0x3ce07dab	0.027403673
253	0xbea1cc5d	-0.3160123
254	0x3edc3caf	0.43015048
255	0xbe878616	-0.26469487

net.2.bias f4 [20]
0	0x3e80bf1c	0.25145805
1	0xbf15c67e	-0.58506
2	0xbc8e866a	-0.017398078
3	0x3e27225a	0.16321698
4	0x3ec22e65	0.3792602
5	0x3ea0a4a3	0.31375608
6	0x3e628d74	0.22124273
7	0xbe2cf453	-0.16890077
8	0xbd80ed28	-0.06295234
9	0x3edda705	0.43291488
10	0x3e1739f6	0.14768204
11	0xbe2bee70	-0.16790175
12	0x3dc55b72	0.096365824
13	0x3d1597c4	0.036521688
14	0xbe84588a	-0.258488
15	0xbe3d6256	-0.18494543
16	0xbd796e1f	-0.060896035
17	0xbf2918de	-0.6605357
18	0xbe9882b0	-0.29787207
19	0x3ebcadf7	0.36851475

net.4.weight f4 [20, 20]
0	0xbc9c3e57	-0.019072695
1	0xbf0cbecf	-0.5497865
2	0x3e12e526	0.14345226
3	0x3e301b59	0.17197932
4	0x3e9c9eba	0.3058985
5	0x3f29fc71	0.6640082
6	0x3ae84fc7	0.0017723971
7	0xbeed46c4	-0.46343052
8	0x3d397906	0.045281433
9	0x3e8bd422	0.27310282
10	0xbd4e2d02	-0.05033589
11	0x3f2be9d3	0.6715366
12	0xbf281253	-0.6565296
13	0xbf43b7d2	-0.7645236
14	0x3f0efed2	0.55857575
15	0xbdf6d836	-0.12052958
16	0xbedf43d0	-0.43606424
17	0xbe89173d	-0.26775542
18	0x3eca9e3e	0.39573854
19	0x3eb40d02	0.35166174
20	0x3ebac74e	0.36480182
21	0xbe1698e0	-0.14706755
22	0x3f7a9fef	0.9790029
23	0xbe4e07af	-0.20120119
24	0x3deb1066	0.11477737
25	0x3f673721	0.90318495
26	0xbe458951	-0.19290663
27	0xbcf2dacd	-0.029645348
28	0xbe58849a	-0.21144333
29	0x3ea9731d	0.33095637
30	0xbf2a56fa	-0.66538966
31	0xbe1fb2e8	-0.15595591
32	0xbe4e502e	-0.20147774
33	0xbef4dcbe	-0.47824663
34	0x3e77332b	0.24140613
35	0x3ee3c031	0.44482568
36	0x3a9cb069	0.001195443
37	0xbf712595	-0.9419797
38	0x3de7518d	0.112948515
39	0x3ea6a5c7	0.32548353
40	0xbf1cdc18	-0.61273336
41	0xbe8b04c2	-0.27152067
42	0xbe019c0e	-0.12657186
43	0xbbb282fa	-0.0054477425
44	0x3e09302a	0.1339728
45	0xbe34a0ac	-0.17639416
46	0xbe8996ea	-0.2687295
47	0xbece65f8	-0.4031217
48	0xbeb8b730	-0.3607726
49	0x3edea1f5	0.43482938
50	0xbf08b5e6	-0.53402555
51	0x3f11da0e	0.5697335
52	0xbe59bb9d	-0.21262975
53	0xbe95d12e	-0.29261154
54	0x3f1a96f0	0.6038656
55	0x3d9531b5	0.072848715
56	0x3ee8133b	0.45327172
57	0x3e2afead	0.16698714
58	0x3d833b22	0.06407763
59	0x3ea07418	0.31338573
60	0x3c0bcafa	0.00853228
61	0xbe5f0286	-0.21778306
62	0x3f00680d	0.5015877
63	0xbed76a3f	-0.42073247
64	0xbf3379e6	-0.7010788
65	0x3f4c1c84	0.7973101
66	0x3e988dcf	0.2979569
67	0xbecf62a8	-0.40504956
68	0x3f1b86f4	0.607528
69	0x3ef46d85	0.47739807
70	0xbe15fd12	-0.1464732
71	0xbce7fee2	-0.02831978
72	0xbedd53ff	-0.43228146
73	0xbec92f54	-0.3929392
74	0xbdd45a47	-0.103687815
75	0x3eb57bc8	0.35446
76	0x3ef0eba9	0.47054794
77	0xbee6d402	-0.45083624
78	0x3e9ae258	0.30250812
79	0x3f5f9650	0.87338734
80	0xbdc34732	-0.09535064
81	0xbe110826	-0.14163265
82	0x3ecd0170	0.4004016
83	0xbf0d1474	-0.55109334
84	0x3eff4bf6	0.4986264
85	0x3daebe22	0.08532359
86	0xbe0f4eb5	-0.13994868
87	0xbf1c8fd1	-0.61156946
88	0x3e845c6d	0.25851765
89	0xbe98f19b	-0.2987183
90	0xbe0cf057	-0.13763557
91	0x3f2da7ba	0.67834055
92	0xbf2ea759	-0.682241
93	0xbe96fe6d	-0.29490986
94	0x3e81ed8e	0.25376552
95	0x3e94949b	0.29019627
96	0x3f09d32d	0.53837854
97	0xbe6c3324	-0.23066384
98	0xbf407bfd	-0.7518919
99	0x3f0367d8	0.5133033
100	0xbf2daddc	-0.67843413
101	0x3e275ee1	0.16344787
102	0x3ed89d05	0.42307296
103	0x3df91dce	0.12163888
104	0xbd5aeb6c	-0.053447172
105	0xbd800d10	-0.062524915
106	0x3d7d7753	0.061881375
107	0x3e80c5c3	0.2515088
108	0x3ed540be	0.41650957
109	0xbe2f67bf	-0.1712942
110	0xbea02a3d	-0.31282225
111	0x3ea0694f	0.31330344
112	0xbe20bfb0	-0.15698123
113	0x3e6edfd8	0.23327577
114	0x3f2922c7	0.6606869
115	0x3ed00c68	0.40634465
116	0xbde94aed	-0.11391244
117	0x3ed66f5d	0.41881838
118	0x3eaeff64	0.34179223
119	0xbe721e20	-0.23644304
120	0x3f2f7935	0.6854432
121	0xbf0aba5b	-0.54190606
122	0x3f095c16	0.53656137
123	0x3e34d02d	0.17657538
124	0x3f32abad	0.69793206
125	0x3ee837e2	0.45355135
126	0x3d9cc09b	0.07653924
127	0xbf03ea1e	-0.5152911
128	0x3e8f94f5	0.28043333
129	0x3e35af10	0.17742562
130	0x3f58c3c7	0.8467373
131	0xbe29bea4	-0.1657663
132	0x3e2654b6	0.16243252
133	0xbe932a90	-0.2874341
134	0xbefa323b	-0.48866448
135	0xbea7325f	-0.32655618
136	0xbd323811	-0.0435105
137	0xbee11558	-0.43961596
138	0xbf293a13	-0.6610424
139	0xbdf6c13a	-0.12048574
140	0xbc384ff3	-0.01124953
141	0xbe8f3c35	-0.27975622
142	0x3eec55f7	0.46159336
143	0xbea0ae59	-0.31383017
144	0x3f30fede	0.69138896
145	0xbc5f733c	-0.013638314
146	0xbf36150e	-0.71125877
147	0xbf14e611	-0.58163553
148	0x3dd3e752	0.10346855
149	0x3dc68060	0.09692454
150	0x3e2bbe22	0.16771749
151	0x3e884325	0.26613727
152	0x3d8d36e9	0.06895239
153	0xbe5a744d	-0.21333428
154	0x3e717235	0.23578723
155	0xbe8caa18	-0.2747352
156	0x3d310cc7	0.043225076
157	0xbd1f9a71	-0.038965646
158	0xbf4d7026	-0.8024925
159	0x3c06467d	0.008195517
160	0xbf1abedb	-0.6044747
161	0x3db4ec48	0.088341296
162	0x3e82fd50	0.25583887
163	0x3d845cae	0.0646299
164	0xbf0325be	-0.51229465
165	0xbdf15124	-0.117830545
166	0x3ee2e99d	0.44318858
167	0x3e705de7	0.23473321
168	0xbd478fca	-0.048721112
169	0x3f0f43ee	0.5596303
170	0x3da9a3a2	0.082831636
171	0x3ea178f0	0.3153758
172	0xbd37aa53	-0.04484017
173	0xbee97bc4	-0.45602238
174	0x3e521cef	0.2051885
175	0x3ef94246	0.48683375
176	0x3f114549	0.56746346
177	0x3d3022e6	0.04300203
178	0x3f4fb25d	0.81131536
179	0x3e18af78	0.14910686
180	0xbe9e51c5	-0.3092176
181	0xbeef87f9	-0.46783426
182	0xbd334575	-0.04376741
183	0x3f05cd61	0.5226651
184	0x3efe15df	0.4962606
185	0xbe831c9a	-0.2560776
186	0xbefa4e5d	-0.4888791
187	0xbf21090c	-0.6290443
188	0xbe9225e8	-0.28544545
189	0x3e6aff8e	0.22949049
190	0x3e80c2de	0.25148672
191	0xbf2fad24	-0.68623567
192	0x3e679e45	0.22618969
193	0xbe1fa44c	-0.15590018
194	0x3dec1c96	0.1152889
195	0xbde43825	-0.11143521
196	0xbe9a3bcf	-0.30123755
197	0xbe6546a6	-0.22390231
198	0xbf0132de	-0.5046824
199	0x3d8fe13f	0.07025384
200	0xbf1ec958	-0.62025976
201	0xbef12f42	-0.47106367
202	0x3fbc1568	1.4694033
203	0xbf994b7f	-1.1976165
204	0xbfe05040	-1.752449
205	0x3dff76dd	0.12473843
206	0x3f30c71e	0.6905383
207	0x3ed606c7	0.41802046
208	0x3e9f6f86	0.31139773
209	0x3d710d94	0.05885084
210	0xbe947dda	-0.29002267
211	0x3f4ad109	0.7922521
212	0xbf3685b8	-0.7129779
213	0xbd73ff44	-0.059569612
214	0x3f33f8c0	0.7030144
215	0x3ee7d737	0.45281383
216	0x3ecfe616	0.4060523
217	0xbed21497	-0.41031334
218	0x3f3d2740	0.73888016
219	0x3f001a74	0.50040364
220	0x3f20657e	0.62654865
221	0xbf45a0a7	-0.7719826
222	0x3eb46c47	0.3523886
223	0x3ef8eebc	0.4861964
224	0x3e9694c7	0.29410383
225	0x3e3aa620	0.18227434
226	0x3cf4c136	0.029877286
227	0x3d69091d	0.056893457
228	0xbefb8392	-0.49123818
229	0x3f0e2051	0.5551806
230	0x3e81c493	0.25345287
231	0xbe4c0b6b	-0.1992623
232	0x3dd1710e	0.102266416
233	0x3ccdbda5	0.025114844
234	0xbec818bc	-0.3908137
235	0xbeda81e7	-0.42677233
236	0xbe7e0b4a	-0.24808994
237	0xbe5055e8	-0.2034527
238	0x3c8b1296	0.016976636
239	0x3f1a54e5	0.6028579
240	0x3e79ca48	0.2439357
241	0xbf0b8d53	-0.5451252
242	0xbef5aa3f	-0.4798145
243	0x3f006e28	0.50168085
244	0x3f77f27e	0.9685439
245	0x3eb08671	0.3447757
246	0xbd4def8e	-0.050277285
247	0xbecadcbd	-0.39621535
248	0xbf6ab8f3	-0.9168846
249	0x3eb2d58e	0.34928554
250	0x3eafe40c	0.34353673
251	0xbe971188	-0.29505563
252	0xbe2ebcb8	-0.17064178
253	0xbd8b23e9	-0.06793959
254	0xbef9b394	-0.4876982
255	0xbf3189cd	-0.6935089

net.4.bias f4 [20]
0	0x3e9b9706	0.3038866
1	0x3e9ca85c	0.30597198
2	0xbde5cdf7	-0.11220925
3	0x3ea803a9	0.32815292
4	0x3e5d353b	0.21602337
5	0xbe1539e4	-0.14572865
6	0x3ea023f4	0.3127743
7	0x3db273da	0.08713503
8	0x3e0c3ba0	0.1369462
9	0x3e7d7dd8	0.24755037
10	0xbca1ef16	-0.019767325
11	0x3ebe1ab8	0.3712976
12	0x3e7d41f9	0.24732198
13	0x3e95a8a9	0.2923024
14	0xbe8d80f7	-0.27637455
15	0x3dd30025	0.10302762
16	0xbd012d08	-0.031537086
17	0x3e372704	0.17885977
18	0x3dc8c681	0.098034866
19	0xbdd73a0d	-0.10509119

net.6.weight f4 [20, 20]
0	0xbe698412	-0.22804287
1	0xbe34955b	-0.176351
2	0xbee8ea0b	-0.4549106
3	0xbdbc797a	-0.09202857
4	0xbee41291	-0.44545415
5	0x3eb3c9c2	0.35114866
6	0x3e07ecd4	0.13273937
7	0xbe934df2	-0.28770405
8	0xbf149e98	-0.58054495
9	0x3d94c31f	0.07263779
10	0xbf60b93d	-0.8778265
11	0x3e11e793	0.14248495
12	0x3df23f69	0.11828501
13	0xbf0c20d6	-0.54737604
14	0x3d041c82	0.03225375
15	0x3f083395	0.5320371
16	0x3e9b705c	0.3035916
17	0xbeeb2384	-0.45925534
18	0xbeff3a6a	-0.49849254
19	0xbe5fb70d	-0.21847172
20	0x3d77362f	0.060354408
21	0x3d6fc5e4	0.058538333
22	0xbe8a17f8	-0.26971412
23	0x3edf4db3	0.43613967
24	0xbd1a4837	-0.037666526
25	0x3d9380e7	0.072023205
26	0xbd52085b	-0.0512775
27	0xbf2e7c44	-0.68158364
28	0x3f106834	0.56409
29	0xbe1bf004	-0.15228277
30	0x3ead1dee	0.33811897
31	0x3eb032ac	0.3441366
32	0x3ece5325	0.4029781
33	0x3dc0e55a	0.09418745
34	0xbef7c1b9	-0.48389986
35	0xbfa88216	-1.3164699
36	0xbf29f7d8	-0.66393805
37	0x3e32ffc0	0.17480373
38	0xbebe26b3	-0.371389
39	0x3ebf3d6d	0.37351552
40	0xbee460ba	-0.44605047
41	0x3e81a77d	0.25323096
42	0x3e14d2df	0.14533566
43	0x3deaee1c	0.11471197
44	0x3eb550a0	0.35413074
45	0x3f623795	0.8836606
46	0xbe25b766	-0.16183242
47	0xbe3b5f78	-0.18298137
48	0xbf0502af	-0.5195722
49	0xbf174be4	-0.59100175
50	0xbe86d20c	-0.26332128
51	0xbf057953	-0.5213825
52	0xbf260b16	-0.64860666
53	0xbed1e543	-0.40995225
54	0x3ece0683	0.40239343
55	0xb9015368	-0.0001233347
56	0x3dd4e636	0.10395472
57	0x3e98e9a7	0.29865763
58	0xbf0b66f5	-0.54453975
59	0x3e6eb3cf	0.23310779
60	0xbc155b0b	-0.009115945
61	0x3eaaf1ab	0.33387503
62	0xbeaede9e	-0.34154218
63	0x3d4ce161	0.050019626
64	0xbe2b661c	-0.1673817
65	0xbed33240	-0.41249275
66	0x3e57bc02	0.21067813
67	0xbea0cc81	-0.31406024
68	0xbf09933b	-0.5374028
69	0x3f001927	0.5003838
70	0x3de3136d	0.110876895
71	0x3edc285d	0.42999545
72	0x3f98c945	1.1936423
73	0x3eb9250f	0.36161086
74	0x3e4c9584	0.1997891
75	0x3e83853e	0.25687593
76	0xbf36439b	-0.7119691
77	0xbdfb909d	-0.12283442
78	0x3f67da92	0.90567887
79	0xbf3f7ab7	-0.74796623
80	0x3eb24313	0.348168
81	0x3e009b38	0.12559211
82	0xbe47d14f	-0.19513439
83	0xbd1b886c	-0.0379719
84	0x3e589b2f	0.21152948
85	0xbf38c7b6	-0.72179735
86	0x3f8a8660	1.0822258
87	0x3e95f890	0.292912
88	0xbe2d0e6f	-0.16900037
89	0x3f594777	0.8487467
90	0x3e72ff81	0.2373028
91	0x3e20495b	0.15652983
92	0x3f456bb9	0.77117497
93	0xbe28b027	-0.16473447
94	0x3dba61d8	0.091006935
95	0xbdc8cd8e	-0.098048314
96	0xbf25c556	-0.64754236
97	0x3e11a763	0.14224009
98	0x3eb45bcc	0.35226285
99	0x3e2ca008	0.16857922
100	0xbe4599a6	-0.19296893
101	0xbf27e5ac	-0.65584826
102	0x3ee31cba	0.44357854
103	0xbea1bb6e	-0.3158831
104	0x3e283726	0.16427287
105	0xbd21fb0d	-0.03954606
106	0xbbef1b88	-0.007296983
107	0x3e6e1e0e	0.23253652
108	0xbf367cc6	-0.7128414
109	0x3f24eab7	0.64420646
110	0xbea3ceb4	-0.3199364
111	0x3e1819d7	0.14853607
112	0xbeb42e77	-0.351917
113	0xbd22ce2a	-0.039747395
114	0x3f06e609	0.52694756
115	0x3edc11f4	0.42982447
116	0x3e9e8151	0.30958036
117	0xbeba7bba	-0.3642252
118	0xbe6adf63	-0.22936778
119	0xbf0af9d8	-0.5428748
120	0xbeb667ff	-0.35626218
121	0xbe849a64	-0.2589904
122	0xbf06ecf3	-0.52705306
123	0x3e040d6f	0.1289575
124	0x3df01f49	0.11724717
125	0xbf5c0ff0	-0.8596182
126	0x3f3cddf5	0.7377618
127	0x3f44543e	0.76691043
128	0xbea4888d	-0.3213543
129	0x3efa62b0	0.48903418
130	0x3f0367f5	0.513305
131	0x3e982218	0.2971351
132	0x3e8e4f55	0.277949
133	0xbe2438e7	-0.16037332
134	0xbee3de65	-0.4450561
135	0xbeb4aec5	-0.3528959
136	0xbe57f4c6	-0.21089467
137	0xbd88a92e	-0.066728935
138	0x3ecf2efe	0.4046554
139	0xbedb1337	-0.42788097
140	0x3ea448ab	0.3208669
141	0xbe819b7d	-0.2531394
142	0x3e5c69a8	0.2152468
143	0xbebe32d7	-0.37148163
144	0x3e2ca35b	0.1685919
145	0x3f2013c0	0.62530136
146	0xbf1129e9	-0.56704575
147	0xbe8365ad	-0.2566351
148	0xbea16d5d	-0.3152875
149	0xbf28154c	-0.65657496
150	0xbeb2a11f	-0.3488855
151	0xbef197bd	-0.4718608
152	0xbf2385d7	-0.638761
153	0xbe457672	-0.19283465
154	0x3d8385b4	0.06421986
155	0xbd8140d0	-0.0631119
156	0x3f215042	0.6301309
157	0x3e854f7f	0.26037213
158	0xbefefeec	-0.49803865
159	0x3e1a251a	0.15053216
160	0xbd935bb2	-0.07195224
161	0xbea7bc39	-0.3276079
162	0x3f77a72d	0.96739465
163	0xbec58ddc	-0.38584793
164	0xbde087fb	-0.10963436
165	0x3f8f8214	1.1211572
166	0xbf4b6c05	-0.794617
167	0xbf4cef7b	-0.8005292
168	0xbeceb7af	-0.40374514
169	0xbda2b552	-0.0794474
170	0xbe8bf8de	-0.27338308
171	0xbf18bc12	-0.5966197
172	0xbea11085	-0.31457916
173	0xbf1ada36	-0.60489213
174	0x3ead95e9	0.33903435
175	0xbcf66894	-0.030079164
176	0x3f44a52d	0.7681454
177	0xbecf1a5d	-0.404498
178	0xbf850649	-1.0392543
179	0xbcb2a53b	-0.021807304
180	0x3dbce3be	0.09223126
181	0x3f34b7a4	0.70592713
182	0x3f0383a8	0.51372766
183	0x3ee3cfc3	0.44494447
184	0xbe31c402	-0.17359927
185	0xbebb88ff	-0.36627957
186	0xbe9cde72	-0.30638462
187	0xbedf284e	-0.43585438
188	0x3db4d0de	0.08828901
189	0xbf50a0f3	-0.8149559
190	0x3f7ca07f	0.986824
191	0x3ec815ae	0.3907904
192	0xbf95caa6	-1.1702468
193	0xbf2be355	-0.67143756
194	0xbe0a1f86	-0.13488588
195	0xbf9b8fcc	-1.2153258
196	0x3d968229	0.07349045
197	0xbd32595b	-0.043542247
198	0xbd8149fd	-0.0631294
199	0xbc386873	-0.011255371
200	0x3e3490f5	0.17633422
201	0x3d1b54e8	0.03792277
202	0xbd37fbea	-0.04491798
203	0xbe808973	-0.25104865
204	0xbf88d1be	-1.0689008
205	0x3ec91603	0.39274606
206	0xbf568abc	-0.8380544
207	0xbea5cbbe	-0.32382005
208	0xbdfead44	-0.124353915
209	0xbed09ca4	-0.40744507
210	0xbe25f288	-0.162058
211	0xbe7f121e	-0.24909255
212	0xbf3a8599	-0.72860104
213	0x3e12b41a	0.14326516
214	0x3ee7252b	0.45145544
215	0x3ea08fc1	0.31359676
216	0x3e9a7db2	0.30174023
217	0xbdbbc607	-0.0916863
218	0xbf1e7789	-0.61901146
219	0x3f1874b6	0.59553087
220	0x3e8d930e	0.27651256
221	0xbdceb541	-0.10093165
222	0xbe3b0cf8	-0.18266666
223	0xbcf0b700	-0.029384136
224	0x3ed7b15d	0.42127505
225	0xbf83a776	-1.028548
226	0x3f038c6e	0.51386154
227	0xbe52228d	-0.20520993
228	0x3c09742e	0.008389516
229	0x3e38f253	0.1806119
230	0x3f04fc92	0.5194789
231	0x3d681854	0.056663826
232	0x3f427f4b	0.75975484
233	0x3f02cd3c	0.5109441
234	0xbde28221	-0.11059976
235	0xbea039f8	-0.31294227
236	0xbe85c657	-0.26127884
237	0x3e70808f	0.23486541
238	0x3eb7ed55	0.35923257
239	0x3e91e802	0.2849732
240	0xbe6cdf75	-0.23132117
241	0xbe0ce632	-0.13759688
242	0xbf0f1316	-0.558885
243	0x3d17d1ec	0.03706543
244	0xbedd0457	-0.43167374
245	0xbe8d6f36	-0.2762391
246	0xbd9fe8ac	-0.078080505
247	0x3c4154b6	0.011799982
248	0x3f7dff76	0.9921793
249	0xbe89d5d6	-0.26920956
250	0x3eb650c8	0.35608506
251	0xbe19951f	-0.14998291
252	0xbf04aa94	-0.5182278
253	0x3e5fe88d	0.21866055
254	0xbea9e92d	-0.33185712
255	0xbe3cbf28	-0.18432295

net.6.bias f4 [20]
0	0xbe1974ab	-0.14985912
1	0x3ea84a9c	0.32869422
2	0x3d6f71aa	0.058458008
3	0xbe3bfe30	-0.18358684
4	0xbc3f9388	-0.011692889
5	0xbe90ebff	-0.2830505
6	0x3e83a35c	0.2571057
7	0x3db3a488	0.08771616
8	0xbc9469ca	-0.01811685
9	0x3e85324c	0.26014936
10	0xbdc5e8e1	-0.09663559
11	0x3d5083ac	0.050906822
12	0x3e1888b8	0.14895904
13	0x3bf6c768	0.0075310953
14	0x3d51fa89	0.05126432
15	0xbe7b4ddb	-0.24541418
16	0x38e1983e	0.000107571934
17	0x3ea3979b	0.31951603
18	0x3dab6b53	0.0837008
19	0x3deb0a46	0.11476569

out_net.0.weight f4 [1, 20]
0	0xbff486c5	-1.9103628
1	0x3fba660e	1.4562395
2	0xbfa8f5d8	-1.3200026
3	0x3fef9c37	1.8719548
4	0x3fca6517	1.58121
5	0xbfb5b410	-1.4195576
6	0x3f4c7339	0.79863316
7	0xbfe5f969	-1.7966739
8	0xbfb93cb2	-1.4471648
9	0x3fb3244b	1.3995451
10	0xbf8fe70b	-1.1242384
11	0x3fdbadcd	1.7162415
12	0x3f8f32c0	1.1187363
13	0x3fdccbcb	1.7249693
14	0xbfed4fdb	-1.8539995
15	0xbfd17fdd	-1.6367146
16	0xbff23a81	-1.8924104
17	0x3fa1d2f5	1.2642504
18	0xc0009001	-2.0087893
19	0x3ff8d46f	1.943983

ini_net.0.weight f4 [20, 2]
0	0x3bad2418	0.0052838437
1	0xbf032f57	-0.5124411
2	0x3e2356d7	0.15951096
3	0xbe931d8a	-0.28733474
4	0x3d052ec5	0.032515306
5	0x3e4e2c2a	0.20134035
6	0xbe84c5a2	-0.25932032
7	0x3d48ba9d	0.049006093
8	0x3e41de76	0.18932518
9	0x3f28af6c	0.6589267
10	0xbeb904dc	-0.3613652
11	0x3f0252ff	0.5090789
12	0x3da1c2eb	0.07898506
13	0x3e90f6c5	0.2831327
14	0xbe00214d	-0.12512703
15	0xbe7c8ed6	-0.24663863
16	0xbed5b2c4	-0.4173795
17	0x3d75009b	0.05981503
18	0x3ea80d1a	0.32822496
19	0xbd41d105	-0.047318477
20	0xbe4cd0a1	-0.2000146
21	0xbd094369	-0.033511553
22	0x3d75db03	0.06002332
23	0xbeca9fb2	-0.39574963
24	0xbebe1954	-0.371287
25	0xbe7c9d9a	-0.24669495
26	0xbe158a02	-0.14603427
27	0x3d9faa01	0.077960975
28	0xbdd75dc1	-0.10515929
29	0x3e82af56	0.25524396
30	0x3edbd98e	0.4293942
31	0xbead88ea	-0.3389352
32	0x3ebdaf13	0.37047634
33	0x3f04150c	0.51594615
34	0x3e0a7bb8	0.13523757
35	0x3ea03ef9	0.31298044
36	0x3ecb7100	0.3973465
37	0x3e3f6a40	0.18692875
38	0xbe751012	-0.23931912
39	0xbe8ffa85	-0.2812082

ini_net.0.bias f4 [20]
0	0x3e4f3555	0.20235188
1	0x3ee1bd53	0.44089755
2	0x3e084555	0.13307698
3	0x3d82351d	0.06357787
4	0xbece91ad	-0.40345517
5	0x3dfabae3	0.12242677
6	0x3edbd9fb	0.42939743
7	0x3e3c6390	0.18397355
8	0x3eb627b3	0.35577163
9	0x3e783f3b	0.2424287
10	0x3d91fe82	0.07128622
11	0xbe90efc3	-0.28307924
12	0xbe0cdf97	-0.13757168
13	0xbe821870	-0.2540927
14	0xbd7c91fc	-0.06166266
15	0x3e2f54a5	0.17122133
16	0x3ea14515	0.31498018
17	0xbe53e6fe	-0.20693585
18	0xbe843c4a	-0.25827247
19	0xbdd0d2bd	-0.10196445

net.0.weight f4 [20, 20]
0	0xbe726aa1	-0.23673488
1	0x3f50e8d0	0.81605244
2	0x3f15249d	0.5825899
3	0x3f35a89a	0.7096039
4	0xbecdebd8	-0.40218997
5	0x3e0aa8f8	0.13541019
6	0x3e641f1d	0.22277494
7	0x3f222a3d	0.633457
8	0xbcf7db9b	-0.030256083
9	0x3f210b56	0.6290792
10	0x3f0e5253	0.55594367
11	0xbd72f172	-0.05931229
12	0xbc8dbf27	-0.017303063
13	0xbde0bc38	-0.109734
14	0x3dbf6280	0.09344959
15	0x3ec7aa3c	0.38997066
16	0xbc7b602f	-0.015342756
17	0xbeb6a43e	-0.35672182
18	0x3f00528e	0.5012597
19	0x3d9ac363	0.07556798
20	0x3eb5f882	0.3554116
21	0x3f015842	0.50525296
22	0x3c03c145	0.0080416845
23	0x3d9d351b	0.07676145
24	0xbd998860	-0.074967146
25	0x3ecc6932	0.39924008
26	0x3e6a3a91	0.22873904
27	0x3f2905ab	0.66024274
28	0x3e3d7901	0.1850319
29	0x3cf05441	0.02933705
30	0xbd481b87	-0.048854377
31	0xbf38c3f6	-0.7217401
32	0xbcb1bcdb	-0.021696499
33	0xbf204daa	-0.62618506
34	0xbebf83ea	-0.3740533
35	0xbde98b0d	-0.11403475
36	0xbc2ab297	-0.010418556
37	0xbf39f19a	-0.7263428
38	0x3d60da25	0.05489554
39	0xbeb4f819	-0.35345533
40	0x3e656a61	0.22403862
41	0xbd51cf8e	-0.05122333
42	0xbe533531	-0.2062576
43	0xbed7f3cb	-0.42178187
44	0x3ee05796	0.43816823
45	0xbe73e83f	-0.23819064
46	0x3e7bc4ca	0.24586788
47	0xbea0ac65	-0.31381527
48	0xbefec330	-0.4975829
49	0xbea54cd6	-0.32285184
50	0xbe4ac5cb	-0.19802015
51	0x3e3a5a5d	0.18198533
52	0x3ecb5b22	0.39717966
53	0x3e85518d	0.2603878
54	0xbd2749b8	-0.040841788
55	0x3d710901	0.058846477
56	0x3d67ea80	0.05662012
57	0x3ef00452	0.46878296
58	0x3edbdf63	0.42943868
59	0xbeff78b7	-0.49896786
60	0x3e2064c9	0.15663446
61	0x3f291f10	0.6606302
62	0x3f0bf8e6	0.54676664
63	0xbd9b379e	-0.075789675
64	0x3e743f37	0.2385224
65	0xbe0ec999	-0.13944091
66	0xbea8ceab	-0.32970175
67	0xbe07c386	-0.1325818
68	0x3f0391f9	0.5139461
69	0x3e89ff9b	0.26952824
70	0x3ebfb83f	0.37445256
71	0xbe748396	-0.23878321
72	0x3e5dd7ae	0.21664307
73	0xbce2b815	-0.027675668
74	0x3de46bd9	0.11153383
75	0xbd0a6265	-0.033785243
76	0x3e56d33a	0.20979014
77	0xbeeff1df	-0.4686422
78	0xbea128fa	-0.31476575
79	0xbc4c2e05	-0.012462144
80	0xbde9956f	-0.11405455
81	0xbf50291c	-0.8131273
82	0xbf16386a	-0.5867983
83	0xbead6de4	-0.33872902
84	0xbd0aeabb	-0.033915263
85	0x3c19d0b0	0.009388134
86	0xbd94a910	-0.072588086
87	0xbd380e2e	-0.044935398
88	0x3eb71e9a	0.35765535
89	0xbf265423	-0.6497213
90	0xbe929464	-0.28628838
91	0xbe89a083	-0.26880273
92	0x3e07eadf	0.1327319
93	0xbeb6efd6	-0.35729855
94	0xbed96487	-0.4245951
95	0xbec2690e	-0.37970775
96	0xbeb649e6	-0.35603255
97	0x3e9d0cdd	0.30673876
98	0xbe851f54	-0.26000464
99	0x3d569274	0.052385762
100	0x3cf150b3	0.029457426
101	0xbe8ed819	-0.27899244
102	0x3d977052	0.0739447
103	0xbd9a0ce7	-0.07521992
104	0x3e951aa7	0.29121897
105	0xbe9e9bce	-0.30978245
106	0x3df6aa05	0.120441474
107	0xbdf661c6	-0.120303676
108	0xbcc4c9ad	-0.024021948
109	0xbd53383c	-0.0515673
110	0x3eba7061	0.36413863
111	0x3e53ee80	0.2069645
112	0x3ece04fd	0.4023818
113	0x3e23de09	0.16002668
114	0x3efbaaa5	0.4915363
115	0xbeb8ab24	-0.3606807
116	0xbf20489d	-0.626108
117	0xbdb7486e	-0.08949362
118	0xbc8072c8	-0.015679732
119	0x3e97ff9b	0.296872
120	0x3cb09d52	0.021559391
121	0xbf0e5a97	-0.5560698
122	0x3e01e150	0.12683606
123	0x3deee32d	0.11664424
124	0x3e0a3d23	0.13499884
125	0xbe232d32	-0.1593521
126	0xbe20db67	-0.15708695
127	0xbebbc523	-0.3667384
128	0xbe6863e7	-0.2269436
129	0xbd940094	-0.07226673
130	0x3e5311ba	0.20612231
131	0x3ebee9d0	0.3728776
132	0xbea7f3c0	-0.32803154
133	0x3e0c4b61	0.1370063
134	0x3edd1ecf	0.43187568
135	0x3df9aa4d	0.121906854
136	0xbec23820	-0.37933445
137	0x3e0e903b	0.13922207
138	0xbe7955f1	-0.2434919
139	0xbce86505	-0.028368482
140	0x3d4e84b1	0.050419513
141	0x3f0a98b0	0.5413923
142	0x3eb71f79	0.357662
143	0xbe0aef54	-0.13567859
144	0xbcdc48c7	-0.026890172
145	0x3ad8515f	0.0016503743
146	0xbe6d8c27	-0.23197995
147	0x3f478d3d	0.7794989
148	0xbd944707	-0.0724011
149	0xbe7d0e44	-0.24712473
150	0x3ecbf254	0.3983332
151	0xbef71a39	-0.48262194
152	0x3eba2be5	0.36361614
153	0x3d7ee9f0	0.06223482
154	0xbe8e522d	-0.2779707
155	0x3ea74515	0.32669893
156	0x3e48577c	0.19564623
157	0xbe81337a	-0.25234586
158	0xbefad7c0	-0.4899273
159	0xbe635774	-0.2220133
160	0x3cf1a252	0.029496346
161	0xbee9ff64	-0.4570266
162	0x3de0b4d9	0.10971994
163	0x3e800bf2	0.25009114
164	0x3dfbd4cd	0.12296448
165	0xbe91bc89	-0.28464153
166	0xbd7b3f1a	-0.061339475
167	0xbecd06e7	-0.4004433
168	0xbe18c8cd	-0.1492035
169	0xbe7e14f2	-0.24812678
170	0xbdebfa55	-0.115223564
171	0x3f1cc1fd	0.612335
172	0x3e7059dd	0.2347178
173	0x3e885a6b	0.26631483
174	0x3ed702e1	0.41994384
175	0x3e30023e	0.17188355
176	0xbd9ae17a	-0.075625375
177	0x3e44d89b	0.19223253
178	0xbda3a915	-0.07991234
179	0xbd47dc37	-0.048793998
180	0xbeb6c6ec	-0.3569864
181	0xbe7e6436	-0.24842915
182	0x3e93c1c4	0.2885877
183	0x3f15ddcb	0.58541554
184	0xbe9de1de	-0.30836385
185	0x3e1f2593	0.15541677
186	0x3ede4d6e	0.4341845
187	0x3ebc1ee0	0.36742306
188	0x3f20b6d8	0.62779
189	0x3ee7dcef	0.45285746
190	0x3e4789cc	0.19486159
191	0xbedcdd93	-0.43137798
192	0xbc4fa98d	-0.012674701
193	0x3e549c4b	0.20762746
194	0xbdd9e6db	-0.10639735
195	0x3df3ab86	0.1189795
196	0xbe423701	-0.18966295
197	0x3cd42bed	0.025899852
198	0x3e99a9ea	0.30012447
199	0xbea1b609	-0.31584194
200	0xbe83ff0e	-0.2578053
201	0x3e495843	0.19662575
202	0xbd4566c4	-0.048193708
203	0xbe532fde	-0.20623729
204	0xbda64fb7	-0.08120673
205	0xbe91be7c	-0.2846564
206	0xbea36de6	-0.31919783
207	0xbdcbe7de	-0.099563345
208	0xbe5eefb2	-0.21771124
209	0xbeca2f39	-0.39489153
210	0x3e4e0ce7	0.2012211
211	0xbeb78c5a	-0.35849267
212	0x3dc76fa7	0.09738093
213	0x3eefb29d	0.4681596
214	0x3db96b86	0.090537116
215	0xbea0e291	-0.31422856
216	0xbde87a8a	-0.113514975
217	0xbe643152	-0.22284439
218	0xbe46ad8e	-0.19402143
219	0x3f0d1832	0.55115044
220	0xbe130315	-0.14356644
221	0xbefae342	-0.4900151
222	0x3efe34bf	0.49649617
223	0x3d7a1d1b	0.061062913
224	0x3e0b4777	0.1360148
225	0x3ec8e30a	0.39235717
226	0xbd8614fb	-0.065469705
227	0x3f10e326	0.565966
228	0xbd33ee07	-0.043928172
229	0x3f006033	0.5014679
230	0x3e1437fe	0.14474484
231	0xbf29e319	-0.6636215
232	0x3ce22d7b	0.027609577
233	0xbdd5c878	-0.10438627
234	0xbe9b2492	-0.30301338
235	0x3e8a1f54	0.26977026
236	0x3ee9b62c	0.456468
237	0xbe026908	-0.12735379
238	0xbf10cca1	-0.5656224
239	0xbf3d1532	-0.73860466
240	0xbecb37a6	-0.39690894
241	0xbe8b892c	-0.2725309
242	0xbdca8c67	-0.09890061
243	0x3ec17873	0.37787208
244	0xbe6398ef	-0.22226308
245	0xbf0d2ebd	-0.5514944
246	0x3c9dbec1	0.019255998
247	0x3e2dced5	0.16973431
248	0xbe3f5564	-0.18684918
249	0xbe4a1bf8	-0.19737232
250	0x3e18ff52	0.14941147
251	0x3f18df0e	0.59715354
252	0xbe425ae8	-0.1897999
253	0x3f10d29b	0.5657136
254	0x3e662aad	0.22477217
255	0xbe0ffcd3	-0.14061289

net.0.bias f4 [20]
0	0x3c2824fa	0.010262722
1	0x3ec42005	0.3830568
2	0x3df06a5a	0.11739035
3	0xbc404b02	-0.011736633
4	0x3dd24e61	0.10268856
5	0xbda51df2	-0.08062352
6	0x3e7f2a56	0.24918494
7	0xba888136	-0.0010414484
8	0xbd8a650d	-0.06757555
9	0xbdabedc3	-0.08394959
10	0xbdcaa638	-0.09894985
11	0xbdc8f252	-0.09811844
12	0x3da9547e	0.08268069
13	0x3eb04c20	0.3443308
14	0x3d004c42	0.031322725
15	0x3d72b901	0.059258465
16	0xbdc59cf1	-0.09649075
17	0xbdb06724	-0.086134225
18	0x3ded51e3	0.11587884
19	0x3c25c88f	0.010118618

net.2.weight f4 [20, 20]
0	0xbd02a52b	-0.031895798
1	0xbe0e233c	-0.13880628
2	0x3ea1d9b6	0.31611413
3	0xbe92a181	-0.28638843
4	0xbe577e99	-0.21044387
5	0xbe8dbdd3	-0.27683887
6	0xbe4f6200	-0.20252228
7	0xbdb6dcff	-0.089288704
8	0xbdc35484	-0.095376045
9	0xbed1a932	-0.40949398
10	0x3e3cc36f	0.18433927
11	0xbe3abeb5	-0.18236811
12	0xbe170a25	-0.14749964
13	0xbef060c1	-0.46948817
14	0xbe6884af	-0.22706865
15	0x3ec7ee76	0.3904912
16	0xbf17f903	-0.59364337
17	0xbea62745	-0.32451835
18	0x3e36698e	0.17813703
19	0x3de13284	0.10995963
20	0xbec23b78	-0.37935996
21	0xbf865e91	-1.0497609
22	0x3f51301e	0.81714046
23	0xbe63871e	-0.22219512
24	0x3ec573fd	0.38565055
25	0x3f6313a5	0.8870185
26	0xbf2fbb36	-0.68645036
27	0xbe9729f4	-0.29524195
28	0x3f0f1add	0.55900365
29	0xbed17a14	-0.4091345
30	0x3f9278cb	1.1443113
31	0xbea2afe1	-0.3177481
32	0x3f066f1e	0.525133
33	0xbec76763	-0.38946065
34	0xbf783731	-0.96959215
35	0xbf42bc2f	-0.76068395
36	0xbe9fcb9f	-0.31210038
37	0xbf405fe6	-0.7514633
38	0x3eb14ad5	0.34627405
39	0xbf1a5ef8	-0.6030116
40	0x3ee54df7	0.44786045
41	0x3eaecb53	0.341395
42	0xbec2a862	-0.3801909
43	0x3e11db15	0.1424373
44	0xbe30883e	-0.17239472
45	0xbf011450	-0.5042162
46	0x3ef43d01	0.47702792
47	0x3f06fb76	0.5272745
48	0xbf005668	-0.50131845
49	0x3f7c19c1	0.984768
50	0xbecae6d8	-0.39629245
51	0x3f26aa9a	0.6510407
52	0x3c7c5796	0.0154017415
53	0x3f3efef4	0.7460778
54	0xbd7012b9	-0.058611605
55	0x3f013654	0.50473523
56	0x3f747db5	0.95504314
57	0x3e340d20	0.17583132
58	0xbe3ac4d9	-0.18239154
59	0x3e6fa031	0.23400952
60	0x3e9ad10e	0.3023762
61	0xbc2dea9f	-0.01061502
62	0xbdf91a54	-0.12163225
63	0x3e814239	0.25245836
64	0xbe77c6b6	-0.24196896
65	0x3f4ae078	0.7924876
66	0xbd933c06	-0.07189183
67	0xbed0eb81	-0.40804675
68	0x3b4a5eee	0.0030879336
69	0x3e0a2325	0.13489969
70	0x3e2fc2e3	0.17164187
71	0xbf3cd76b	-0.737662
72	0x3eaef106	0.3416826
73	0xbd4d7962	-0.050164588
74	0xbe54876c	-0.20754784
75	0xbf07454c	-0.52840114
76	0xbef248ef	-0.4732127
77	0xbeba8d54	-0.3643595
78	0x3e907133	0.28211364
79	0x3de62c07	0.11238866
80	0xbe0d0ef7	-0.1377524
81	0x3ed5c787	0.4175379
82	0x3ec1999e	0.37812513
83	0xbf1e8313	-0.61918753
84	0x3e1fb72b	0.15597217
85	0xbdb4798f	-0.08812248
86	0x3f02cf54	0.5109761
87	0xbe04bf04	-0.12963492
88	0xbe942730	-0.28936148
89	0xbf0d6381	-0.55229956
90	0x3ee71c27	0.45138666
91	0x3d4a2c11	0.04935843
92	0xbe1f1722	-0.15536168
93	0xbf1eda0c	-0.62051463
94	0xbcf7e09f	-0.030258475
95	0x3e617bfe	0.22019956
96	0x3e2088bb	0.15677159
97	0xbea6832a	-0.32521945
98	0xbe182e13	-0.14861326
99	0xbf2925a4	-0.6607306
100	0x3f13cd3c	0.5773504
101	0x3f156b38	0.5836673
102	0xbf10e73e	-0.5660285
103	0x3f12b957	0.57314056
104	0x3b23695c	0.0024934625
105	0xbf77270a	-0.96543944
106	0xbec1f0ab	-0.37878928
107	0x3ef3603e	0.47534364
108	0xbc434506	-0.011918312
109	0x3ede7256	0.43446606
110	0xbeeb6350	-0.45974207
111	0x3f89f116	1.0776699
112	0xbed2f14c	-0.4119972
113	0x3e8a6908	0.27033257
114	0x3f064eae	0.52463806
115	0x3deeeb63	0.1166599
116	0x3ea06c9f	0.3133287
117	0x3dc03a0d	0.09386072
118	0xbf2acd48	-0.66719484
119	0x3f313bb8	0.6923175
120	0x3f517873	0.81824416
121	0xbd1ae3f5	-0.037815053
122	0x3ebd741b	0.37002644
123	0xbea9d6d6	-0.3317172
124	0xbec09031	-0.3761001
125	0xbed2bb5c	-0.4115857
126	0x3dd1867a	0.102307275
127	0x3e887976	0.26655167
128	0x3f11edaf	0.570033
129	0x3ebf9044	0.37414753
130	0xbe8f64d9	-0.28006628
131	0x3f0d9f1e	0.5532092
132	0x3e8377e4	0.25677407
133	0x3e338c8f	0.17534088
134	0x3e3d027f	0.18457983
135	0xbd01ed98	-0.031720728
136	0xbe5327ed	-0.20620699
137	0xbe877988	-0.26459908
138	0x3e5107bb	0.20413105
139	0x3f461cc8	0.77387667
140	0x3e2a3b51	0.1662419
141	0xbed55593	-0.4166685
142	0xbebeb556	-0.37247723
143	0xbdabc3b9	-0.083869405
144	0xbe55e3c1	-0.20887662
145	0xbe3cb211	-0.18427302
146	0xbd0d0264	-0.034426108
147	0x3ed7b3e5	0.42129436
148	0x3ed297fa	0.41131574
149	0x3e31adb8	0.17351425
150	0x3dfaf9e7	0.12254696
151	0x3d925bda	0.071464255
152	0x3ee6e8a2	0.4509936
153	0x3df8fcc9	0.1215759
154	0x3ebaa76c	0.36455858
155	0xbd230b98	-0.03980598
156	0x3d71b3e8	0.059009463
157	0x3d3c4d8a	0.045972385
158	0xbe3b995d	-0.18320222
159	0x3f363ce9	0.7118669
160	0x3eb4eb4b	0.35335764
161	0x3f216f10	0.6306009
162	0xbf4dd01a	-0.8039566
163	0x3e8dde79	0.27708796
164	0x3d9adac4	0.075612575
165	0xbf0f3cbd	-0.55952054
166	0xbdb1120d	-0.08646021
167	0x3f131846	0.57458913
168	0xbc435f7e	-0.011924623
169	0x3dcbab19	0.09944744
170	0xbec7d93a	-0.39032918
171	0x3f5a4357	0.85259
172	0x3d8fb183	0.070162795
173	0xbdd6cf62	-0.10488774
174	0x3e2e1e23	0.17003684
175	0x3e852ee1	0.26012328
176	0x3f1c06ff	0.60948175
177	0x3f0c59b1	0.5482436
178	0xbf441840	-0.765995
179	0x3f0d11eb	0.55105466
180	0x3c507706	0.01272369
181	0x3dea16eb	0.114301525
182	0x3d28c1e7	0.041200545
183	0x3e00bcae	0.12571976
184	0xbddf6268	-0.109074414
185	0x3f189684	0.5960467
186	0x3e909eb0	0.2824607
187	0xbbfff15c	-0.0078107547
188	0x3f0aae28	0.5417199
189	0xbea1e63b	-0.31620964
190	0x3d82af7a	0.06381126
191	0xbf02441a	-0.50885165
192	0xbe5b44e8	-0.21413004
193	0xbf013418	-0.50470114
194	0x3e697d1e	0.22801635
195	0xbe5789b4	-0.21048623
196	0xbeb231bb	-0.34803566
197	0x3e1a7159	0.15082301
198	0x3f11854f	0.5684404
199	0x3db61bbf	0.08892011
200	0xbe977989	-0.2958491
201	0x3e2564d5	0.16151746
202	0x3e8d413e	0.27588838
203	0x3e7ad799	0.24496306
204	0x3ed25bd8	0.41085696
205	0x3ee45fe5	0.44604412
206	0xbe6acadc	-0.22928947
207	0x3e25443c	0.1613931
208	0x3ed79467	0.4210541
209	0x3e9c8cbe	0.30576128
210	0x3e75daa5	0.24009188
211	0xbea0af32	-0.31383663
212	0x3e5b7c89	0.21434225
213	0xbc8c1855	-0.017101446
214	0x3e9afaf5	0.3026959
215	0xbe8e418c	-0.27784383
216	0xbd9ee740	-0.07758951
217	0x3e02e21d	0.12781568
218	0xbe92ad4a	-0.28647834
219	0xbf07b993	-0.5301754
220	0xbda20abb	-0.07912203
221	0xbe96564e	-0.2936272
222	0x3e0d16b7	0.13778196
223	0x3e14c8a7	0.14529668
224	0xbec0741f	-0.37588593
225	0xbd9f2431	-0.07770575
226	0x3e27020d	0.16309376
227	0x3edc54bc	0.43033397
228	0x3cecf580	0.028925657
229	0x3d90d967	0.07072716
230	0xbe707ac1	-0.23484327
231	0xbf1137ac	-0.56725574
232	0x3ba98cf0	0.0051742718
233	0x3eaded31	0.33970025
234	0xbe01f2bb	-0.1269025
235	0x3e2ce589	0.16884436
236	0xbe61c2b2	-0.22046927
237	0xbd17f703	-0.037100803
238	0x3d146f75	0.036239106
239	0x3d33c7aa	0.043891586
240	0x3e856333	0.26052245
241	0xbe88ad44	-0.2669469
242	0xbe808b13	-0.25106105
243	0xbdd42906	-0.10359387
244	0xbed70e14	-0.42002928
245	0x3c7cba49	0.015425273
246	0xbefdd154	-0.49573767
247	0x3e3d7399	0.18501128
248	0x3d4e9303	0.05043317
249	0xbe339ab8	-0.1753949
250	0x3d29d189	0.041459594
251	0x3e6f2070	0.23352218
252	0x3c3eb59d	0.01163998
253	0xbe85634e	-0.26052326
254	0xbe2eeb8c	-0.17082042
255	0xbdd52988	-0.10408312

net.2.bias f4 [20]
0	0x3e80bf1c	0.25145805
1	0xbf15c67e	-0.58506
2	0xbc8e866a	-0.017398078
3	0x3e27225a	0.16321698
4	0x3ec22e65	0.3792602
5	0x3ea0a4a3	0.31375608
6	0x3e628d74	0.22124273
7	0xbe2cf453	-0.16890077
8	0xbd80ed28	-0.06295234
9	0x3edda705	0.43291488
10	0x3e1739f6	0.14768204
11	0xbe2bee70	-0.16790175
12	0x3dc55b72	0.096365824
13	0x3d1597c4	0.036521688
14	0xbe84588a	-0.258488
15	0xbe3d6256	-0.18494543
16	0xbd796e1f	-0.060896035
17	0xbf2918de	-0.6605357
18	0xbe9882b0	-0.29787207
19	0x3ebcadf7	0.36851475
