checkpoints/best_model_v1_New.pth (torch, 105175 bytes, 99 tensors)

ini_net.0.weight f4 [20, 2]
0	0xbdabfa6c	-0.083973736
1	0x3e77f9aa	0.24216333
2	0x3e8d9269	0.27650765
3	0x3eaa53ea	0.33267146
4	0x3e7db8b9	0.24777497
5	0xbdb72bc1	-0.08943892
6	0x3f0879ba	0.5331074
7	0x3eee1bfd	0.46505728
8	0xbf09d1e5	-0.538359
9	0x3f1d7942	0.6151315
10	0xbeb09333	-0.34487304
11	0x3d0b8b0f	0.034068163
12	0xbf1b6803	-0.60705584
13	0xbef9bbc3	-0.48776063
14	0xbd9745ed	-0.07386384
15	0xbd23a1e6	-0.03994932
16	0xbc8a5d2f	-0.016890137
17	0xbee5d352	-0.44887787
18	0x3ed18af5	0.40926328
19	0x3e8f6b73	0.28011665
20	0xbe59475d	-0.21218629
21	0xbea60281	-0.32423785
22	0xbd97d3e4	-0.07413462
23	0x3e69eb61	0.22843696
24	0xbed380ad	-0.4130911
25	0x3f348c42	0.70526516
26	0x3f2e63e5	0.68121177
27	0x3d32bada	0.043635227
28	0x3e1ed0cf	0.15509342
29	0x3f05a2ac	0.5220134
30	0xbcdf80a7	-0.027283026
31	0x3e787cf5	0.24266417
32	0x3e4cd1a1	0.20001842
33	0x3ea1f77d	0.3163413
34	0xbe7975e3	-0.24361376
35	0x3edd1c96	0.43185872
36	0x3eb0f866	0.34564513
37	0xbe92fa44	-0.28706563
38	0x3e90dbc7	0.28292677
39	0xbe3f9252	-0.1870816

ini_net.0.bias f4 [20]
0	0xbe0ee386	-0.13953981
1	0x3ece8d0d	0.40341988
2	0xbe00ad71	-0.12566163
3	0xbee16802	-0.44024664
4	0xbf170adf	-0.5900096
5	0x3ebcd785	0.36883178
6	0x3eb56a4d	0.35432664
7	0x3ea0f0e4	0.31433785
8	0x3f0d7f39	0.5527225
9	0x3eb43b52	0.35201508
10	0x3eda6222	0.42652994
11	0xbe86400f	-0.26220748
12	0x3e03fb6a	0.12888876
13	0x3ecf34e8	0.40470052
14	0xbca25051	-0.019813688
15	0xbe903557	-0.28165695
16	0x3ed1b1c3	0.40955934
17	0x3eab4f12	0.33458763
18	0xbeee191e	-0.46503538
19	0x3d930f3c	0.0718064

net.0.weight f4 [20, 20]
0	0xbde4a2e0	-0.111638784
1	0xbca0c0ad	-0.019623125
2	0x3f19e844	0.60120034
3	0xbdbaed2c	-0.09127268
4	0xbf2b93a0	-0.6702213
5	0x3db7117f	0.08938884
6	0x3e5b901a	0.21441689
7	0x3f0ac4e1	0.54206663
8	0x3efcda4d	0.493853
9	0x3f64f8e6	0.8944229
10	0x3e7c0b3a	0.24613658
11	0xbede1753	-0.4337717
12	0xbd83f3c5	-0.0644298
13	0x3f64c5af	0.8936414
14	0xbe0b7b5b	-0.13621275
15	0xbeeacb4d	-0.4585823
16	0x3f389f66	0.7211822
17	0x3f1db97d	0.6161116
18	0xbee85902	-0.45380408
19	0x3f011078	0.50415754
20	0xbe79d951	-0.24399306
21	0x3ecde7b8	0.4021585
22	0x3e8dcd0e	0.27695507
23	0x3e30add5	0.17253812
24	0xbe13326c	-0.14374703
25	0x3eefb0a0	0.46814442
26	0x3ee33468	0.4437592
27	0x3cfb8370	0.030702323
28	0x3f22a03e	0.6352576
29	0xbcf26928	-0.029591158
30	0x3d9f2e30	0.077724814
31	0xbe2e4999	-0.17020263
32	0xbd36e6d0	-0.044653714
33	0x3ea2f809	0.3182986
34	0x3e607f11	0.21923472
35	0xbe9d77f0	-0.30755568
36	0x3b61f7b4	0.0034479918
37	0x3dbc651d	0.09198973
38	0xbf197775	-0.599479
39	0xbd269961	-0.040673617
40	0x3f232e1e	0.63742244
41	0x3e8388fc	0.25690448
42	0xbe461d89	-0.19347204
43	0x3f1e33ac	0.61797595
44	0x3eb94739	0.3618715
45	0x3db3a189	0.08771045
46	0xbf084987	-0.53237194
47	0xbf3475db	-0.70492333
48	0x3e610509	0.21974577
49	0xbeb50ad6	-0.3535983
50	0xbda564af	-0.080758445
51	0x3f45d471	0.77277285
52	0x3e9a95eb	0.30192503
53	0x3e8b811f	0.2724695
54	0x3e94c47e	0.29056162
55	0xbe02b854	-0.12765628
56	0xbe51dc8e	-0.20494291
57	0xbe4106ec	-0.18850297
58	0xbf18ed90	-0.5973749
59	0x3ecf7a15	0.4052283
60	0x3d1cfdc7	0.03832796
61	0x3efadd1c	0.48996818
62	0x3ea936b4	0.33049548
63	0xbe981dac	-0.29710138
64	0xbd518b8d	-0.051158477
65	0x3ec646ec	0.38725984
66	0x3e93f556	0.28898114
67	0x3eb250f8	0.348274
68	0xbd84b9b5	-0.06480733
69	0xbec26234	-0.37965548
70	0x3f1a243c	0.6021154
71	0xbd00a6f7	-0.03140923
72	0xbeff8bbc	-0.49911296
73	0x3f0d02dc	0.5508249
74	0xbd5b4f6a	-0.053542532
75	0xbe88f534	-0.26749575
76	0x3e515474	0.20442373
77	0x3e745e66	0.23864135
78	0xbe2ce28d	-0.16883297
79	0xbf0b3857	-0.5438284
80	0xbdc3cb54	-0.09560266
81	0xbceb18ad	-0.02869829
82	0xbecaa339	-0.39577654
83	0x3e3371b2	0.1752384
84	0x3c5e411c	0.013565328
85	0xbf22a8f6	-0.63539064
86	0xbe3ccef7	-0.18438326
87	0x3ec1eea7	0.3787739
88	0xbf393ed2	-0.7236148
89	0x3e15596e	0.14584896
90	0xbd952ded	-0.0728415
91	0xbed49ab9	-0.41524294
92	0xbf0ae4f2	-0.5425559
93	0xbe86616d	-0.26246205
94	0xbe9c2c06	-0.30502337
95	0x3d9834fd	0.07431982
96	0xbe96c608	-0.2944796
97	0xbe060e51	-0.13091399
98	0x3e43e72b	0.19131152
99	0x3e6e60a0	0.23279047
100	0xbefdfad0	-0.49605417
101	0xbef513cb	-0.47866663
102	0x3eb78d67	0.3585007
103	0xbe3d8146	-0.18506345
104	0x3d5fd644	0.0546477
105	0xbeb585de	-0.35453695
106	0xbe238230	-0.15967631
107	0xbdd12e0a	-0.102138594
108	0xbe4bc48a	-0.19899192
109	0xbf3dd55b	-0.7415368
110	0xbf0fd37c	-0.56182075
111	0x3e0838c1	0.133029
112	0x3f18f9b3	0.5975601
113	0xbe80fe72	-0.25194126
114	0x3ed7f809	0.42181423
115	0xbee8fe0f	-0.4550633
116	0xbd7d2f41	-0.061812643
117	0xbea68fe5	-0.32531658
118	0x3ea8a252	0.3293634
119	0x3ef68c3c	0.48153865
120	0xbe2b3c44	-0.16722208
121	0x3e358e6e	0.17730114
122	0xbea06b35	-0.31331792
123	0xbf228b17	-0.63493484
124	0xbe809e48	-0.2512076
125	0x3eb033d7	0.3441455
126	0x3ef7a32c	0.48366678
127	0x3e7d19c9	0.24716868
128	0x3db2b045	0.08725027
129	0x3edfceef	0.43712565
130	0x3ed8b9ac	0.42329156
131	0xbef87089	-0.48523358
132	0x3dcacc69	0.099022694
133	0x3f09d23f	0.53836435
134	0x3d755431	0.059894744
135	0xbf12ba4e	-0.5731553
136	0x3eb473ff	0.35244748
137	0x3e866fab	0.2625707
138	0xbf2c2bc1	-0.67254263
139	0x3e44422e	0.1916587
140	0x3ef55dbd	0.4792308
141	0xba8275ba	-0.0009953298
142	0xbe5aa70d	-0.21352787
143	0xbedc5e64	-0.43040764
144	0x3d74f36b	0.059802454
145	0x3d940b49	0.07228715
146	0x3eedbfc0	0.46435356
147	0x3e542f95	0.20721276
148	0x3e1b0ae8	0.15140879
149	0x3eab1992	0.33417946
150	0x3f2eac89	0.6823202
151	0x3e0f9c19	0.1402439
152	0xbe491735	-0.19637759
153	0x3f184d6c	0.59493136
154	0xbea49741	-0.32146648
155	0x3c68d31b	0.014210488
156	0xbe955410	-0.29165697
157	0x3f2717d8	0.6527076
158	0x3e07a589	0.1324674
159	0xbd8a0898	-0.067399204
160	0xbe16a5ca	-0.14711681
161	0xbf38d227	-0.7219567
162	0xbd9a7492	-0.07541765
163	0xbe3deb66	-0.18546829
164	0x3ecc676f	0.39922664
165	0xbf1a0cd1	-0.60175806
166	0xbd900686	-0.07032494
167	0xbf1f4a05	-0.6222232
168	0x3d62a13d	0.05532955
169	0xbe5492f3	-0.20759182
170	0x3dd66a53	0.104694985
171	0x3d496db5	0.04917689
172	0xbe36d3af	-0.17854188
173	0xbe4cc6fe	-0.19997784
174	0x3db4a4a3	0.088204645
175	0x3e3fe8ad	0.18741103
176	0xbf7017f3	-0.93786544
177	0xbefab51e	-0.48966306
178	0x3f03cae5	0.5148147
179	0x3eed5029	0.4635022
180	0xbf1d5f13	-0.61473197
181	0x3e225e80	0.15856361
182	0x3e909f80	0.2824669
183	0x3ea203cc	0.31643522
184	0x3eafc0a0	0.3432665
185	0xbe97a970	-0.29621458
186	0x3ebde227	0.37086603
187	0x3ebddce0	0.37082577
188	0xbe0cdca6	-0.13756046
189	0xbe26b8c8	-0.16281426
190	0x3ec027ef	0.37530467
191	0x3d84928e	0.064732656
192	0x3e512cff	0.20427321
193	0x3ccd2f41	0.025046946
194	0x3eaad8f2	0.3336864
195	0xbe97d888	-0.29657388
196	0x3e37a1fa	0.17932883
197	0xbe4c65ed	-0.19960757
198	0xbd4ee78f	-0.0505138
199	0xbf2f9b9a	-0.68596804
200	0xbdb7beac	-0.08971915
201	0x3d919977	0.07109349
202	0xbe94ff67	-0.29101107
203	0x3dc42c21	0.095787294
204	0x3eba7954	0.3642069
205	0xbf0130ca	-0.5046507
206	0xbedded1a	-0.43344957
207	0xbe9b4a70	-0.3033023
208	0xbf3cfbbc	-0.73821616
209	0xbf1ba12b	-0.607928
210	0xbe02f695	-0.12789376
211	0x3d8b1f23	0.06793048
212	0xbea8a5c4	-0.3293897
213	0xbe3b5a50	-0.1829617
214	0x3f01fb33	0.50773925
215	0xbee172c4	-0.44032872
216	0xbd5288a9	-0.05139986
217	0xbdc4212c	-0.095766395
218	0x3f29a3b3	0.6626541
219	0x3ea9d3a4	0.3316928
220	0xbe750f39	-0.23931588
221	0x3e2e528f	0.17023681
222	0x3e9dae38	0.3079698
223	0x3e2114f7	0.15730654
224	0xbf030c17	-0.5119032
225	0x3e83634f	0.25661704
226	0xbdc64079	-0.09680266
227	0x3ef30dc6	0.47471446
228	0xbe0c8824	-0.13723809
229	0x3f12125b	0.5705926
230	0x3e9eaa8b	0.3098949
231	0xbeb6e1cc	-0.35719144
232	0xbc278f51	-0.01022704
233	0xbd4e04f3	-0.05029769
234	0xbdabcc32	-0.083885565
235	0xbdfa2c54	-0.12215486
236	0x3ef68de2	0.48155123
237	0xbf114e93	-0.5676052
238	0x3ea006b9	0.3125513
239	0x3d713e80	0.058897495
240	0x3ddd72a0	0.108128786
241	0xbe41c906	-0.1892434
242	0xbf232096	-0.637216
243	0x3e1ea445	0.15492351
244	0x3db4028f	0.087895505
245	0xbe5f20d1	-0.21789862
246	0x3e2d0042	0.1689463
247	0x3e381275	0.17975791
248	0x3ec507e1	0.38482574
249	0xbf1581c4	-0.5840113
250	0x3e8349c4	0.25642216
251	0x3d83b3ef	0.06430804
252	0xbf04ebae	-0.5192212
253	0xbf14f1c2	-0.58181393
254	0xbf07cbb8	-0.53045225
255	0x3e65a316	0.22425494

net.0.bias f4 [20]
0	0x3ed3ee3a	0.4139269
1	0xbe94436a	-0.28957683
2	0x3e4332c0	0.19062328
3	0xbde25af4	-0.11052504
4	0x3eabbf09	0.33544186
5	0x3e70a21f	0.23499344
6	0xbdcf62bb	-0.10126253
7	0x3ebb4bbc	0.36581218
8	0x3da3521d	0.07974646
9	0x3ec3bf61	0.38231948
10	0xbe8b5dc3	-0.27219972
11	0xbe633ff1	-0.2219236
12	0x3dbdd26b	0.0926865
13	0xbd041cde	-0.032254092
14	0xbe31f0c6	-0.17377004
15	0x3e1b4ee7	0.15166818
16	0xbdd156e1	-0.10221649
17	0xbe5bafd4	-0.21453792
18	0x3e863f40	0.2622013
19	0x3f027d5d	0.5097254

net.2.weight f4 [20, 20]
0	0x3f11eb71	0.5699988
1	0x3d849090	0.064728856
2	0x3ec9a02f	0.39380023
3	0x3e20d6f1	0.15706994
4	0x3f019dd4	0.5063145
5	0x3f272dce	0.6530427
6	0xbf3bc2dc	-0.73344207
7	0x3e805ac4	0.2506925
8	0x3e2a5c7e	0.16636845
9	0xbd5e5902	-0.054284103
10	0x3d81868e	0.063244924
11	0xbe8b0b18	-0.271569
12	0xbe86f357	-0.2635753
13	0xbf1a24ca	-0.60212386
14	0x3d06d2ee	0.032916002
15	0x3c48ea69	0.012262919
16	0xbed39c2d	-0.4133009
17	0xbf010f36	-0.50413835
18	0x3e066198	0.13123167
19	0xbd9af9d6	-0.07567184
20	0xbf35eb20	-0.710619
21	0xbed874a4	-0.4227649
22	0xbdb803e8	-0.0898512
23	0x3eecdbeb	0.46261534
24	0x3f668ab2	0.9005538
25	0x3f14b79c	0.58092666
26	0xbf2b4126	-0.66896284
27	0xbf272704	-0.6529391
28	0x3ea7e969	0.32795265
29	0xbed032c5	-0.40663734
30	0x3edc05c0	0.42973137
31	0xbf2ebff6	-0.6826166
32	0x3e9835fe	0.29728693
33	0xbf3b89c2	-0.73257077
34	0xbf43dfc7	-0.7651333
35	0xbf2612fe	-0.6487273
36	0xbf5dd437	-0.8665194
37	0xbe2a3471	-0.16621567
38	0x3dfd6330	0.12372434
39	0xbf6dbd36	-0.9286684
40	0xbd02b6ba	-0.031912543
41	0x3ef0f8b7	0.47064754
42	0xbedaa3c5	-0.4270307
43	0x3ea8fbf3	0.33004722
44	0xbe3d13cb	-0.18464582
45	0x3ec5d5db	0.3863972
46	0xbe0a5c2e	-0.13511726
47	0x3de34128	0.11096412
48	0x3ea9786e	0.33099693
49	0xbe0e466e	-0.13894054
50	0x3f16c224	0.58889985
51	0xbdd079e5	-0.101794995
52	0xbeb4d6ca	-0.3532012
53	0x3d47c5cd	0.048772622
54	0x3f0e7e65	0.5566161
55	0xbe969158	-0.29407763
56	0x3f530461	0.82428557
57	0xbdfe358c	-0.12412557
58	0xbf06c8ab	-0.52649945
59	0xbf1dffbb	-0.6171834
60	0x3de4afa2	0.11166312
61	0xbce29ddc	-0.027663164
62	0x3f22bc43	0.63568515
63	0xbe6c6132	-0.23083952
64	0x3e1f9f18	0.15588033
65	0x3e85c829	0.26129273
66	0x3ee635fe	0.44963068
67	0xbea8cbc3	-0.32967958
68	0x3f05021c	0.51956344
69	0xbf10f3b0	-0.5662184
70	0xbe50f5f0	-0.20406318
71	0xbe16b710	-0.1471827
72	0x3eabdad0	0.33565378
73	0xbe1b7c29	-0.15184082
74	0xbe79276b	-0.24331443
75	0x3e4ada4c	0.19809836
76	0xbdf181ee	-0.1179236
77	0xbdcc56d9	-0.099775024
78	0xbe83d4c4	-0.25748265
79	0xbed584be	-0.41702837
80	0x3ee2d69a	0.44304353
81	0x3d4de678	0.05026862
82	0x3e1a630e	0.15076849
83	0x3ef4c039	0.47802904
84	0xbf3edcf0	-0.74555874
85	0x3e04991b	0.1294903
86	0x3e3f71c7	0.18695746
87	0x3db4ae47	0.08822303
88	0xbea15161	-0.315074
89	0xbf226251	-0.6343127
90	0xbe5a994c	-0.2134754
91	0x3d88eb3a	0.06685491
92	0x3d73cf6d	0.05952399
93	0x3e112010	0.14172387
94	0x3d862e85	0.06551842
95	0x3ef5b5d0	0.47990274
96	0x3e935e5f	0.28782937
97	0xbe0a79d3	-0.13523035
98	0xbf320292	-0.6953517
99	0xbee7d422	-0.45279032
100	0x3e9ef223	0.3104411
101	0x3ea9ff66	0.33202666
102	0xbea268b9	-0.31720522
103	0x3f84ca60	1.037426
104	0xbf0dc04c	-0.55371547
105	0xbd196ff7	-0.037460294
106	0x3f25b35d	0.6472681
107	0x3f4f4f2b	0.80980176
108	0xbe13151f	-0.14363526
109	0x3f173f8e	0.5908135
110	0xbf675d22	-0.90376484
111	0x3ea94619	0.33061293
112	0xbead4833	-0.33844146
113	0x3ed9acea	0.42514735
114	0x3eb95d61	0.36204055
115	0x3f151ad2	0.5824405
116	0xbdd0233b	-0.1016297
117	0x3e8a05aa	0.26957446
118	0xbe75ff76	-0.24023232
119	0x3f012f34	0.5046265
120	0xbee37240	-0.44423103
121	0xbf251ec7	-0.6450009
122	0x3d7a6cfe	0.0611391
123	0xbc2e9c3b	-0.010657365
124	0x3f3e9e75	0.74460536
125	0xbd0c1def	-0.034208234
126	0x3e2480d1	0.16064765
127	0xbdce3a9e	-0.10069774
128	0xbdd8e707	-0.1059094
129	0x3f1f433c	0.62211967
130	0xbeea508b	-0.45764574
131	0xbd8c2e8c	-0.068448156
132	0x3e4e23b2	0.20130804
133	0xbe08cbed	-0.13359042
134	0x3d304581	0.043035034
135	0xbde47fef	-0.11157214
136	0x3e0ca811	0.13735987
137	0xbebb7ea9	-0.36620072
138	0x3e307e78	0.17235744
139	0x3e7d9f81	0.24767877
140	0xbe767862	-0.2406936
141	0xbedaf118	-0.42762065
142	0xbe64ca39	-0.22342767
143	0xbd8aaf5d	-0.06771729
144	0xbde05f4f	-0.10955679
145	0xbda625fe	-0.08112715
146	0xbef58b61	-0.479579
147	0x3e201f5c	0.15636963
148	0x3f2a1758	0.6644187
149	0xbe441a99	-0.19150771
150	0xbe6a7db3	-0.22899513
151	0xbeedff30	-0.46483755
152	0xbdf9ad7d	-0.121912934
153	0x3daedebd	0.08538578
154	0xbf0b8f45	-0.54515487
155	0xbea92397	-0.33034965
156	0xbe067eb2	-0.13134268
157	0xbee2f106	-0.4432451
158	0x3efb32b0	0.4906211
159	0x3f57a3c9	0.8423429
160	0x3f1e7de4	0.61910844
161	0xbd6a4fc3	-0.057204973
162	0x3e11e50c	0.1424753
163	0x3d27ad46	0.04093673
164	0xbee74870	-0.45172453
165	0xbe3d9b1d	-0.18516202
166	0xbe83143a	-0.2560137
167	0x3e760e7e	0.24028966
168	0xbec7594f	-0.38935325
169	0xbf0def8d	-0.5544365
170	0x3f0a9da6	0.541468
171	0x3f218a11	0.631013
172	0xbf1eb6d6	-0.61997736
173	0xbeb200cd	-0.34766236
174	0x3dc98b43	0.09841015
175	0xbe6736af	-0.22579454
176	0x3ec16f03	0.37780008
177	0x3e9314a0	0.28726673
178	0xbf02c60b	-0.5108344
179	0x3edc4067	0.43017885
180	0xbeab5363	-0.33462057
181	0xbdc74148	-0.09729248
182	0xbe1fbf8f	-0.15600418
183	0xbe7387cc	-0.23782271
184	0xbe6527e4	-0.22378498
185	0xbeb40b86	-0.35165042
186	0x3e364614	0.1780017
187	0x3f10faeb	0.5663287
188	0xbea58358	-0.3232677
189	0x3ef60911	0.48053792
190	0x3f063aec	0.5243366
191	0xbc93f7fe	-0.018062588
192	0xbeac34bf	-0.33633992
193	0xbe67f243	-0.2265101
194	0x3e8896a0	0.26677418
195	0x3eb65aa5	0.3561603
196	0x3d2bc379	0.041934464
197	0x3dd178ee	0.10228144
198	0x3ea19b05	0.31563583
199	0x3d7420c5	0.059601564
200	0xbb2b8fe3	-0.0026178292
201	0xbe9af39c	-0.30263984
202	0xbe37d29a	-0.17951432
203	0xbe4ab758	-0.19796503
204	0x3dac5197	0.084139995
205	0x3f0d2d6b	0.5514743
206	0xbf088748	-0.5333142
207	0x3e15ae2a	0.1461722
208	0x3ea80d93	0.32822856
209	0xbdb16703	-0.08662226
210	0x3f5c57c0	0.86071396
211	0xbf1080cd	-0.56446534
212	0x3e850dbc	0.2598704
213	0xbe87fe70	-0.26561308
214	0xbda2e68d	-0.0795413
215	0xbf1d01ce	-0.6133088
216	0xbef22e53	-0.47300968
217	0xbeb2784b	-0.348574
218	0x3e8570e2	0.26062685
219	0xbd542053	-0.05178864
220	0xbe740ba3	-0.23832564
221	0xbea67292	-0.32509285
222	0xbd2f614b	-0.042817395
223	0x3eab45c1	0.33451656
224	0x3f04f433	0.5193512
225	0x3e3c7a41	0.18406011
226	0xbf1148ef	-0.5675191
227	0xbe48aa9c	-0.19596332
228	0xbe8be062	-0.27319628
229	0x3f1be483	0.60895556
230	0xbe24ba00	-0.16086578
231	0x3d31b682	0.043386944
232	0x3f02aa2e	0.51040924
233	0xbf200032	-0.625003
234	0xbe9698a6	-0.29413337
235	0xbeb56519	-0.35428694
236	0x3e703c52	0.2346051
237	0x3cb4ef74	0.022086836
238	0xbeb56a06	-0.35432452
239	0xbf4c2d0b	-0.7975623
240	0xbd3d0705	-0.046149272
241	0xbe957552	-0.2919107
242	0x3e726ada	0.23673573
243	0xbf377d8d	-0.7167595
244	0xbdb23c62	-0.08702923
245	0x3f2ea627	0.6822228
246	0xbf142ef9	-0.57884175
247	0xbec603c3	-0.38674745
248	0x3e358ade	0.17728755
249	0xbef36f43	-0.47545823
250	0x3eb3c57d	0.3511161
251	0xbf08fdd2	-0.535123
252	0x3ea8701c	0.32898033
253	0xbeb42042	-0.3518086
254	0x3ee050ce	0.4381165
255	0xbf11134d	-0.56670076

net.2.bias f4 [20]
0	0x3ec9b108	0.39392877
1	0xbeeb28b8	-0.45929503
2	0xbe2c8d32	-0.16850737
3	0x3e5945d9	0.21218051
4	0xbee03d39	-0.4379671
5	0x3eb24ec2	0.34825712
6	0x3f07f985	0.5311511
7	0x3ed49c3a	0.4152544
8	0xbe953576	-0.2914235
9	0x3e12f575	0.14351447
10	0x3e007c93	0.12547521
11	0xbdeaa0bf	-0.11456441
12	0x3e0e4a5a	0.1389555
13	0x3ebe9037	0.37219402
14	0x3eb339f4	0.35005152
15	0x3e8095f7	0.25114414
16	0xbe7f62b7	-0.2494
17	0x3eaf174c	0.34197462
18	0x3ee42b9b	0.44564518
19	0x3d8350c9	0.06411893

net.4.weight f4 [20, 20]
0	0x3f277ad3	0.6542179
1	0xbe1e0400	-0.15431213
2	0xbe9f7063	-0.31140432
3	0x3ea6c6ee	0.32573646
4	0xbe17a1ca	-0.14807811
5	0x3f1c8250	0.6113634
6	0x3ed0e396	0.40798634
7	0xbe1760d6	-0.14783034
8	0xbe9a9672	-0.30192906
9	0xbe86d07a	-0.2633093
10	0x3df1de67	0.11809998
11	0x3ed58765	0.4170486
12	0xbe9fd875	-0.3121983
13	0xbb9a8e6a	-0.004716684
14	0x3ee27b4c	0.44234693
15	0x3d92d7d9	0.07170076
16	0xbe8a5421	-0.2701731
17	0x3f01aac2	0.5065118
18	0x3e26917f	0.1626644
19	0x3e90bbe8	0.2826836
20	0x3e448c97	0.19194256
21	0xbd89c68b	-0.06727322
22	0x3efbbf15	0.49169222
23	0x3ebbb901	0.36664584
24	0xbe6b0132	-0.22949675
25	0x3f3622e7	0.71147007
26	0x3e0afcd2	0.13573006
27	0x3e53916d	0.20660944
28	0xbb3a6204	-0.002843977
29	0x3ed3be25	0.41356006
30	0xbf032a2f	-0.5123624
31	0xbf130ae1	-0.57438475
32	0xbf3620a1	-0.7114354
33	0x3cf214e7	0.029550983
34	0x3f0c0b10	0.5470438
35	0x3f37e7a1	0.7183781
36	0x3dbbc5b4	0.09168568
37	0xbe8cb38d	-0.27480736
38	0x3e2ead2d	0.17058249
39	0x3db5c36d	0.08875165
40	0x3eeea72b	0.46611914
41	0xbf0866f0	-0.5328207
42	0xbf169e56	-0.5883535
43	0x3f30139d	0.6877993
44	0xbae321b0	-0.0017328765
45	0xbda4a3c2	-0.08039047
46	0x3e845d4d	0.25852433
47	0xbed20e03	-0.41026315
48	0xbf82d3b0	-1.0220852
49	0x3b1adf8f	0.0023631786
50	0xbe95d250	-0.29262018
51	0x3ef729d2	0.48274094
52	0xbe363780	-0.17794609
53	0xbe92e612	-0.28691155
54	0x3f014471	0.5049506
55	0xbeec5a4b	-0.46162638
56	0x3e86f130	0.26355886
57	0x3f122f89	0.5710378
58	0xbe96fb7a	-0.29488736
59	0x3eb04968	0.34431005
60	0x3eba1d14	0.3635031
61	0x3d7aac04	0.061199203
62	0x3eb13bc6	0.34615916
63	0x3ed177bf	0.40911672
64	0xbe13a16e	-0.1441705
65	0x3f2b9ea0	0.6703892
66	0x3e8d3dcc	0.2758621
67	0xbf10095a	-0.5626427
68	0x3f465687	0.7747578
69	0x3c53fd5a	0.012938822
70	0xbe4c01a2	-0.19922498
71	0xbefcf973	-0.49409065
72	0xbe8e7142	-0.27820784
73	0x3e1497aa	0.1451098
74	0x3ec5ba69	0.38618782
75	0x3ee56c49	0.44809178
76	0x3ea1ebf3	0.31625327
77	0x3dab7c44	0.08373311
78	0x3ef61a5a	0.4806698
79	0x3f5b01f3	0.8554985
80	0xbef23209	-0.473038
81	0x3ea62179	0.32447413
82	0x3e822681	0.2542
83	0xbe5a697d	-0.21329303
84	0x3e9d1c2a	0.3068555
85	0xbed9552e	-0.424478
86	0xbd8e8a22	-0.069599405
87	0xbf2cc24f	-0.6748399
88	0x3e807c36	0.25094765
89	0xbe6adcdc	-0.22935814
90	0xbddcafc8	-0.10775715
91	0x3f0c9c65	0.5492614
92	0xbf059ef6	-0.5219568
93	0xbefa01f5	-0.48829618
94	0x3dbe9047	0.093048625
95	0x3a4d206d	0.0007824961
96	0x3f541da5	0.82857734
97	0xbefea666	-0.49736327
98	0xbf5d46ab	-0.86435956
99	0x3ea49446	0.32144374
100	0xbf09d035	-0.53833324
101	0x3e5830cb	0.21112363
102	0x3e15426a	0.14576116
103	0x3d815d4d	0.06316624
104	0x3e851d84	0.2599908
105	0xbe8f6968	-0.28010106
106	0xbe0c0f58	-0.13677728
107	0x3e21f9ca	0.15817943
108	0x3eb2cc5d	0.34921542
109	0xbc301e86	-0.010749465
110	0xbe1eb36b	-0.1549813
111	0x3df33c9f	0.11876797
112	0xbf100a8b	-0.5626609
113	0x3d5fa877	0.05460402
114	0x3e80a35d	0.25124636
115	0x3c7225c8	0.014779516
116	0xbd9446ef	-0.07240092
117	0x3cec2d00	0.028830051
118	0xbdc0c466	-0.0941246
119	0xbdb8a379	-0.09015555
120	0xbe843a25	-0.2582561
121	0xbe71d86b	-0.23617713
122	0x3f0a9e9a	0.54148257
123	0x3d234ffe	0.03987121
124	0x3f2dd812	0.6790782
125	0x3da8f2c3	0.08249428
126	0x3e916f03	0.28405008
127	0xbeada43e	-0.3391437
128	0x3ea8d9a8	0.3297856
129	0xbee35c12	-0.44406182
130	0x3eefe7df	0.4685659
131	0xbf302a0f	-0.68814176
132	0x3ded1d5d	0.11577866
133	0xbf411b7f	-0.7543258
134	0xbda0ea66	-0.07857208
135	0xbdca7318	-0.09885234
136	0x3d8e0763	0.06935003
137	0xbe83b13e	-0.25721163
138	0xbe89abae	-0.26888794
139	0xbe94c577	-0.29056904
140	0xbe5757fd	-0.21029659
141	0xbd187e49	-0.03722981
142	0x3eed349c	0.463292
143	0xbebaa4a7	-0.36453745
144	0x3f7503f2	0.95709145
145	0xbec8178f	-0.39080474
146	0xbf679041	-0.9045449
147	0xbf2c3145	-0.6726268
148	0x3e85227e	0.26002878
149	0x3e62aa66	0.22135314
150	0x3ec96e53	0.39341983
151	0x3d292f60	0.041304946
152	0xbe86f806	-0.26361102
153	0xbf40d9e3	-0.7533247
154	0x3e18d281	0.14924051
155	0xbd8d4f74	-0.0689992
156	0x3ea2750c	0.31729925
157	0xbe82db9c	-0.25558174
158	0xbf11746f	-0.5681829
159	0x3f0ac68b	0.542092
160	0xbecc0c54	-0.39853156
161	0xbdd2f859	-0.10301275
162	0x3e3b2b2e	0.1827819
163	0x3d684ab7	0.05671188
164	0xbe78b842	-0.24289039
165	0xbd5eae36	-0.05436536
166	0x3ec38b35	0.38192144
167	0xbf088c95	-0.5333951
168	0x3ea2e802	0.31817633
169	0x3f405efb	0.7514493
170	0x3e6a5d41	0.22887136
171	0xbf1951d7	-0.598905
172	0x3cf91573	0.030405736
173	0xbeb643ec	-0.35598695
174	0x3f735595	0.9505246
175	0x3ef4b528	0.4779446
176	0x3f2ead57	0.68233246
177	0xbd25a9b9	-0.040445063
178	0x3f165cf6	0.587356
179	0x3db62888	0.088944495
180	0xbf4bbf77	-0.7958903
181	0xbe314ed1	-0.17315222
182	0x3eee39a0	0.4652834
183	0xbd67e37a	-0.056613423
184	0x3f14358f	0.57894224
185	0xbeb7f17a	-0.3592642
186	0xbf1d9800	-0.6156006
187	0xbf857d40	-1.0428848
188	0x3e5094ee	0.20369312
189	0xbe8f305f	-0.27966592
190	0x3df4f192	0.119601384
191	0xbeb4a9c2	-0.35285765
192	0xbed23de2	-0.41062838
193	0xbe478255	-0.19483311
194	0x3e6fd03c	0.23419279
195	0xbe8eeefa	-0.279167
196	0x3ea8cae1	0.32967284
197	0xbeed5f15	-0.46361604
198	0xbea51fba	-0.32250768
199	0xbc04f5a0	-0.008115202
200	0xbeff7561	-0.4989424
201	0xbf2d2085	-0.67627746
202	0x3dae9e57	0.08526295
203	0xbe82befa	-0.2553633
204	0xbee468de	-0.44611257
205	0x3ec4c44b	0.3843101
206	0x3eedee4d	0.46470872
207	0xbe199481	-0.14998056
208	0x3e04c9ab	0.12967555
209	0x3ef546a9	0.47905472
210	0x3d339f4a	0.04385308
211	0x3e260d51	0.16216017
212	0xbec79340	-0.3897953
213	0xbe80e960	-0.2517805
214	0x3ecbbfa3	0.39794645
215	0x3e367bff	0.17820738
216	0x3ed546df	0.41655633
217	0xbec6f85a	-0.38861352
218	0x3f252133	0.64503783
219	0x3eb788e7	0.35846636
220	0x3da376a9	0.07981617
221	0xbf29d7ce	-0.66344917
222	0x3ef9047b	0.4863623
223	0x3e191a98	0.14951551
224	0x3e4e9737	0.20174871
225	0x3e90cf47	0.2828314
226	0x3ee6c703	0.4507371
227	0xbf73e9d8	-0.9527869
228	0x3e31719d	0.17328496
229	0x3f35eebf	0.7106742
230	0xbe4914fc	-0.19636911
231	0xbda797ed	-0.081832744
232	0xbeb1ad39	-0.3470247
233	0xbe24bb04	-0.16086966
234	0x3d393972	0.0452208
235	0x3ee060b5	0.43823782
236	0xbeb9600a	-0.36206084
237	0x3cb09bbd	0.021558637
238	0x3f7fbffd	0.99902326
239	0x3f0397e4	0.5140364
240	0xbd657de5	-0.056028266
241	0xbe6cce6d	-0.2312562
242	0xbe1de753	-0.15420274
243	0xbc0dcd14	-0.0086548515
244	0x3e7e00be	0.2480497
245	0x3e510596	0.20412287
246	0x3f06a165	0.5259002
247	0xbe4c7079	-0.1996478
248	0xbe68d05d	-0.22735734
249	0x3cb509c6	0.022099387
250	0xbde84021	-0.113403566
251	0x3e94c347	0.29055235
252	0xbe51102c	-0.20416325
253	0xbef3c105	-0.476082
254	0xbdf39010	-0.11892712
255	0xbebda749	-0.3704169

net.4.bias f4 [20]
0	0x3e64c6c4	0.22341448
1	0x3e11e478	0.1424731
2	0x3ea79bf2	0.32736164
3	0x3dbd679e	0.09248279
4	0xbea5f35c	-0.3241223
5	0xbe22da46	-0.15903577
6	0x3cc9d6f7	0.024638636
7	0xbe91ff6b	-0.2851518
8	0x3d80cbf3	0.062889
9	0xbe202093	-0.15637426
10	0x3e427769	0.18990864
11	0x3d88daca	0.06682356
12	0xbe1751a3	-0.14777236
13	0x3d8da6a6	0.06916551
14	0xbe58af9d	-0.21160741
15	0xbc3f6144	-0.011680905
16	0x3eaee439	0.34158495
17	0x3da9dd02	0.08294107
18	0x3ea4c4c5	0.32181373
19	0x3ddc204f	0.1074835

net.6.weight f4 [20, 20]
0	0xbf113a2a	-0.56729376
1	0xbe418c56	-0.1890119
2	0xbf0f04f8	-0.55866957
3	0x3c1189eb	0.00888298
4	0x3e771c75	0.24131949
5	0x3dd44905	0.1036549
6	0x3e123aa0	0.14280176
7	0x3eb8ef9e	0.36120313
8	0xbf143e61	-0.5790768
9	0x3f283fc7	0.65722317
10	0xbeedf7b8	-0.46478057
11	0x3daeb306	0.0853024
12	0x3e41a4fa	0.1891059
13	0xbe78bc51	-0.24290587
14	0xbca837ec	-0.020534478
15	0x3f074639	0.52841526
16	0xbeaa2917	-0.33234474
17	0xbec983d1	-0.3935838
18	0xbf644d52	-0.8918048
19	0xbdf8b881	-0.12144566
20	0x3ef647af	0.48101565
21	0x3cc6bc63	0.024259752
22	0x3b8e02a2	0.00433381
23	0x3ec9e226	0.3943035
24	0xbc8c3af9	-0.017117964
25	0xbe400829	-0.18753113
26	0xbcdfb96b	-0.027310094
27	0xbf23b6c6	-0.63950765
28	0x3f0b2c7c	0.5436475
29	0x3c66a860	0.01407823
30	0x3e910be9	0.283294
31	0x3ebf9192	0.3741575
32	0x3d7578b9	0.059929583
33	0xbd08966a	-0.03334657
34	0xbed36fe4	-0.41296303
35	0xbed06aed	-0.40706578
36	0x3d35b033	0.04435749
37	0x3e36e8f0	0.17862296
38	0x3e639859	0.22226085
39	0x3ef2634d	0.47341385
40	0xbf76997a	-0.96327937
41	0x3df506d6	0.119641945
42	0xbef0a8dc	-0.4700383
43	0x3da67adc	0.08128902
44	0x3f01737d	0.50566846
45	0x3de5988c	0.11210737
46	0x3f02e4df	0.5113048
47	0x3ef254fe	0.4733047
48	0xbedc3085	-0.43005767
49	0x3e7c20a2	0.24621823
50	0xbe81d021	-0.25354102
51	0xbea52b93	-0.32259807
52	0x3b09d548	0.0021031667
53	0xbd4b7e06	-0.049680732
54	0x3ed258fa	0.4108351
55	0x3c35333e	0.01105958
56	0xbf6afd41	-0.91792685
57	0x3e3e79d6	0.18601164
58	0xbf266e57	-0.65012115
59	0x3e121906	0.14267358
60	0x3f3b35b8	0.73128843
61	0x3eec5daa	0.4616521
62	0x3f1c0ffb	0.60961884
63	0x3e79b88c	0.24386805
64	0xbeca2e7d	-0.39488593
65	0xbe939a29	-0.28828552
66	0xbdfc3e56	-0.12316577
67	0xbf1266c3	-0.5718805
68	0xbe4833ac	-0.19550961
69	0xbe51b98b	-0.20480935
70	0x3e8f3d0b	0.2797626
71	0x3d7b5462	0.06135977
72	0x3ea40d1a	0.32041246
73	0x3e8bea72	0.27327305
74	0x3c4446a8	0.011979736
75	0x3db3c9c2	0.087787166
76	0x3dd709e4	0.10499933
77	0x3dc4b88d	0.09605513
78	0x3f83ea10	1.0305805
79	0xbe543640	-0.2072382
80	0x3fc7c435	1.5606753
81	0x3e8649d4	0.262282
82	0x3f6570f9	0.8962551
83	0x3e0a3b3f	0.13499163
84	0xbe9b7c5a	-0.3036831
85	0xbf1483fd	-0.580139
86	0x3e9f16c1	0.31072047
87	0xbf120088	-0.5703206
88	0xbd21c799	-0.03949699
89	0x3cf5e6c8	0.030017272
90	0x3ec184a1	0.377965
91	0xbd8911be	-0.06692837
92	0xbdb11df2	-0.0864829
93	0xbc71505d	-0.014728633
94	0xbd9c0f32	-0.07620086
95	0xbe6584b7	-0.22413908
96	0x3e7175fa	0.2358016
97	0x3e962929	0.29328278
98	0x3f80c377	1.0059651
99	0x3ede1689	0.43376568
100	0xbed6316e	-0.41834587
101	0xbf1c20bc	-0.6098745
102	0x3e19a3bc	0.15003866
103	0xbeed087c	-0.46295536
104	0x3dc77908	0.09739882
105	0xbba187f5	-0.0049295374
106	0xbddd20f9	-0.10797305
107	0x3ed65b95	0.41866747
108	0xbf552cb7	-0.83271354
109	0x3f04a576	0.51814973
110	0xbedf85af	-0.4365668
111	0x3e01bfba	0.12670794
112	0xbf2b0309	-0.66801506
113	0xbec16f9a	-0.37780458
114	0x3f22770c	0.634629
115	0x3dd2cbbb	0.10292765
116	0xbd0738d4	-0.03301318
117	0xbf283dc3	-0.6571924
118	0xbed3c58c	-0.41361654
119	0xbeef4acf	-0.46736762
120	0xbec045a3	-0.3755313
121	0x3cd908bc	0.026493423
122	0xbee9fa77	-0.45698902
123	0x3e7dc287	0.24781238
124	0x3e18586e	0.14877483
125	0xbf2bd392	-0.67119706
126	0xbe202d59	-0.15642299
127	0x3f340c89	0.7033163
128	0xbe94d068	-0.2906525
129	0x3e7247cb	0.236602
130	0x3f255a7c	0.64591193
131	0x3e96e8e5	0.2947456
132	0xbeb1f2ec	-0.34755647
133	0x3d719da2	0.05898822
134	0xbf05d829	-0.5228296
135	0xbefb327e	-0.4906196
136	0xbe854bea	-0.2603448
137	0x3cb9c35d	0.022676164
138	0xbea40720	-0.32036686
139	0xbe898f1a	-0.2686699
140	0xbd4c5dfa	-0.04989431
141	0xbefe249b	-0.49637303
142	0xbe3c7174	-0.18402654
143	0xbf2372aa	-0.6384684
144	0x3f029c61	0.51019865
145	0x3ed6cd48	0.41953492
146	0x3d2720aa	0.040802635
147	0x3effb1f7	0.49940464
148	0xbf16eb3e	-0.589527
149	0x3eb266ac	0.34843957
150	0xbf0ff242	-0.5622903
151	0xbe0ee6a5	-0.13955171
152	0x3cb69b08	0.022290722
153	0xbebfd07e	-0.37463754
154	0x3ea222da	0.31667215
155	0x3e15fc44	0.14647013
156	0xbe21742a	-0.1576697
157	0x3da573e9	0.08078749
158	0xbeb82892	-0.35968453
159	0xbe90883b	-0.28228936
160	0xbf0c1bed	-0.5473011
161	0xbf6848cb	-0.90736073
162	0x3f68cf7f	0.90941614
163	0xbf7fd1b8	-0.9992938
164	0x3ea5b59b	0.32365116
165	0x3f4612a5	0.773722
166	0xbddedd3d	-0.108820416
167	0xbdacfe4d	-0.084469415
168	0xbf80f524	-1.0074811
169	0x3e4345f9	0.19069661
170	0xbf4d3723	-0.80162257
171	0xbf470b5f	-0.77751726
172	0x3d4fe5b1	0.05075616
173	0xbed8b389	-0.42324474
174	0x3f6b05c3	0.91805667
175	0x3ef7a1ff	0.4836578
176	0xbe283cb0	-0.164294
177	0xbf758501	-0.9590607
178	0xbf5be49f	-0.85895723
179	0xbf28589c	-0.6576021
180	0x3e6ff34f	0.23432659
181	0x3f0b56af	0.54429144
182	0x3f69ae1d	0.912813
183	0x3e7ea96d	0.24869318
184	0xbf894d6d	-1.0726753
185	0xbda97526	-0.082742974
186	0xbf2b42f9	-0.6689907
187	0xbf8fb7ec	-1.1228004
188	0x3f17a8dd	0.5924204
189	0xbf843b59	-1.0330611
190	0xbe26dd71	-0.1629541
191	0x3ea50aa6	0.32234687
192	0xbf32b318	-0.69804525
193	0xbe6499fd	-0.22324367
194	0x3d3e8189	0.046510253
195	0x3dabcaef	0.08388316
196	0x3f0ec75b	0.5577294
197	0xbcea9715	-0.028636495
198	0x3e5a7746	0.21334562
199	0x3ecb8c41	0.39755443
200	0xbdf120a7	-0.11773806
201	0xbedd040a	-0.43167144
202	0xbd90d6ab	-0.07072195
203	0xbf08061c	-0.5313432
204	0xbf45f953	-0.77333564
205	0x3e740344	0.2382937
206	0xbe4e8a0b	-0.20169847
207	0x3d21ed3e	0.039532892
208	0xbe9f1df7	-0.3107755
209	0xbf075c52	-0.52875245
210	0xbec94a97	-0.3931472
211	0xbf12bc6b	-0.57318753
212	0xbf504faa	-0.8137156
213	0xbe49df4f	-0.19714092
214	0x3f340cb3	0.7033188
215	0x3f36dc00	0.71429443
216	0x3d84cba6	0.06484155
217	0xbe8b6510	-0.27225542
218	0xbec41036	-0.38293618
219	0xbcf038ee	-0.029324021
220	0xbe88836d	-0.2666277
221	0xbf5d0b5e	-0.8634547
222	0xbd4fe416	-0.05075463
223	0xbf542726	-0.82872236
224	0x3ec2966b	0.38005385
225	0x3d702ef6	0.058638535
226	0xbea9e804	-0.33184826
227	0x3dabc85a	0.083878234
228	0xbed4dc61	-0.41574386
229	0xbe764ba4	-0.24052292
230	0xbe816d95	-0.25278917
231	0xbf1d6187	-0.6147694
232	0xbd9c17b9	-0.07621712
233	0xbe832ffe	-0.25622553
234	0x3f21c425	0.6318992
235	0x3eae82bb	0.34084114
236	0x3ea9551d	0.3307275
237	0xbecccfff	-0.40002438
238	0xbf503545	-0.8133128
239	0xbe163be6	-0.14671287
240	0x3e02d29b	0.12775652
241	0x3c6250cc	0.013813209
242	0xbd792dcf	-0.060834702
243	0xbdec751e	-0.11545776
244	0xbf3de963	-0.74184245
245	0xbe436921	-0.19083072
246	0xbe83eec0	-0.2576809
247	0xbedc9049	-0.4307883
248	0x3ed715f0	0.42008924
249	0xbf2d7254	-0.67752576
250	0x3f006a8a	0.50162566
251	0xbe57850d	-0.21046849
252	0xbef633f3	-0.4808651
253	0x3e8a9dca	0.27073509
254	0xbe848c9a	-0.2588852
255	0xbe8cddc5	-0.27512947

net.6.bias f4 [20]
0	0xbdc280aa	-0.09497197
1	0x3e5f054e	0.21779367
2	0xbc720d8a	-0.014773736
3	0xbbeafa97	-0.007170986
4	0x3e0b57fc	0.13607782
5	0xbea7854d	-0.32718888
6	0x3ea679a5	0.32514682
7	0xbd796440	-0.06088662
8	0xbeb753d6	-0.3580615
9	0x3e13b2a1	0.1442361
10	0xbe880f19	-0.2657402
11	0xbeb383a9	-0.35061386
12	0x3e0980a2	0.13427976
13	0x3dd671dd	0.104709364
14	0xbd9d9273	-0.076939486
15	0xbe511f60	-0.20422125
16	0x3d52c0e3	0.051453482
17	0x3dd0fa02	0.10203935
18	0xbe7e6ac9	-0.24845423
19	0x3dd369d9	0.10322923

out_net.0.weight f4 [1, 20]
0	0xbff49e9f	-1.9110907
1	0x3fb19ed2	1.3876593
2	0xbf9cc6a8	-1.2248125
3	0x3fe110ba	1.758323
4	0x3fcc1439	1.5943671
5	0xbfc7eb25	-1.5618635
6	0x3f7dab9e	0.9908999
7	0xbfd81032	-1.6879942
8	0xbfaeaf1b	-1.3647188
9	0x3f67510d	0.9035805
10	0xbf09cab5	-0.5382493
11	0xbfb1765c	-1.3864245
12	0x3f8ee469	1.1163455
13	0x3fd8f51d	1.6949803
14	0xbfec33cc	-1.8453307
15	0xbfc6172f	-1.5475825
16	0xbff2e102	-1.8974917
17	0x3fa02566	1.2511413
18	0xbff81c1e	-1.9383581
19	0x3fff22c4	1.9932485

ini_net.0.weight f4 [20, 2]
0	0xbe454dae	-0.19267914
1	0xbeb70484	-0.35745633
2	0x3e5dcc2d	0.21659918
3	0x3e6443e8	0.22291529
4	0xbd981659	-0.074261375
5	0x3d277479	0.04088256
6	0x3e690f6d	0.2275979
7	0x3d01030c	0.031497046
8	0x3d97d586	0.07413773
9	0x3f2655c5	0.64974624
10	0xbeb91b20	-0.36153507
11	0x3f1d6be2	0.6149274
12	0xbefe79ad	-0.49702206
13	0x3eaa94a5	0.33316532
14	0x3e5f875f	0.21828984
15	0xbeafca51	-0.34334043
16	0xbf0b6ef2	-0.54466164
17	0xbe299dc3	-0.16564088
18	0x3f0b04f4	0.5430443
19	0xbd03d5bd	-0.03218626
20	0xbead94d6	-0.33902615
21	0xbe80205f	-0.25024697
22	0xbec9ce76	-0.3941533
23	0xbe10fc63	-0.14158778
24	0xbe6a5156	-0.2288259
25	0x3df02a2d	0.117267944
26	0x3d4ee5ff	0.05051231
27	0xbe82720e	-0.25477642
28	0xbdd161e9	-0.10223753
29	0x3ea7b3bf	0.32754323
30	0x3e02dcad	0.12779494
31	0xbed29c15	-0.41134706
32	0x3ed67b62	0.4189101
33	0x3ef23e1f	0.4731302
34	0x3dc6e758	0.09712094
35	0x3ef95830	0.48700094
36	0x3f3cf245	0.73807174
37	0x3ce1e923	0.027576989
38	0xbe248e5f	-0.16069935
39	0xbe8f6108	-0.28003716

ini_net.0.bias f4 [20]
0	0xbe0ee386	-0.13953981
1	0x3ece8d0d	0.40341988
2	0xbe00ad71	-0.12566163
3	0xbee16802	-0.44024664
4	0xbf170adf	-0.5900096
5	0x3ebcd785	0.36883178
6	0x3eb56a4d	0.35432664
7	0x3ea0f0e4	0.31433785
8	0x3f0d7f39	0.5527225
9	0x3eb43b52	0.35201508
10	0x3eda6222	0.42652994
11	0xbe86400f	-0.26220748
12	0x3e03fb6a	0.12888876
13	0x3ecf34e8	0.40470052
14	0xbca25051	-0.019813688
15	0xbe903557	-0.28165695
16	0x3ed1b1c3	0.40955934
17	0x3eab4f12	0.33458763
18	0xbeee191e	-0.46503538
19	0x3d930f3c	0.0718064

net.0.weight f4 [20, 20]
0	0xbe1405d5	-0.1445535
1	0x3eb5357c	0.35392368
2	0x3f0c1740	0.54722977
3	0x3e9e9fdc	0.30981338
4	0xbf1914d7	-0.59797424
5	0x3f083e6c	0.5322025
6	0x3ec185ae	0.37797302
7	0x3ec9434e	0.39309162
8	0x3e9ceeae	0.30650848
9	0x3f72963e	0.947605
10	0x3f1ed908	0.62049913
11	0xbce3e892	-0.02782086
12	0xbe02f8ec	-0.12790269
13	0x3f565687	0.8372578
14	0xbe2831cb	-0.16425245
15	0xbeca6974	-0.3953358
16	0x3e319706	0.17342767
17	0x3e655c5a	0.2239851
18	0xbe4e9a03	-0.20175938
19	0x3f119caf	0.56879705
20	0xbe50e37d	-0.2039928
21	0x3e884b2b	0.2661985
22	0x3eec5bed	0.46163884
23	0x3d6b5a0b	0.05745892
24	0xbe8167f2	-0.25274616
25	0x3f03587c	0.5130689
26	0x3eb956b1	0.36198953
27	0x3dbb8af8	0.091573656
28	0x3e6ebb9d	0.23313756
29	0x3d330b15	0.04371174
30	0x3d66398f	0.056207236
31	0xbf0e2af0	-0.5553427
32	0xbedf0b86	-0.4356348
33	0xbd0c84dc	-0.034306392
34	0xbd152255	-0.036409695
35	0xbf094834	-0.536258
36	0x3e08e1ff	0.1336746
37	0xbeb7f5b2	-0.35929638
38	0xbde2d9f0	-0.110767245
39	0xbe81a7ff	-0.25323483
40	0x3f0d0a71	0.5509406
41	0xbc3b0925	-0.011415754
42	0xbc936f75	-0.017997483
43	0x3d929e48	0.07159096
44	0x3e92bd8a	0.28660232
45	0xbee61fba	-0.4494608
46	0x3db639be	0.08897732
47	0xbf0ac8d4	-0.5421269
48	0xbe48b082	-0.19598582
49	0xbf221c8b	-0.63324803
50	0x3e77a092	0.24182346
51	0x3f21cc7e	0.63202655
52	0x3f0cd91c	0.5501878
53	0x3e895e9b	0.2682999
54	0x3d6b0c49	0.057384763
55	0x3f006966	0.50160825
56	0xbec2fb52	-0.38082367
57	0x3dc6bd14	0.097040325
58	0xbd72748d	-0.059193183
59	0xbdc76fd8	-0.097381294
60	0xbdd356c6	-0.10319285
61	0x3f373bd3	0.7157566
62	0x3f2d4032	0.6767608
63	0xbed4ce50	-0.41563654
64	0x3de53ab4	0.11192837
65	0x3c6e4f1f	0.014545231
66	0xbe358f15	-0.17730363
67	0xbcf9c8cb	-0.030491253
68	0x3eacba9e	0.33736128
69	0x3d89d3be	0.0672984
70	0x3f1615e2	0.5862714
71	0xbef5760e	-0.4794163
72	0xbdc3ef83	-0.095671676
73	0x3e85dec0	0.26146507
74	0xbdd4a8b4	-0.1038374
75	0xbee3ddc9	-0.44505146
76	0x3e24efff	0.16107176
77	0x3e97db92	0.29659706
78	0xbeba014a	-0.36329108
79	0xbe96414b	-0.2934669
80	0xbea01d52	-0.3127237
81	0xbed28362	-0.41115862
82	0xbf1f2e01	-0.6217957
83	0x3eb0e4c3	0.3454953
84	0xbcc2524f	-0.023720888
85	0xbefc8d44	-0.49326527
86	0xbf0e3c84	-0.5556109
87	0x3eaff56f	0.34366938
88	0xbd856090	-0.065125585
89	0xbe060049	-0.13086046
90	0xbed5f483	-0.4178811
91	0xbef72c9b	-0.4827622
92	0xbc8aa1c8	-0.016922846
93	0xbf287379	-0.658012
94	0xbea1c769	-0.3159745
95	0x3e519faa	0.20471063
96	0xbf241aba	-0.6410328
97	0xbcc26a3d	-0.023732299
98	0x3e1c2a82	0.1525059
99	0xbe6ab63c	-0.2292108
100	0xbc6087b1	-0.013704226
101	0xbefc39fc	-0.4926299
102	0x3e0c7420	0.13716173
103	0xbcfed54a	-0.031107564
104	0x3f1be804	0.609009
105	0x3da8ca1f	0.082416765
106	0x3d89fbd0	0.067374825
107	0xbe9e25d0	-0.30888224
108	0x3db00858	0.085953414
109	0xbecf013b	-0.40430626
110	0xbe0a906e	-0.13531658
111	0xbbc12f4b	-0.0058955303
112	0x3ee31fed	0.44360295
113	0xbf089dc2	-0.5336572
114	0x3f0e59bc	0.55605674
115	0xbec5e5e9	-0.3865197
116	0xbeb4054c	-0.3516029
117	0xbe330184	-0.17481047
118	0x3d473efc	0.04864405
119	0x3c57fef5	0.013183345
120	0x3dc2d3b9	0.09513039
121	0xbed25021	-0.41076759
122	0xbdb538eb	-0.08848747
123	0xbe45c26e	-0.1931245
124	0xbe2c2e9f	-0.1681466
125	0x3d9c1721	0.07621599
126	0xbd89fca0	-0.067376375
127	0x3dd4b20a	0.10385521
128	0x3b72c55a	0.00370439
129	0x3eaad949	0.333689
130	0x3ebad9ef	0.36494395
131	0x3e5276c2	0.20553115
132	0x3d2c84a7	0.042118695
133	0x3eaf089b	0.34186253
134	0x3dce7be8	0.10082227
135	0x3bdb9081	0.006700576
136	0xbdfc8cb2	-0.12331523
137	0x3d7469f2	0.05967135
138	0xbf1cdeae	-0.6127728
139	0x3e08500f	0.1331179
140	0x3e9b6d89	0.30357006
141	0x3f29de87	0.66355175
142	0x3e916706	0.28398913
143	0xbf294072	-0.6611396
144	0x3d8dbf14	0.06921211
145	0x3dd46c55	0.10372225
146	0xbd166816	-0.036720358
147	0x3f3f74a2	0.7478734
148	0x3d2e3812	0.04253394
149	0xbd290313	-0.041262697
150	0x3e8b0bcf	0.27157447
151	0xbd91381e	-0.07090782
152	0xbd76a8a0	-0.060219407
153	0x3f1bcef7	0.6086268
154	0x3e4b3662	0.19844964
155	0xbe16d79f	-0.1473069
156	0x3ea371c5	0.31922737
157	0x3ea014a0	0.31265736
158	0xbeeb7cdd	-0.459937
159	0xbf28f3e4	-0.6599715
160	0xbe795bd4	-0.24351436
161	0xbf550ab0	-0.8321943
162	0xbe51a397	-0.20472561
163	0x3e63c7cb	0.22244184
164	0x3e85d144	0.2613622
165	0xbe887e75	-0.2665898
166	0x3d591532	0.05299873
167	0xbf511e4a	-0.8168684
168	0x3c4fa6e5	0.012674068
169	0xbef34d1d	-0.4751977
170	0xba93d60b	-0.0011279
171	0x3e9d8216	0.3076331
172	0x3e620d20	0.2207532
173	0xbeb73315	-0.3578116
174	0x3f0f05be	0.55868137
175	0xbe9e4220	-0.30909824
176	0xbf06127f	-0.5237197
177	0xbe41e117	-0.18933521
178	0xba8bc19f	-0.0010662562
179	0x3d8abd14	0.06774345
180	0xbeba2830	-0.36358786
181	0xbe9ae9f6	-0.30256623
182	0x3dc9bc67	0.09850388
183	0x3f161d17	0.5863814
184	0x3e9c2d15	0.30503145
185	0xbdc16c24	-0.09444454
186	0x3e19a6bd	0.15005012
187	0x3eda2ede	0.42613882
188	0x3dc96dea	0.098354176
189	0x3e584d3e	0.21123216
190	0xbe6b41d1	-0.22974326
191	0xbeba0d42	-0.3633824
192	0x3eb54852	0.3540674
193	0xbe9b4033	-0.30322418
194	0x3ef92d48	0.4866736
195	0x3e6199e7	0.22031365
196	0xbe431cec	-0.19054002
197	0x3cf1f7f5	0.02953718
198	0x3f01c5e7	0.506926
199	0xbf2f2148	-0.6841016
200	0xbf3ce783	-0.7379076
201	0x3e82caf8	0.25545478
202	0xbd4626c3	-0.04837681
203	0x3c4c9ea8	0.0124889985
204	0x3e9a1a74	0.30098307
205	0xbeb3e39e	-0.35134596
206	0xbf113e56	-0.5673574
207	0xbe1e3d26	-0.15453014
208	0xbf21240d	-0.62945634
209	0xbecd00e6	-0.40039748
210	0xbec7fd7b	-0.39060578
211	0xbed8fc82	-0.42380148
212	0xbd95ed7f	-0.073206894
213	0x3cd67630	0.026179403
214	0x3f173cb4	0.59077
215	0xbe3c2523	-0.18373542
216	0x3e20b6aa	0.15694681
217	0xbd0f03ed	-0.034915853
218	0x3dd5dd10	0.10442555
219	0x3e5ab131	0.21356656
220	0xbe78d3b1	-0.24299504
221	0xbe2a9919	-0.16659965
222	0x3ecb1d2f	0.39670703
223	0xbf02004b	-0.507817
224	0xbee21aec	-0.44161165
225	0x3e020111	0.1269572
226	0xbb6cf8ec	-0.0036159111
227	0x3f16b35f	0.5886745
228	0xbe76fda3	-0.24120192
229	0x3f0ec191	0.5576411
230	0x3eb82a3a	0.35969716
231	0xbf04324b	-0.5163924
232	0x3b8ab2ae	0.004232726
233	0x3edd42b1	0.43214944
234	0xbf0acd9d	-0.5421999
235	0x3e8b7bdb	0.27242932
236	0x3e7c9274	0.24665242
237	0xbf387acc	-0.72062373
238	0xbe77e395	-0.2420791
239	0xbeee6a31	-0.46565393
240	0xbec4a731	-0.38408807
241	0xbea8aa38	-0.32942367
242	0xbf5eb54f	-0.86995405
243	0x3cb6011c	0.022217326
244	0xbd91e843	-0.071243785
245	0xbed79be6	-0.4211113
246	0xbeb48a78	-0.35261893
247	0x3b88942e	0.004168055
248	0xbdad7d8f	-0.08471214
249	0xbf305fe4	-0.6889632
250	0xbeabf9a2	-0.33588892
251	0x3f04e4a1	0.5191136
252	0xbeeaf8a9	-0.45892838
253	0xbef531f1	-0.47889665
254	0xbc7d1b87	-0.015448458
255	0xbdbfbf95	-0.09362713

net.0.bias f4 [20]
0	0x3ed3ee3a	0.4139269
1	0xbe94436a	-0.28957683
2	0x3e4332c0	0.19062328
3	0xbde25af4	-0.11052504
4	0x3eabbf09	0.33544186
5	0x3e70a21f	0.23499344
6	0xbdcf62bb	-0.10126253
7	0x3ebb4bbc	0.36581218
8	0x3da3521d	0.07974646
9	0x3ec3bf61	0.38231948
10	0xbe8b5dc3	-0.27219972
11	0xbe633ff1	-0.2219236
12	0x3dbdd26b	0.0926865
13	0xbd041cde	-0.032254092
14	0xbe31f0c6	-0.17377004
15	0x3e1b4ee7	0.15166818
16	0xbdd156e1	-0.10221649
17	0xbe5bafd4	-0.21453792
18	0x3e863f40	0.2622013
19	0x3f027d5d	0.5097254

net.2.weight f4 [20, 20]
0	0x3eca80a2	0.39551264
1	0xbe8b0160	-0.27149487
2	0x3f1eef80	0.620842
3	0xbcde1a3e	-0.027112123
4	0x3e55d0d6	0.20880446
5	0x3e68fa49	0.22751726
6	0xbf0b48b1	-0.54407793
7	0x3e942d37	0.28940746
8	0x3d08e8ea	0.03342525
9	0xbe30da97	-0.17270885
10	0x3ed04f33	0.40685424
11	0xbf10450b	-0.5635535
12	0xbe439f19	-0.1910366
13	0xbf1a2374	-0.6021035
14	0xbf2072ab	-0.6267497
15	0x3ed54ede	0.41661733
16	0xbf0373f1	-0.5134879
17	0xbebbe21e	-0.3669595
18	0x3f123449	0.5711103
19	0x3ebb11fb	0.36537156
20	0xbf00221f	-0.50052065
21	0xbf1df13d	-0.61696225
22	0x3dc41a0e	0.09575282
23	0x3e2e0485	0.16993912
24	0x3f0fbd86	0.56148565
25	0x3eb8194c	0.359568
26	0xbe9c5647	-0.30534574
27	0xbe6aae86	-0.22918138
28	0x3ee244a4	0.44192994
29	0xbd5bb967	-0.05364361
30	0x3f292f40	0.6608772
31	0x3c802392	0.015641961
32	0x3f2bcee4	0.67112565
33	0xbe5a07fa	-0.21292105
34	0xbf29127e	-0.6604384
35	0xbf214527	-0.62996143
36	0xbe9aaeef	-0.3021159
37	0xbd920e91	-0.071316846
38	0x3ebd42c2	0.36964995
39	0xbf905adf	-1.1277732
40	0x3f0b3aa0	0.5438633
41	0x3e7abead	0.244868
42	0xbf05d45d	-0.52277166
43	0xbd3f00f7	-0.04663178
44	0xbe722668	-0.23647463
45	0x3e0049b4	0.12528116
46	0x3b9a0c24	0.0047011543
47	0x3e3dc4e6	0.18532142
48	0xbcbffcd4	-0.023435988
49	0x3e8caf68	0.27477574
50	0x3e475aa6	0.19468173
51	0x3e66d4d4	0.22542125
52	0xbe4c14e1	-0.1992984
53	0x3e59611c	0.2122845
54	0x3debd406	0.1151505
55	0x3bdb38ce	0.0066901213
56	0x3f4e2708	0.80528307
57	0xbee1ed54	-0.4412638
58	0xbdbf2618	-0.09333438
59	0xbe9d3a65	-0.30708614
60	0x3dadce7a	0.08486648
61	0xbd82ccfd	-0.06386755
62	0x3e62eb0e	0.22159979
63	0x3e8611f4	0.26185572
64	0xbe88d0fe	-0.26721948
65	0x3ef90869	0.4863923
66	0x3e4c7f34	0.19970399
67	0xbec90c4a	-0.39267188
68	0x3e617700	0.22018051
69	0xbe0d8af3	-0.13822536
70	0xbe830150	-0.2558694
71	0xbf1af622	-0.6053182
72	0x3e826554	0.25467932
73	0x3e3fdd74	0.18736821
74	0xbe9ce286	-0.30641574
75	0xbf0c6d35	-0.54854137
76	0xbf0e8244	-0.5566752
77	0xbeb66815	-0.35626283
78	0x3ee9725c	0.45595062
79	0x3d80f44b	0.06296595
80	0x3f17ec11	0.59344584
81	0x3f2076d2	0.62681305
82	0x3dbf2e18	0.093349636
83	0x3d76e4c5	0.060276765
84	0xbf4a7fd8	-0.79101324
85	0xbe80d65f	-0.25163552
86	0x3ea0672d	0.31328717
87	0x3ecebb82	0.40377432
88	0xbf3a869e	-0.7286166
89	0xbf364d4f	-0.71211714
90	0x3e8af463	0.27139577
91	0x3ef196bc	0.47185314
92	0xbe71fd44	-0.2363177
93	0xbea01e39	-0.31273058
94	0x3eac309e	0.33630842
95	0x3ee83be4	0.45358193
96	0x3ec11e1f	0.37718293
97	0xbde09a81	-0.10966969
98	0xbf33d03e	-0.7023963
99	0xbed69277	-0.4190862
100	0x3f5e980c	0.86950755
101	0x3cb43b15	0.022000829
102	0xbf68cd48	-0.90938234
103	0x3f39e23d	0.7261084
104	0xbf48310f	-0.7819986
105	0xbe185460	-0.14875937
106	0x3e1e3e93	0.15453558
107	0x3f93c0d3	1.154322
108	0xbe9d4634	-0.30717623
109	0x3f38fc4b	0.7225997
110	0xbef32425	-0.47488514
111	0x3dfd7988	0.12376696
112	0xbed3cd5b	-0.4136761
113	0x3e63ff28	0.22265303
114	0x3e3bb52b	0.18330829
115	0x3e5f77b5	0.21823008
116	0xbec7c793	-0.3901945
117	0x3e567234	0.20942003
118	0xbf0bd61d	-0.54623586
119	0x3f2a1138	0.66432524
120	0xbdf07668	-0.11741334
121	0xbec73875	-0.3891026
122	0x3f0f7485	0.5603717
123	0xbed7dad4	-0.4215914
124	0x3f37dd36	0.71821916
125	0x3e2dce7d	0.169733
126	0x3ded7a3d	0.11595581
127	0x3e58ac12	0.2115939
128	0x3eface60	0.48985577
129	0x3e8e6722	0.2781306
130	0xbcdb9877	-0.0268061
131	0xbe8bc631	-0.27299646
132	0x3e6bde71	0.23034073
133	0xbe629eb1	-0.22130848
134	0xbee07166	-0.43836516
135	0xbea31910	-0.3185506
136	0xbb041f2b	-0.002016018
137	0xbf1e5afb	-0.61857575
138	0x3ee1c57a	0.44095975
139	0x3ed76964	0.42072594
140	0xbeab935b	-0.3351086
141	0xbf0fe4dc	-0.56208587
142	0xbcfb2029	-0.030654984
143	0xbf15b58a	-0.5848013
144	0x3f0b520e	0.5442208
145	0x3e6ddd16	0.23228869
146	0xbe4f56a4	-0.20247895
147	0x3da6487d	0.08119295
148	0x3f34ff06	0.70701635
149	0x3d944666	0.0723999
150	0x3e91d8a8	0.28485608
151	0xbe9ec3a8	-0.3100865
152	0x3eaf8451	0.34280637
153	0x3de85ee8	0.11346227
154	0xbe9800bc	-0.2968806
155	0xbed933d5	-0.42422357
156	0xbe39519a	-0.18097535
157	0x3c9ebbe6	0.019376706
158	0x3e86cd34	0.26328433
159	0x3f652bec	0.89520144
160	0x3e4f31e7	0.2023388
161	0x3f1509e4	0.58218217
162	0xbeb52ac5	-0.35384193
163	0x3e81bfb5	0.25341573
164	0xbe7f9ad2	-0.24961403
165	0xbf0d7022	-0.55249226
166	0xbd0fc725	-0.03510203
167	0x3f39c728	0.72569513
168	0xbe7885b6	-0.24269757
169	0xbedcaaf3	-0.43099174
170	0x3e0521ca	0.13001171
171	0x3f3bf6ec	0.7342365
172	0xbeb31006	-0.34973162
173	0xbebcffa2	-0.36913782
174	0x3ec7fd2b	0.3906034
175	0x3e8d2804	0.27569592
176	0x3ef30952	0.47468048
177	0x3e3a0700	0.18166733
178	0xbf5a13aa	-0.85186255
179	0x3ecb04b3	0.39652023
180	0x3e926a13	0.28596553
181	0x3ee64863	0.44977102
182	0xbf0c5dc3	-0.5483057
183	0x3dd731d7	0.10507553
184	0xbe881ba1	-0.2658358
185	0x3b844842	0.004036934
186	0x3e5518de	0.20810267
187	0x3eaea429	0.3410962
188	0xbd940cef	-0.072290294
189	0x3e380fbe	0.17974755
190	0x3c080ea0	0.008304268
191	0x3d303579	0.043019745
192	0xbe6d2363	-0.2315803
193	0xbb2fff68	-0.0026855115
194	0x3e691bc9	0.22764505
195	0x3e777d15	0.24168809
196	0xbe98ecef	-0.29868266
197	0x3f3a4b29	0.72770935
198	0x3e8c52cd	0.27406922
199	0x3efeeff8	0.49792457
200	0xbd706a86	-0.05869534
201	0xbe0b024d	-0.13575096
202	0x3eb2185a	0.34784204
203	0x3ec38506	0.38187426
204	0x3e855a67	0.26045534
205	0x3f222948	0.6334424
206	0xbf40d45b	-0.7532403
207	0x3f04bfe0	0.5185528
208	0x3ed11d25	0.40842548
209	0x3e8c6e72	0.27428013
210	0x3f1bb738	0.60826445
211	0xbf336b2d	-0.7008541
212	0xbe09d728	-0.13460982
213	0xbed148f3	-0.40875968
214	0x3db8a60e	0.090160474
215	0xbec396ca	-0.3820098
216	0xbd5068b9	-0.05088112
217	0x3e0c78f6	0.13718018
218	0x3e79223d	0.24329467
219	0xbf39ecd8	-0.7262702
220	0xbf419ea3	-0.75632685
221	0xbe97c947	-0.2964575
222	0x3e8c1dc4	0.2736646
223	0x3e9f8e38	0.31163192
224	0x3ee8a632	0.45439297
225	0xbe3460a0	-0.17614985
226	0xbde325ba	-0.1109118
227	0x3d0599ca	0.032617368
228	0xbaad5490	-0.0013224054
229	0x3ec3f177	0.3827016
230	0xbea2e460	-0.3181486
231	0xbf14dc1e	-0.5814837
232	0x3db0a6e5	0.086255826
233	0xbf14f5d8	-0.5818763
234	0x3ddc1f6a	0.10748179
235	0x3e5e8338	0.21729743
236	0xbe6f963a	-0.2339715
237	0xbf02f18c	-0.5114982
238	0xbd094c4d	-0.03352003
239	0xbed7a05c	-0.42114532
240	0xbea0c404	-0.31399548
241	0xbf1794b1	-0.5921126
242	0xbebd85df	-0.37016198
243	0xbf209d5d	-0.6274012
244	0xbdbcd3d3	-0.0922009
245	0x3ef07253	0.46962222
246	0xbf079496	-0.529611
247	0xbe478368	-0.19483721
248	0x3d2c95ed	0.042135168
249	0xbf17885f	-0.5919246
250	0x3e8c7bf9	0.27438334
251	0xbec381fd	-0.3818511
252	0x3ea05df6	0.31321687
253	0xbe97b715	-0.29631868
254	0xbe26c3c0	-0.1628561
255	0xbecfec0e	-0.40609783

net.2.bias f4 [20]
0	0x3ec9b108	0.39392877
1	0xbeeb28b8	-0.45929503
2	0xbe2c8d32	-0.16850737
3	0x3e5945d9	0.21218051
4	0xbee03d39	-0.4379671
5	0x3eb24ec2	0.34825712
6	0x3f07f985	0.5311511
7	0x3ed49c3a	0.4152544
8	0xbe953576	-0.2914235
9	0x3e12f575	0.14351447
10	0x3e007c93	0.12547521
11	0xbdeaa0bf	-0.11456441
12	0x3e0e4a5a	0.1389555
13	0x3ebe9037	0.37219402
14	0x3eb339f4	0.35005152
15	0x3e8095f7	0.25114414
16	0xbe7f62b7	-0.2494
17	0x3eaf174c	0.34197462
18	0x3ee42b9b	0.44564518
19	0x3d8350c9	0.06411893
