checkpoints/best_model_v3_New.pth (torch, 105175 bytes, 99 tensors)

ini_net.0.weight f4 [20, 2]
0.17879541 0.18893637 0.108176365 0.4601565 0.32404447 -0.38987648 0.047008984 0.43918502
-0.77475506 0.4601933 -0.35936666 -0.2509636 -0.48572105 -0.8187767 -0.48731774 0.4356285
-0.017290927 -0.5785072 0.35009435 0.15520841 -0.3942206 0.047495145 0.087127045 0.22547178
-0.7049752 0.50991124 0.5483241 0.51190966 0.6047926 0.45979753 0.5074818 0.13466886
0.25352025 0.33654812 -0.14769354 0.28615505 -0.04843791 -0.37496978 0.71094924 0.025095377
00000000: 2516 373e 8978 413e 928b dd3d a299 eb3e
00000010: 28e9 a53e e49d c7be 7e8c 403d dcdc e03e
00000020: 5956 46bf 759e eb3e e8fe b7be 4d7e 80be
00000030: 6eb0 f8be 5a9b 51bf b681 f9be b30a df3e
00000040: b4a5 8dbc 0c19 14bf 913f b33e f4ee 1e3e
00000050: 48d7 c9be 458a 423d aa6f b23d 13e2 663e
00000060: 4179 34bf 8b89 023f f85e 0c3f 830c 033f
00000070: b0d3 1a3f 956a eb3e 54ea 013f a2e6 093e
00000080: 68cd 813e 0950 ac3e fa3c 17be ea82 923e
00000090: d466 46bd 0afc bfbe c500 363f d294 cd3c

ini_net.0.bias f4 [20]
0.3284348 0.3182945 0.26624438 -0.34676602 -0.49752688 0.5125671 0.22858985 0.23751274
0.41676462 0.53048575 0.37059423 -0.14952117 0.0817187 0.21915166 -0.43856356 0.19208942
0.12996997 0.4189177 -0.06250967 -0.2619184
00000000: 9b28 a83e 7ff7 a23e 2f51 883e 518b b1be
00000010: d8bb febe 9937 033f 7513 6a3e 8a36 733e
00000020: 2c62 d53e eacd 073f 87be bd3e 141c 19be
00000030: 225c a73d 4b69 603e 678b e0be 17b3 443e
00000040: d916 053e 617c d63e 1205 80bd 2b1a 86be

net.0.weight f4 [20, 20]
-0.21989192 0.19509135 0.5343106 -0.25360212 -0.61749744 -0.06764408 0.14950156 0.10620867
0.45246023 0.6059552 -0.4152273 -0.3766947 -0.4159811 0.7742276 0.3919217 0.2514483
0.82307315 0.6668973 0.07801534 0.2270604 -0.4268562 0.24284677 -0.23909988 -0.47120833
0.16735107 0.52022094 0.20883319 0.52791524 0.51832426 0.008596492 -0.32850242 -0.21157409
0.43853676 0.12662178 0.017155208 -0.21072413 -0.30810687 0.02544939 -0.22885177 -0.20398542
0.62049776 0.1845244 -0.7292918 0.4989108 0.7065211 0.008506468 -0.63006943 -0.31541935
-0.07288691 -0.0010539028 -0.316435 0.8787747 0.39607924 0.14455721 0.3349897 -0.57827985
0.27310684 0.22616617 -0.16616343 0.39689377 0.2534346 0.16347227 -0.041626997 -0.34958363
0.0061127516 0.58334595 0.2998582 0.80295235 0.08809754 -0.3021104 0.35315987 0.16937208
0.075713515 0.3243387 -0.3418401 -0.041388534 0.16572696 -0.08873825 -0.20309736 -0.19999278
-0.26527467 -0.3495157 0.054604314 -0.021798408 -0.077087715 -0.21476467 0.27258062 0.06731337
-0.3407899 -0.34724963 -0.16679308 -0.585794 -0.42044538 -0.47427246 -0.14941612 -0.30327725
-0.28200668 -0.33399445 0.032742262 0.16114922 -0.8154694 -0.23691258 0.22353348 -0.29245985
0.012773583 -0.2788575 -0.1819118 -0.05194203 -0.19530171 -0.66950226 -0.45990553 -0.15877745
0.57918805 0.058952365 0.40528646 -0.30555323 -0.20600648 -0.598877 0.40073267 0.5226192
-0.12864642 0.8201227 -0.25787535 -0.46686426 0.44335943 0.5831196 0.1833642 0.075853385
-0.44408798 0.25653607 0.21918501 -0.5485861 -0.04053846 0.31866056 0.19465375 -0.54875976
0.57310617 0.92298526 -0.42759103 -0.70141274 0.3794395 -0.36479646 0.23794483 -0.36097896
-0.16028021 0.32342654 0.61252594 -0.3403694 0.49333236 0.39668664 0.3118825 -0.43002355
-0.03177123 0.44427687 -0.3964564 0.85428077 -0.30909005 0.0161275 0.0781385 0.023289599
0.03094541 -0.40067524 0.29348645 -0.35345778 0.004214191 -0.85472214 0.06391476 -0.40423474
0.14101972 -0.10353381 -0.32723537 -0.054444037 -0.43559286 -0.2658001 -0.40626764 0.6270033
-0.8744881 -0.64095527 0.8382473 0.45347294 -0.62956804 0.20763698 0.67945045 -0.4647885
-0.38328123 0.2632486 0.61707324 0.14591645 0.43507588 -0.13274561 0.4047707 -0.13576601
-0.14596023 0.31329128 -0.10875956 -0.5933407 -0.06128545 -0.44865915 -0.18648814 -0.43254322
0.45118353 0.14973663 -0.6926111 0.15582046 0.45934466 -0.3960778 -0.54171014 0.10598116
-0.58600634 -0.7836735 0.6582668 0.5236607 0.033861198 0.43095198 0.31377986 -0.70298404
-0.13026659 -0.031105945 0.09379458 0.43893626 -0.31772378 0.14945716 0.6886795 0.3984633
-0.26730666 0.09107396 0.16828528 0.086986765 0.08864391 0.42978892 0.30157888 -0.26760027
-0.113188535 -0.04883062 0.19806643 -0.10037283 0.23115112 -0.6065705 0.39606193 0.3629237
0.12149787 -0.083337165 -0.46812654 0.24006918 -0.0003532366 -0.08743322 0.20593847 0.26378977
0.16559549 -0.32721767 0.17474364 0.05971479 -0.32079223 -0.09309 -0.68748415 0.058262147
00000000: 592b 61be 07c6 473e 94c8 083f 23d8 81be
00000010: 5014 1ebf fb88 8abd f016 193e ee83 d93d
00000020: dea8 e73e e11f 1b3f ac98 d4be 21de c0be
00000030: 7afb d4be c833 463f f6a9 c83e d5bd 803e
00000040: ecb4 523f c8b9 2a3f 82c6 9f3d 8682 683e
00000050: e58c dabe d3ac 783e 99d6 74be 3842 f1be
00000060: 145e 2b3e 332d 053f 5ed8 553e 7425 073f
00000070: e6b0 043f 4dd8 0c3c 7831 a8be e1a6 58be
00000080: e487 e03e 24a9 013e 1489 8c3c 11c8 57be
00000090: 2fc0 9dbe 3d7b d03c 1e58 6abe 8ee1 50be
000000a0: f1d8 1e3f f7f3 3c3e deb2 3abf 3d71 ff3e
000000b0: 91de 343f b65e 0b3c 3b4c 21bf a57e a1be
000000c0: bb45 95bd 1c23 8aba c503 a2be 61f7 603f
000000d0: e6ca ca3e ce06 143e c583 ab3e 260a 14bf
000000e0: a9d4 8b3e 1b98 673e bf26 2abe a935 cb3e
000000f0: 2ec2 813e 4665 273e 1281 2abd a0fc b2be
00000100: 7a4d c83b 2956 153f 0487 993e 498e 4d3f
00000110: 7c6c b43d 37ae 9abe 5fd1 b43e e06f 2d3e
00000120: b00f 9b3d b90f a63e aa05 afbe 0687 29bd
00000130: 54b4 293e 66bc b5bd c1f8 4fbe e8ca 4cbe
00000140: 15d2 87be b9f3 b2be c6a8 5f3d 9392 b2bc
00000150: 2ae0 9dbd 45eb 5bbe b08f 8b3e 98db 893d
00000160: 047c aebe b4ca b1be cecb 2abe 98f6 15bf
00000170: 9e44 d7be d7d3 f2be 8a00 19be 2847 9bbe
00000180: 2e63 90be 5201 abbe c01c 063d 4d04 253e
00000190: 9ac2 50bf 3699 72be f6e5 643e 4cbd 95be
000001a0: 4a48 513c 69c6 8ebe 1647 3abe 2bc1 54bd
000001b0: 2cfd 47be 8064 2bbf bd78 ebbe 8e96 22be
000001c0: ab45 143f 0978 713d b581 cf3e 7971 9cbe
000001d0: 5df3 52be 0150 19bf d52c cd3e 5fca 053f
000001e0: e3bb 03be 90f3 513f 3d08 84be d508 efbe
000001f0: 0200 e33e 5347 153f d3c3 3b3e 0559 9b3d
00000200: 805f e3be b258 833e 0972 603e 2370 0cbf
00000210: a80b 26bd 7a27 a33e 5053 473e 857b 0cbf
00000220: 16b7 123f c348 6c3f 36ed dabe c98f 33bf
00000230: e545 c23e 9ac6 babe cfa7 733e 3cd2 b8be
00000240: 7f20 24be 2a98 a53e 80ce 1c3f e644 aebe
00000250: 0f96 fc3e 831a cb3e 10af 9f3e 0c2c dcbe
00000260: 8d22 02bd 4278 e33e 55fc cabe 25b2 5a3f
00000270: 0d41 9ebe d21d 843c 1407 a03d d4c9 be3c
00000280: 3a81 fd3c 4e25 cdbe db43 963e 6bf8 b4be
00000290: 3217 8a3b 12cf 5abf bee5 823d dbf7 cebe
000002a0: 7967 103e 8909 d4bd 658b a7be b600 5fbd
000002b0: 0706 dfbe f316 88be 5002 d0be 4a83 203f
000002c0: 74de 5fbf a515 24bf 6097 563f 9b2d e83e
000002d0: 5f2b 21bf ca9e 543e 77f0 2d3f c2f8 edbe
000002e0: 703d c4be 85c8 863e 83f8 1d3f 1f6b 153e
000002f0: 44c2 de3e 77ee 07be 1b3e cf3e 3f06 0bbe
00000300: 9976 15be b767 a03e 55bd debd 2de5 17bf
00000310: 7406 7bbd a7b6 e5be bff6 3ebe 4e76 ddbe
00000320: 8701 e73e 8f54 193e f64e 31bf 668f 1f3e
00000330: 392f eb3e b6ca cabe 84ad 0abf a70c d93d
00000340: 8304 16bf d49e 48bf 2c84 283f a10e 063f
00000350: 0ab2 0a3d bda5 dc3e c1a7 a03e c3f6 33bf
00000360: 9b64 05be e5d1 febc 5f17 c03d 41bc e03e
00000370: b1ac a2be 4c0b 193e 4d4d 303f 6203 cc3e
00000380: 6bdc 88be fc84 ba3d fa52 2c3e 1e26 b23d
00000390: f08a b53d 4b0d dc3e 8c68 9a3e e702 89be
000003a0: 64cf e7bd 9e02 48bd edd1 4a3e 4590 cdbd
000003b0: e1b2 6c3e 3448 1bbf a1c8 ca3e 23d1 b93e
000003c0: e0d3 f83d adac aabd 48ae efbe b2d4 753e
000003d0: 9d32 b9b9 3010 b3bd 89e1 523e 740f 873e
000003e0: dd91 293e 1389 a7be ffef 323e 7f97 743d
000003f0: e13e a4be f8a5 bebd f6fe 2fbf 4aa4 6e3d

net.0.bias f4 [20]
-0.1704668 -0.0758747 0.08907752 -0.21499266 0.035185326 0.3850249 -0.031896096 0.12915774
0.14304025 -0.19623612 0.34684375 -0.14405365 0.18230462 -0.16423787 0.65358984 0.45526946
-0.055348318 -0.17424007 0.3249727 -0.021446044
00000000: d98e 2ebe 3264 9bbd 466e b63d 0927 5cbe
00000010: 7d1e 103d fc21 c53e 7ba5 02bd ed41 043e
00000020: 2579 123e 1ff2 48be 8195 b13e cd82 13be
00000030: 10ae 3a3e f92d 28be aa51 273f 1419 e93e
00000040: ebb4 62bd fd6b 32be d262 a63e 9daf afbc

net.2.weight f4 [20, 20]
-0.50708103 -0.1856784 0.37611473 -0.54785347 0.5314501 1.0149772 -0.80684423 -0.3429363
0.6903942 -0.44506744 0.40310165 -0.4776729 -0.033265408 -1.2328391 0.5493465 -0.2614035
-1.1178522 -1.1649948 0.22638626 -0.51727766 -0.5730462 -0.25123933 0.42775 0.20129831
0.8289047 0.60625917 -0.3393786 -0.82693285 0.30804658 -0.40767765 0.6809216 -1.0179642
-0.32920584 -0.6107975 -0.8044498 -0.8986482 -0.7031369 -0.6336337 -0.07898142 -0.53801334
-0.54918116 0.05992507 0.24985115 -0.24721333 0.09493696 0.5501818 -0.32448608 0.37523288
0.3240353 -0.41614878 0.3731565 -0.26745543 0.13096434 -0.25018317 0.40251517 0.02093609
0.37998283 -0.22375973 -0.15881902 -0.6089748 -0.25442526 0.2719312 0.59580296 0.10956027
0.27306187 0.35614687 0.23258288 -0.10388453 0.15645754 -0.16089325 0.19019143 -0.08600049
0.20474379 0.07902808 0.16435517 0.4784255 -0.06292642 0.08697956 -0.33224198 -0.6191031
-0.5821787 -0.2895381 0.5061628 -0.03848584 -0.4545957 -0.0721428 0.034952626 -0.34764054
0.024327112 -0.52071595 0.025500696 -0.4876613 0.66856056 0.0014024302 -0.39214486 0.2815083
-0.19378135 -0.45300797 -0.34986678 -0.6297957 0.02471345 0.49274138 0.29951355 0.27423912
-0.033229 -0.11535356 0.47329846 0.3994387 -0.16554324 0.09291226 -0.41582775 0.35234085
-0.14205165 0.1252201 0.6107226 0.40141287 0.50421333 0.03455038 -0.59158254 0.21063593
0.78366536 -0.31823477 -0.59919375 0.5542086 -0.17587428 -0.64351296 1.0641234 0.080407016
-0.78852516 1.0458777 -0.98137504 1.157032 -0.39472172 0.48481193 -0.05333332 0.52161425
0.62482715 0.9379465 -0.5159042 0.124389015 -0.020341143 -0.4707302 -0.47312638 0.034324292
-0.09707966 -0.054346316 -0.32477796 0.262384 0.31654805 -0.7769848 -0.26741546 -0.17540535
0.05965358 -0.34247044 0.035874557 0.042230543 0.06562741 -0.6337355 0.36000577 0.36842665
0.017879073 -0.5358792 0.44427913 -0.6496506 -0.19019565 0.24691066 -0.6071738 0.35829613
0.5900814 -0.6484441 0.838041 0.20325784 -0.16966552 -0.12511493 0.14961916 0.02755245
0.21362895 -0.21238858 0.161348 -0.10972013 -0.011161855 0.21576205 0.11258467 0.2894204
-0.3965231 -0.6590073 0.25642502 0.2890497 -0.32040647 0.18153642 0.61810446 -0.23190905
-0.92531204 -0.25530377 0.28164133 -0.45144328 0.575449 -0.15896122 -0.039635144 0.10780205
-0.25166708 -0.1252387 -0.22550224 -0.46636474 0.23089519 0.85081947 -0.14281568 -0.03542418
-0.053324774 0.019025562 0.6506979 -0.48357427 0.21750067 -0.058867335 0.4316514 -0.096885346
0.040033028 -0.6922355 0.0055423016 0.4800737 0.73015165 0.035093375 -0.3749175 0.45440695
-0.08629263 -0.027176294 0.017359596 -0.48783416 -0.46612057 0.6531126 -0.32712424 0.53976685
-0.050913233 0.34362656 -0.82478774 -0.8673633 0.2982264 0.21933916 -0.88559616 -0.014098096
-0.2772051 -0.14018367 0.36155605 -0.70146334 -0.12533325 0.94695985 -0.34466422 -0.50408
0.2555203 0.04679539 0.16060485 -0.46062058 0.44072393 -0.23276246 0.91815436 0.14835519
00000000: 10d0 01bf 7a22 3ebe 1c92 c03e 2040 0cbf
00000010: 1d0d 083f c6ea 813f 588d 4ebf 5995 afbe
00000020: adbd 303f e1df e3be 5763 ce3e 8b91 f4be
00000030: 4f41 08bd accd 9dbf f9a1 0c3f aed6 85be
00000040: c815 8fbf 8d1e 95bf cdd1 673e 4f6c 04bf
00000050: 28b3 12bf 71a2 80be 0c02 db3e 2521 4e3e
00000060: 1933 543f cd33 1b3f 08c3 adbe dfb1 53bf
00000070: 48b8 9d3e 20bb d0be e150 2e3f a74c 82bf
00000080: ab8d a8be 3a5d 1cbf 6cf0 4dbf cf0d 66bf
00000090: c800 34bf d135 22bf 03c1 a1bd 3ebb 09bf
000000a0: 2397 0cbf fd73 753d fbd8 7f3e 7e25 7dbe
000000b0: 4f6e c23d b7d8 0c3f 0a23 a6be 861e c03e
000000c0: f4e7 a53e 7411 d5be 5e0e bf3e ebef 88be
000000d0: 841b 063e 0218 80be 7816 ce3e 2a82 ab3c
000000e0: 1c8d c23e 4521 65be 74a1 22be c6e5 1bbf
000000f0: 0744 82be 913a 8b3e 8b86 183f 2361 e03d
00000100: c4ce 8b3e e258 b63e 352a 6e3e 6ac1 d4bd
00000110: 6836 203e 33c1 24be 8bc1 423e 0621 b0bd
00000120: 5ba8 513e 79d9 a13d b94c 283e 30f4 f43e
00000130: 91df 80bd 5722 b23d 9f1b aabe 8a7d 1ebf
00000140: aa09 15bf 563e 94be e393 013f 54a3 1dbd
00000150: c5c0 e8be 9bbf 93bd 7c2a 0f3d f1fd b1be
00000160: a749 c73c a44d 05bf d6e6 d03c beae f9be
00000170: c926 2b3f c0d1 b73a 36c7 c8be db21 903e
00000180: 9e6e 46be a9f0 e7be bd21 b3be 4a3a 21bf
00000190: dc73 ca3c 9948 fc3e d759 993e 1269 8c3e
000001a0: 221b 08bd 7d3e ecbd 2d54 f23e 3b83 cc3e
000001b0: 2b84 29be c848 be3d 60e7 d4be 0566 b43e
000001c0: fd75 11be b339 003e 5158 1c3f fd85 cd3e
000001d0: 2014 013f b384 0d3d f471 17bf f2b0 573e
000001e0: 4b9e 483f abef a2be c364 19bf 9de0 0d3f
000001f0: 6318 34be 44bd 24bf 3235 883f 6fac a43d
00000200: c9dc 49bf 52df 853f 653b 7bbf a019 943f
00000210: f718 cabe 4539 f83e 0a74 5abd 8388 053f
00000220: acf4 1f3f 431d 703f 4c12 04bf abbf fe3d
00000230: 78a2 a6bc 8c03 f1be 9f3d f2be a197 0c3d
00000240: b3d1 c6bd 3e9a 5ebd 4c49 a6be 3257 863e
00000250: 9612 a23e 7ae8 46bf aeea 88be 769d 33be
00000260: 5057 743d 4958 afbe 33f1 123d eff9 2c3d
00000270: aa67 863d 7d3c 22bf ad52 b83e 6ba2 bc3e
00000280: 2277 923c 612f 09bf 8e78 e33e 804f 26bf
00000290: a6c2 42be 26d6 7c3e be6f 1bbf 9772 b73e
000002a0: 930f 173f 6f00 26bf db89 563f d322 503e
000002b0: ccbc 2dbe 211e 00be c435 193e adb5 e13c
000002c0: 8cc1 5a3e 647c 59be 6938 253e f3b4 e0bd
000002d0: 37e0 36bc baf0 5c3e cb92 e63d e92e 943e
000002e0: 1305 cbbe b4b4 28bf 244a 833e 53fe 933e
000002f0: 510c a4be afe4 393e 183c 1e3f 9179 6dbe
00000300: 40e1 6cbf 2db7 82be 4b33 903e 9323 e7be
00000310: a050 133f bbc6 22be 7658 22bd 52c7 dc3d
00000320: 82da 80be 933e 00be 0fea 66be 5cc7 eebe
00000330: ca6f 6c3e 4ecf 593f 463e 12be f218 11bd
00000340: 146b 5abd 7fdb 9b3c 2394 263f 0c97 f7be
00000350: 7fb8 5e3e e01e 71bd 6a01 dd3e d36b c6bd
00000360: acf9 233d 5936 31bf 329c b53b 38cc f53e
00000370: 38eb 3a3f 12be 0f3d 30f5 bfbe 07a8 e83e
00000380: 31ba b0bd d2a0 debc b635 8e3c 66c5 f9be
00000390: 5ba7 eebe 6332 273f d47c a7be 292e 0a3f
000003a0: 658a 50bd d2ef af3e 4a25 53bf 850b 5ebf
000003b0: 21b1 983e 729a 603e 6eb6 62bf b3fb 66bc
000003c0: d4ed 8dbe 4f8c 0fbe e01d b93e 1a93 33bf
000003d0: 5c57 00be f66b 723f d477 b0be 630b 01bf
000003e0: 8fd3 823e 86ac 3f3d 9975 243e 76d6 ebbe
000003f0: 91a6 e13e 4859 6ebe 2a0c 6b3f 6cea 173e

net.2.bias f4 [20]
0.20721786 -0.3565324 0.37305152 0.16133814 0.1274497 0.29830965 -0.33385456 0.3075956
0.4870466 0.0996376 0.26125076 -0.5525615 0.46312743 -0.22308667 -0.210166 -0.0150146745
-0.28509197 0.19413516 -0.17421094 -0.30174258
00000000: eb30 543e 6a8b b6be 9c00 bf3e d335 253e
00000010: 2d82 023e 0bbc 983e fcee aabe 2c7d 9d3e
00000020: 2c5e f93e cc0e cc3d a9c2 853e ac74 0dbf
00000030: 0a1f ed3e d570 64be c235 57be 1c00 76bc
00000040: 93f7 91be 5ecb 463e 5a64 32be 017e 9abe

net.4.weight f4 [20, 20]
-0.018746551 -0.6249829 0.2426086 -0.55332977 -0.65535593 0.71519625 1.6101109 -0.8394203
-0.30903262 -0.31834486 -0.27026933 -0.03483087 -1.0461432 -0.2920519 0.96408963 1.999135
2.151493 0.78467935 0.3451865 0.84299713 0.15230606 -0.003376719 0.71194744 0.18376212
0.120546654 0.35741574 -0.038938016 0.42810148 -0.2706184 0.149449 -0.22355197 -0.5537982
-0.2763859 -0.54323786 0.024131626 0.2921915 -0.17091484 -0.3389964 -0.29513368 0.23457624
-0.13807242 -0.07816435 -0.6559905 0.034293983 -0.04649216 -0.547302 -0.3675256 -0.88342726
-1.0817181 0.42725116 -0.60912293 0.99246526 -0.6202004 -0.053609125 0.8669004 -0.12517819
0.78378445 -0.044763617 -0.45078304 0.7879727 0.099511355 -0.118191265 0.31807747 0.15452811
-0.1743275 0.8508311 0.3499132 -0.61179775 0.11818246 0.420747 0.12382791 -0.5133462
-0.2137057 -0.35381243 -0.2730026 0.36343414 0.32915282 -0.10090299 0.75939804 0.34968463
-0.7616184 0.22662139 0.06427979 -0.2582618 -0.11829526 -0.11296745 0.33560088 -0.17755716
-0.37014854 -0.097220555 -0.7855825 0.7493401 -1.204487 -0.26687875 0.13964002 0.7492182
0.56389433 -0.13165031 -0.3618423 0.76925206 0.08089653 0.8054464 -0.07216276 0.4458493
0.402763 -0.6544875 -0.38910994 -0.07853628 0.19499682 -0.082842536 -0.32111984 0.71641856
-0.37036812 0.5545621 0.2944743 0.061872564 -0.1759699 0.5663856 -0.35741484 -0.18708707
0.37627548 -0.41170084 0.31062397 0.20299444 0.63770086 0.27998447 0.1521317 0.413212
0.4053615 -0.27396372 0.5855469 -0.8431377 0.4323516 -0.51191276 -0.4820851 -0.27601036
-0.19583529 -0.0415161 -0.25661466 -0.5332362 0.15756734 -0.105970435 0.5384358 -0.1401221
0.61180323 0.12958495 -1.3466381 0.1652321 0.0881009 -0.39780372 0.38746977 -0.29721528
0.90693766 -0.32894924 -0.16663493 -0.2757107 -0.49874026 0.1060064 -0.5556852 -0.6465152
-0.88285536 0.049669765 0.20219131 -0.24760589 -0.3967655 -0.29914612 0.83683825 -0.5552958
-0.6700213 0.20462823 0.025199063 -0.13096407 -0.7456972 -0.5815941 0.016863374 0.9276219
0.74046546 -0.3887344 0.9722475 -0.1252539 0.41279605 -0.42152292 0.20502746 0.2509174
0.4087989 -0.10065612 -0.6033251 -0.5113218 0.39593259 -0.6772168 0.60577327 -0.32523045
0.47894946 -0.22540514 0.03180115 -0.54547423 -0.16396168 -0.10590496 -0.30869862 -0.28271216
-0.81865746 -0.77134883 0.40297478 -0.40871054 -0.11842834 0.42985243 0.5264141 -0.09218169
0.5306237 0.6976505 0.53530514 -0.30839372 0.13822496 -0.69711804 0.42471758 0.0062161232
0.21848606 -0.31242025 0.439106 0.6160615 0.5958742 -0.5005328 0.5379372 0.298729
-0.10389825 0.08340732 -0.019772464 0.4362871 -0.03040779 -0.17286211 0.3478607 -0.4497774
0.18307519 -0.061532013 -0.20904681 -0.481662 -0.6008819 0.264247 0.41233048 0.1611152
0.1677359 -0.33462176 0.13736993 0.105316244 0.5604295 0.30396184 0.35174748 -0.063549384
-0.3280773 0.11494548 -0.35322687 0.14421254 -0.25879523 -0.20642112 0.29329288 -0.12484374
00000000: 5e92 99bc e1fe 1fbf 646e 783e 05a7 0dbf
00000010: 68c5 27bf 1a17 373f 1d18 ce3f 40e4 56bf
00000020: 8639 9ebe 19fe a2be be60 8abe d0aa 0ebd
00000030: 05e8 85bf d487 95be 94ce 763f a8e3 ff3f
00000040: 10b2 0940 bfe0 483f 49bc b03e a9ce 573f
00000050: 1ff6 1b3e f24b 5dbb 3042 363f 232c 3c3e
00000060: 2ae1 f63d 32ff b63e 787d 1fbd 1e30 db3e
00000070: 7f8e 8abe 2909 193e cfea 64be b8c5 0dbf
00000080: 7482 8dbe a311 0bbf b0af c53c 209a 953e
00000090: 4d04 2fbe f090 adbe c31b 97be c134 703e
000000a0: db62 0dbe a114 a0bd feee 27bf d977 0c3d
000000b0: 906e 3ebd fc1b 0cbf 512c bcbe 4a28 62bf
000000c0: bd75 8abf aac0 da3e 7bef 1bbf 3412 7e3f
000000d0: 74c5 1ebf 3e95 5bbd 2fed 5d3f b62e 00be
000000e0: 19a6 483f 0e5a 37bd 09cd e6be 94b8 493f
000000f0: 9ccc cb3d 430e f2bd 0ddb a23e 9e3c 1e3e
00000100: e882 32be 11d0 593f d327 b33e c79e 1cbf
00000110: a509 f23d 276c d73e 7d99 fd3d a86a 03bf
00000120: abd5 5abe e726 b5be ffc6 8bbe 0a14 ba3e
00000130: b886 a83e 3aa6 cebd e967 423f dd09 b33e
00000140: 6cf9 42bf 700f 683e 1fa5 833d e43a 84be
00000150: c944 f2bd 7a5b e7bd e1d3 ab3e 8bd1 35be
00000160: 1c84 bdbe 921b c7bd ef1b 49bf c1d4 3f3f
00000170: a12c 9abf 55a4 88be cbfd 0e3e c4cc 3f3f
00000180: 615b 103f 57cf 06be 6543 b9be b4ed 443f
00000190: 14ad a53d bc31 4e3f 12ca 93bd 5c46 e43e
000001a0: f436 ce3e 7e8c 27bf 6b39 c7be a1d7 a0bd
000001b0: 3fad 473e 59a9 a9bd d269 a4be 3567 373f
000001c0: e4a0 bdbe c8f7 0d3f 56c5 963e 166e 7d3d
000001d0: 7431 34be a6fe 103f 14ff b6be c193 3fbe
000001e0: 2ea7 c03e 74ca d2be 1b0a 9f3e c6dd 4f3e
000001f0: 5d40 233f 205a 8f3e 6ac8 1b3e 8690 d33e
00000200: 8b8b cf3e f944 8cbe 67e6 153f dfd7 57bf
00000210: 305d dd3e b70c 03bf dcd3 f6be 3b51 8dbe
00000220: 0c89 48be c90c 2abd ff62 83be 2b82 08bf
00000230: 5559 213e 0707 d9bd eed6 093f 2b7c 0fbe
00000240: 239f 1c3f ebb1 043e a35e acbf 9b32 293e
00000250: 3f6e b43d eeac cbbe 7062 c63e 9a2c 98be
00000260: 112d 683f 096c a8be 59a2 2abe f429 8dbe
00000270: e25a ffbe e219 d93d 6341 0ebf 0582 25bf
00000280: cf02 62bf 8672 4b3d 3d0b 4f3e 668c 7dbe
00000290: d924 cbbe ae29 99be 083b 563f de27 0ebf
000002a0: 8486 2bbf 108a 513e 446e ce3c 721b 06be
000002b0: 03e6 3ebf 5ae3 14bf 0f25 8a3c a178 6d3f
000002c0: 258f 3d3f 3208 c7be 36e5 783f 8f42 00be
000002d0: 015a d33e dad1 d7be b8f2 513e 3f78 803e
000002e0: 174e d13e cc24 cebd 8473 1abf fce5 02bf
000002f0: adb7 ca3e 155e 2dbf f513 1b3f 9b84 a6be
00000300: dd38 f53e 9bd0 66be ec41 023d 33a4 0bbf
00000310: 92e5 27be b3e4 d8bd bf0d 9ebe a6bf 90be
00000320: 8993 51bf 1e77 45bf b652 ce3e 8242 d1be
00000330: 8f8a f2bd 9e15 dc3e 13c3 063f c1c9 bcbd
00000340: f4d6 073f 3999 323f c209 093f c8e5 9dbe
00000350: d88a 0d3e 5476 32bf 9574 d93e 9fb0 cb3b
00000360: cfba 5f3e 8cf5 9fbe 80d2 e03e 35b6 1d3f
00000370: 368b 183f eb22 00bf 41b6 093f 02f3 983e
00000380: 9bc8 d4bd 75d1 aa3d ddf9 a1bc 0661 df3e
00000390: c219 f9bc c402 31be cc1a b23e 3949 e6be
000003a0: 1078 3b3e fe08 7cbd 5e10 56be 679c f6be
000003b0: 65d3 19bf 624b 873e fb1c d33e 62fb 243e
000003c0: f6c2 2b3e 8b53 abbe b4aa 0c3e 0bb0 d73d
000003d0: 4f78 0f3f e3a0 9b3e 3f18 b43e 2e26 82bd
000003e0: bff9 a7be 8968 eb3d 27da b4be 74ac 133e
000003f0: cf80 84be 0f60 53be 7c2a 963e 13ae ffbd

net.4.bias f4 [20]
0.42191195 0.3050668 -0.2587864 0.30013224 -0.1078804 -0.45708457 0.21788739 0.11816182
-0.10531738 0.31356907 0.19326136 -0.009351727 -0.008459406 -0.34985244 -0.33592522 -0.23215619
0.23098285 -0.05054589 0.040550023 -0.13362561
00000000: d804 d83e b731 9c3e a77f 84be efaa 993e
00000010: 66f0 dcbd fd06 eabe df1d 5f3e d3fe f13d
00000020: a3b0 d7bd 208c a03e 4ee6 453e fc37 19bc
00000030: 5299 0abc dc1f b3be 64fe abbe 5aba 6dbe
00000040: c586 6c3e 3509 4fbd c817 263d 27d5 08be

net.6.weight f4 [20, 20]
-0.041844446 -0.10638018 -0.4239355 0.014704466 0.064722955 0.28029943 0.05008916 -0.0082116015
-0.3499862 0.17783025 -0.50762224 -0.12444997 -0.097674266 -0.56355804 0.0008175113 0.5172054
-0.021967463 -0.5756998 -0.5495452 0.0007045144 0.24081987 -0.064692244 0.004834778 0.35449928
-0.29972908 -0.30599624 0.15737614 -0.13337822 0.62183774 -0.11189202 0.5465894 0.28832024
-0.34006354 0.39027545 -0.5844846 -0.6372759 0.59500957 0.505649 -0.04287903 0.17907608
-0.2586927 0.37838978 0.8116593 0.26548085 0.6536612 0.08235728 -0.43877995 -0.639533
-0.22191723 -0.83918047 -0.038455307 -0.23049961 0.09096348 0.14404075 0.19000885 -0.24692233
-0.83481264 0.38134134 -0.1338708 0.553726 0.30916253 0.4828788 0.18029885 0.3996242
-0.43003348 -0.4209899 0.6480077 -0.27159905 -0.034256812 0.37099892 0.4140963 0.63833696
0.4145762 0.5478617 -0.13334636 -0.06980413 -0.008727811 0.16259134 0.6036951 -0.43444702
0.32203087 0.032299317 -0.51009846 -0.01566545 -0.3190975 -0.3237505 1.0130014 0.10529291
-0.19797045 0.63612336 0.21753807 -0.106104344 0.07431896 0.49250984 0.08616973 -0.087534636
0.3629258 0.036676053 0.09928628 0.0017125503 0.08699852 -0.28022286 0.07200012 -0.19916005
0.06500327 0.2564207 -0.2686089 0.46720678 -0.17436603 0.60968286 -0.32459596 -0.30266416
-0.5764595 -0.3543624 0.8288674 -0.3656486 0.6071613 0.8391493 0.25081018 0.084973566
-0.44068614 0.020490305 -0.8065801 0.008642588 -0.44770107 -0.30077788 0.5757805 0.72486895
-0.45742157 0.24965903 0.3913448 0.24310628 -0.29548952 -0.552945 -0.1813586 -0.17236806
0.32345363 -0.13836499 -0.15468396 -0.34785062 0.23466012 -0.27670303 0.53154135 -0.48853695
0.6291323 0.15197931 -0.7776422 -0.06818742 -0.4406153 -0.22260591 -0.41864493 -0.28264585
0.08539232 -0.59486634 0.17255613 0.026070343 -0.17656462 0.2706864 -0.052218273 0.10369734
-0.19881174 -0.3381988 0.7562008 -0.5316495 0.15666091 0.41483045 -0.20696132 -0.5940579
-0.612646 -0.26621675 -0.3609569 -0.372785 0.21255136 -0.55799 0.46161306 0.10613564
-0.3991598 -0.74241436 -0.44632322 -0.10274479 0.015695713 0.71941876 0.64944714 0.29881954
-0.95763826 -0.5244072 -0.39858347 0.006039569 0.5674275 -0.2416711 0.3958811 0.6233137
-0.60305625 0.17471653 -0.20737444 -0.3709254 0.07500849 0.6147957 0.43935266 0.49675927
0.34026206 -0.68088955 -0.035618007 -0.25420627 -0.78690624 -0.023246108 -0.6513772 -0.2740542
-0.13832043 -0.43585876 -0.1384297 -0.3603599 -0.12739159 -0.24558502 0.486217 0.43934354
-0.21951154 -0.6242678 -0.34282404 0.083311476 0.14413327 -0.5328005 0.48007944 -0.49958098
0.39396694 -0.3031374 -0.7781119 -0.3607272 -0.12996809 -0.746038 0.13771379 -0.22781183
-0.09909964 -0.21254952 0.23258436 -0.03184139 0.34542263 -0.14033629 -0.5806046 0.383377
0.20563816 0.38641497 -0.28176942 0.26355064 -0.46394354 -0.52379614 0.25456122 0.0933375
0.6541465 0.04978347 0.8619044 0.06318734 -0.18771257 0.41841418 -0.58047515 -0.6324936
00000000: 1565 2bbd dadd d9bd 130e d9be 00eb 703c
00000010: 788d 843d 6883 8f3e 4b2a 4d3d f489 06bc
00000020: 6431 b3be 2219 363e 88f3 01bf a0df febd
00000030: 7209 c8bd 5745 10bf 414e 563a 9367 043f
00000040: 1cf5 b3bc 1061 13bf ffae 0cbf 29af 383a
00000050: 7c99 763e 5e7d 84bd 0f6d 9e3b ee80 b53e
00000060: 1776 99be 8aab 9cbe 3627 213e 4d94 08be
00000070: c230 1f3f a527 e5bd 48ed 0b3f b69e 933e
00000080: cf1c aebe 2fd2 c73e c8a0 15bf 8324 23bf
00000090: 8c52 183f 3672 013f eca1 2fbd b85f 373e
000000a0: 5f73 84be 4ebc c13e e7c8 4f3f 1bed 873e
000000b0: 5756 273f efaa a83d c4a7 e0be 6fb8 23bf
000000c0: 453e 63be 88d4 56bf 5083 1dbd 1708 6cbe
000000d0: 104b ba3d 6b7f 133e ae91 423e 35d9 7cbe
000000e0: 48b6 55bf 2c3f c33e 6d15 09be fdc0 0d3f
000000f0: 8d4a 9e3e e43b f73e 43a0 383e 8b9b cc3e
00000100: 592d dcbe fd8b d7be d5e3 253f 080f 8bbe
00000110: df50 0cbd 92f3 bd3e 6e04 d43e 0d6a 233f
00000120: 5543 d43e aa40 0c3f f38b 08be 78f5 8ebd
00000130: 18ff 0ebc 587e 263e c38b 1a3f d76f debe
00000140: 3be1 a43e 4a4c 043d d095 02bf d454 80bc
00000150: bf60 a3be a0c2 a5be 08aa 813f cfa3 d73d
00000160: c4b8 4abe fbd8 223f 4dc2 5e3e 3c4d d9bd
00000170: 8a34 983d 402a fc3e c179 b03d 5c45 b3bd
00000180: 69d1 b93e a139 163d 9b56 cb3d a777 e03a
00000190: 482c b23d 5f79 8fbe cd74 933d 9df0 4bbe
000001a0: 6f20 853d 9349 833e 1b87 89be ba35 ef3e
000001b0: 028d 32be 2d14 1c3f 7131 a6be ccf6 9abe
000001c0: da92 13bf fd6e b5be a730 543f 4b36 bbbe
000001d0: ec6e 1b3f 7dd2 563f 316a 803e 9f06 ae3d
000001e0: 9da1 e1be 49db a73c 097c 4ebf a499 0d3c
000001f0: 1339 e5be 8fff 99be 5a66 133f 0391 393f
00000200: 2933 eabe 9ea6 7f3e 585e c83e daf0 783e
00000210: 674a 97be ce8d 0dbf 12b6 39be 4181 30be
00000220: b79b a53e 8daf 0dbe 7965 1ebe 7a19 b2be
00000230: be4a 703e 05ac 8dbe 1813 083f 8421 fabe
00000240: d00e 213f 77a0 1b3e 8f13 47bf d9a5 8bbd
00000250: 5498 e1be cef2 63be a158 d6be f5b6 90be
00000260: 2be2 ae3d 2949 18bf 8eb2 303e 7991 d53c
00000270: 5bcd 34be 6897 8a3e d4e2 55bd 455f d43d
00000280: 4e95 4bbe 6528 adbe 6096 413f 2e1a 08bf
00000290: b86b 203e a864 d43e abed 53be 2e14 18bf
000002a0: 5ed6 1cbf 904d 88be 58cf b8be addd bebe
000002b0: 10a7 593e 6fd8 0ebf 8c58 ec3e a45d d93d
000002c0: ac5e ccbe de0e 3ebf 7a84 e4be dc6b d2bd
000002d0: 4c94 803c d42b 383f 2b42 263f e0fe 983e
000002e0: c827 75bf 8d3f 06bf 2213 ccbe 94e7 c53b
000002f0: ee42 113f a178 77be edb0 ca3e 7d91 1f3f
00000300: e561 1abf e4e8 323e f759 54be efe9 bdbe
00000310: 0d9e 993d 4063 1d3f d5f2 e03e 3b57 fe3e
00000320: d436 ae3e c74e 2ebf 30e4 11bd 5327 82be
00000330: b072 49bf 9f6e bebc a8c0 26bf d550 8cbe
00000340: dfa3 0dbe e128 dfbe 84c0 0dbe 1881 b8be
00000350: f172 02be a47a 7bbe 6ff1 f83e a3f1 e03e
00000360: a2c7 60be 04d0 1fbf a286 afbe 359f aa3d
00000370: ac97 133e 9d65 08bf f9cc f53e 14c9 ffbe
00000380: 09b6 c93e d334 9bbe 5732 47bf 3cb1 b8be
00000390: 5b16 05be 59fc 3ebf d804 0d3e 8147 69be
000003a0: c1f4 cabd 95a6 59be 982a 6e3e 1e6c 02bd
000003b0: 3cdb b03e 51b4 0fbe 81a2 14bf fd49 c43e
000003c0: cf92 523e 2fd8 c53e 1544 90be 1cf0 863e
000003d0: 028a edbe 8117 06bf d955 823e bb27 bf3d
000003e0: 2576 273f c0e9 4b3d c4a5 5c3f 5d68 813d
000003f0: b937 40be 623a d63e 059a 14bf 1aeb 21bf

net.6.bias f4 [20]
-0.057501413 0.36065438 0.19964941 0.06640847 -0.04298535 -0.4573012 0.0783703 0.04548901
-0.033870112 0.29860198 -0.06020041 0.0220977 0.40470344 0.12757617 0.038539298 -0.44824865
0.1035194 -0.011484233 -0.17034544 0.30782142
00000000: 9a86 6bbd b1a7 b83e e570 4c3e 2a01 883d
00000010: 6811 30bd 6223 eabe 9c80 a03d af52 3a3d
00000020: 63bb 0abd 5ce2 983e b594 76bd 3c06 b53c
00000030: 4a35 cf3e 54a3 023e 62db 1d3d d980 e5be
00000040: fb01 d43d 5d28 3cbc 096f 2ebe c59a 9d3e

out_net.0.weight f4 [1, 20]
-1.8330572 1.3764129 -1.2265257 1.6810751 1.4870209 -1.5103194 1.0119888 -1.6422584
-1.3028556 1.5647572 -1.1316711 -1.4018445 1.052948 1.6394356 -1.7465754 -1.6496454
-2.0544808 1.2979232 -1.8881345 1.8278378
00000000: 9ea1 eabf 4c2e b03f cbfe 9cbf 782d d73f
00000010: b356 be3f 2552 c1bf d988 813f 8635 d2bf
00000020: f9c3 a6bf f749 c83f 99da 90bf a46f b3bf
00000030: 00c7 863f 07d9 d13f c88f dfbf 9527 d3bf
00000040: 9d7c 03c0 5922 a63f 64ae f1bf 97f6 e93f

ini_net.0.weight f4 [20, 2]
0.070092306 -0.4106809 0.04825477 0.35040766 0.001994076 -0.25955456 -0.25853983 0.005619463
-0.16217291 0.49480847 -0.37602818 0.32987776 -0.37570024 0.0021488813 -0.1951727 0.13223256
-0.54504716 -0.29534352 0.48386124 -0.15708792 -0.5210841 0.12149007 -0.2328933 -0.14455585
-0.5207035 -0.07808494 -0.08237451 0.21352454 0.34738883 0.26533905 0.6625638 -0.51938194
0.4724201 0.49334145 0.19304065 0.34129983 0.34398255 -0.060317658 0.2672694 -0.06787204
00000000: 8e8c 8f3d c444 d2be cba6 453d a268 b33e
00000010: 0baf 023b 56e4 84be 555f 84be 7923 b83b
00000020: a810 26be 8957 fd3e c486 c0be bde5 a83e
00000030: c85b c0be 3fd4 0c3b 5adb 47be f967 073e
00000040: 3688 0bbf 4437 97be a9bc f73e a8db 20be
00000050: c465 05bf c9cf f83d 957b 6ebe 7306 14be
00000060: d34c 05bf ffea 9fbd f8b3 a8bd 2da6 5a3e
00000070: f3dc b13e 85da 873e c89d 293f 37f6 04bf
00000080: 0ce1 f13e 4097 fc3e 73ac 453e dabe ae3e
00000090: 7b1e b03e a60f 77bd 89d7 883e 7f00 8bbd

ini_net.0.bias f4 [20]
0.3284348 0.3182945 0.26624438 -0.34676602 -0.49752688 0.5125671 0.22858985 0.23751274
0.41676462 0.53048575 0.37059423 -0.14952117 0.0817187 0.21915166 -0.43856356 0.19208942
0.12996997 0.4189177 -0.06250967 -0.2619184
00000000: 9b28 a83e 7ff7 a23e 2f51 883e 518b b1be
00000010: d8bb febe 9937 033f 7513 6a3e 8a36 733e
00000020: 2c62 d53e eacd 073f 87be bd3e 141c 19be
00000030: 225c a73d 4b69 603e 678b e0be 17b3 443e
00000040: d916 053e 617c d63e 1205 80bd 2b1a 86be

net.0.weight f4 [20, 20]
-0.2528007 0.5686024 0.48034033 0.14747608 -0.5452514 0.3751714 0.31304953 -0.04276875
0.2651076 0.65913767 -0.040857732 0.029253952 -0.47945437 0.717843 0.36388034 0.31469226
0.27533385 0.2746777 0.33006105 0.29170042 -0.38685295 0.10688255 -0.05442132 -0.58636075
0.05834739 0.5651599 0.12706542 0.5887848 0.11626574 0.08189997 -0.35001826 -0.5966895
0.047561746 -0.22599094 -0.23849332 -0.43945777 -0.17788772 -0.42584193 0.25991273 -0.4165377
0.5340159 -0.08379782 -0.5538209 -0.047482464 0.63125235 -0.5286497 -0.008722804 -0.15261912
-0.48861235 -0.28069285 0.006147519 0.73802716 0.6443437 0.14038728 0.10178866 0.05102802
0.097230725 0.5116622 0.37200177 -0.10571142 0.11191104 0.38928932 0.3046341 -0.46811634
0.16919987 0.21059158 -0.16643931 0.42415568 0.49027205 0.14484328 0.3373174 -0.27863395
0.47914538 0.034975883 -0.39213663 -0.2189454 0.122377746 -0.03078319 -0.39755285 0.050351165
-0.48239905 -0.7319758 -0.17142007 0.1484494 -0.11437406 -0.07262105 -0.09864698 0.032208532
0.3177121 -0.6240438 -0.51184994 -0.6533138 0.10518622 -0.86983097 -0.1603676 -0.17289127
-0.6285865 -0.22681262 -0.0060623703 -0.3008587 -0.33317742 -0.25087294 0.0022015008 -0.13850902
0.56717145 0.15806854 0.04514054 -0.25867462 0.089651026 -0.3323982 -0.0333979 -0.29770592
0.42517164 -0.22284979 0.53948677 -0.23701648 -0.49578628 -0.44835132 0.119991235 0.054356743
0.13370462 0.23206766 -0.033043444 -0.025100581 0.52640384 0.31514835 -0.36767653 -0.06746286
-0.527648 0.15307765 0.16083705 0.14218743 -0.09743996 0.12215519 0.23558098 0.031077148
0.09733875 0.72009736 -0.36782143 -0.75995326 0.20379034 0.29975164 0.735431 -0.59176207
-0.15087098 0.35486183 0.11146198 0.200298 0.38445917 0.0212428 -0.09886772 -0.641148
0.10438761 0.45797345 0.123460084 0.69276404 0.30178812 -0.323927 -0.5142217 -0.56926817
-0.06545531 -0.5109229 0.16417888 0.054457154 -0.13365178 -0.51956564 0.18723907 -0.59882575
0.09836565 -0.37115255 -0.43305632 0.20400803 -0.036298547 -0.42363375 0.064203836 0.1304733
-0.46032596 -0.3406138 0.3223572 0.057719957 -0.37846166 -0.2534946 0.49540582 -0.19488087
-0.42151552 0.46501473 0.39629206 0.20122945 0.67097026 0.24130419 -0.20027962 -0.5638979
0.0038325342 -0.014983791 0.044227727 -0.076471865 -0.43115553 -0.2195056 0.37095496 -0.43067735
-0.1970389 0.33408573 -0.4500157 0.07251932 0.3961228 -0.24280076 -0.67560595 0.25474486
-0.47724122 -0.5761689 0.39547876 0.031931605 0.29004744 0.6400448 0.39680114 -0.44642428
0.07808387 0.029743778 -0.46443647 0.32081497 -0.3214007 -0.18737991 0.7774158 -0.26675716
-0.19698033 -0.038585085 0.26146996 0.20093821 -0.01531979 0.41683638 0.35138243 -0.42677152
-0.09872885 0.43360606 -0.26026037 0.29421392 -0.0037142788 -0.75958806 -0.15856493 -0.16162874
-0.37072474 -0.22352226 -0.70086634 0.107362546 -0.15949208 -0.29065314 -0.31563118 0.08819837
-0.30394143 -0.43216816 -0.4175579 0.5145379 -0.2604911 0.009840594 -0.172461 -0.25963572
00000000: 186f 81be ed8f 113f 2bef f53e f803 173e
00000010: 9995 0bbf 7716 c03e 0748 a03e 492e 2fbd
00000020: 2fbc 873e 3fbd 283f 705a 27bd fca5 ef3c
00000030: 0b7b f5be 8fc4 373f 864e ba3e 581f a13e
00000040: 8ff8 8c3e 8ea2 8c3e c3fd a83e c259 953e
00000050: 9711 c6be 3de5 da3d e4e8 5ebd bd1b 16bf
00000060: acfd 6e3d 52ae 103f 701d 023e 9aba 163f
00000070: bb1c ee3d 2cbb a73d 9835 b3be a5c0 18bf
00000080: 1bd0 423d 2b6a 67be 9837 74be 9c00 e1be
00000090: 3328 36be f407 dabe 4813 853e 6e44 d5be
000000a0: 44b5 083f 319e abbd 35c7 0dbf f97c 42bd
000000b0: c199 213f 9655 07bf 17ea 0ebc 3048 1cbe
000000c0: 662b fabe f9b6 8fbe 2171 c93b 59ef 3c3f
000000d0: b5f3 243f afc1 0f3e 9376 d03d c202 513d
000000e0: e720 c73d 4bfc 023f 0477 be3e 3b7f d8bd
000000f0: 9e31 e53d ee50 c73e 00f9 9b3e f2ac efbe
00000100: bb42 2d3e 52a5 573e 116f 2abe ef2a d93e
00000110: f004 fb3e cc51 143e deb4 ac3e 1ca9 8ebe
00000120: 8b52 f53e df42 0f3d 22c6 c8be 3933 60be
00000130: 2fa1 fa3d 072d fcbc 0c8c cbbe 063d 4e3d
00000140: 02fd f6be c462 3bbf be88 2fbe 1f03 183e
00000150: f23c eabd 58ba 94bd 6e07 cabd 18ed 033d
00000160: 29ab a23e 56c1 1fbf 9908 03bf 933f 27bf
00000170: df6b d73d 3ead 5ebf 6737 24be 690a 31be
00000180: 0beb 20bf 9141 68be d9a6 c6bb 270a 9abe
00000190: 3b96 aabe 6b72 80be 0e47 103b 4fd5 0dbe
000001a0: 2632 113f b8dc 213e 49e5 383d 0071 84be
000001b0: f59a b73d 1930 aabe 3dcc 08bd e96c 98be
000001c0: 19b0 d93e bc32 64be ce1b 0a3f 73b4 72be
000001d0: b3d7 fdbe 4e8e e5be f7bd f53d 2da5 5e3d
000001e0: dde9 083e 25a3 6d3e 9058 07bd bc9f cdbc
000001f0: 67c2 063f 205b a13e 1940 bcbe f829 8abd
00000200: f013 07bf 63c0 1c3e 78b2 243e 9599 113e
00000210: 9a8e c7bd 802c fa3d 243c 713e 8195 fe3c
00000220: 8a59 c73d 4d58 383f 1753 bcbe 4c8c 42bf
00000230: 6aae 503e 0c79 993e 3545 3c3f b87d 17bf
00000240: ec7d 1abe 73b0 b53e 2e46 e43d eb1a 4d3e
00000250: d5d7 c43e 6105 ae3c 297b cabd 4622 24bf
00000260: 2cc9 d53d 7f7b ea3e a4d8 fc3d fc58 313f
00000270: f983 9a3e c2d9 a5be 09a4 03bf 8fbb 11bf
00000280: 6f0d 86bd d8cb 02bf 821e 283e 770e 5f3d
00000290: 03dc 08be 4102 05bf 99bb 3f3e a54c 19bf
000002a0: ee73 c93d b507 bebe 8fb9 ddbe 7be7 503e
000002b0: c9ad 14bd 86e6 d8be 4d7d 833d cb9a 053e
000002c0: d8af ebbe ef64 aebe 010c a53e c36b 6c3d
000002d0: bac5 c1be 0bca 81be d5a5 fd3e da8e 47be
000002e0: e2d0 d7be 6916 ee3e cbe6 ca3e 180f 4e3e
000002f0: b5c4 2b3f 7218 773e 1a16 4dbe 9d5b 10bf
00000300: 412b 7b3b 937e 75bc 2228 353d 489d 9cbd
00000310: 6bc0 dcbe 13c6 60be cfed bd3e be81 dcbe
00000320: 91c4 49be 490d ab3e 7568 e6be 0285 943d
00000330: 9cd0 ca3e c3a0 78be 83f4 2cbf eb6d 823e
00000340: f658 f4be ce7f 13bf 317c ca3e b7ca 023d
00000350: 1981 943e fad9 233f 8529 cb3e b991 e4be
00000360: 70ea 9f3d 39a9 f33c 9eca edbe dc41 a43e
00000370: a28e a4be 85e0 3fbe b904 473f 6594 88be
00000380: 36b5 49be 650b 1ebd 64df 853e bfc2 4d3e
00000390: dbff 7abc 946b d53e 66e8 b33e cc81 dabe
000003a0: 5a32 cabd 9d01 de3e d940 85be 35a3 963e
000003b0: 426b 73bb 5d74 42bf d85e 22be 0182 25be
000003c0: a2cf bdbe 05e3 64be fa6b 33bf e5e0 db3d
000003d0: e451 23be 7dd0 94be 699a a1be 59a1 b43d
000003e0: 369e 9bbe 2545 ddbe 26ca d5be c1b8 033f
000003f0: 175f 85be 713a 213c 9e99 30be f9ee 84be

net.0.bias f4 [20]
-0.1704668 -0.0758747 0.08907752 -0.21499266 0.035185326 0.3850249 -0.031896096 0.12915774
0.14304025 -0.19623612 0.34684375 -0.14405365 0.18230462 -0.16423787 0.65358984 0.45526946
-0.055348318 -0.17424007 0.3249727 -0.021446044
00000000: d98e 2ebe 3264 9bbd 466e b63d 0927 5cbe
00000010: 7d1e 103d fc21 c53e 7ba5 02bd ed41 043e
00000020: 2579 123e 1ff2 48be 8195 b13e cd82 13be
00000030: 10ae 3a3e f92d 28be aa51 273f 1419 e93e
00000040: ebb4 62bd fd6b 32be d262 a63e 9daf afbc

net.2.weight f4 [20, 20]
-0.68142134 -0.52190447 0.603084 -0.7320363 0.23394147 0.5893969 -0.61748374 -0.30421722
0.557455 -0.5634883 0.7467337 -0.76973075 0.0392704 -1.2328187 -0.110298164 0.14295532
-1.2180889 -1.0277938 0.6663077 -0.07625347 -0.36294276 -0.44545302 0.6133717 -0.091374375
0.48984233 0.38487574 0.024258155 -0.40314415 0.4220197 -0.054686137 0.9120651 -0.3197385
0.044644423 -0.09115617 -0.6997537 -0.8798824 -0.1387236 -0.53873193 0.16695072 -0.7371288
0.026617937 -0.1658676 0.15412511 -0.62391275 0.043108113 0.28905877 -0.18466383 0.44959605
-0.030408282 -0.002429879 -0.02109037 0.059754375 0.28486776 -0.08667058 -0.03895645 0.32169652
0.3609812 -0.5409326 0.27436408 -0.29891562 -0.28122565 0.23572814 0.18172945 0.60224795
-0.15004095 0.5812392 -0.017342618 -0.16687791 -0.14293617 0.26708463 0.13838468 -0.5441538
0.12377228 0.4182401 0.10125644 -0.26818678 -0.5017008 -0.16950804 0.3811904 -0.1391261
-0.43179062 0.2870092 0.44878325 -0.45623234 -0.5000114 -0.45326898 0.16127998 -0.032102693
-0.3891947 -0.59852034 0.5103704 -0.08265715 0.3727377 -0.45304358 -0.12136979 0.25518867
-0.10442918 -0.42744967 -0.35691172 -0.5960928 0.58377856 0.18271726 -0.2926554 -0.03707316
-0.26151967 -0.2266521 -0.019427126 0.7439494 -0.3290835 0.22470756 0.013063787 0.14549051
-0.21728987 -0.07727065 0.43197778 0.037202448 0.21560407 -0.025604 -0.89758694 0.37032843
1.1104962 -0.062343128 -0.09997556 0.14323062 -0.20226087 -0.43953803 1.019425 0.3926908
-0.19276042 0.7018283 -0.5505443 0.95251465 -0.3656885 0.39709204 -0.5347244 0.31465587
0.48545328 0.68563926 -0.24729815 0.29743627 -0.11477277 -0.6051209 -0.2803516 -0.48274857
0.55673337 0.25906402 -0.04767742 0.1872313 0.35914588 -0.51307803 0.2464331 -0.020651963
0.524348 -0.31439307 0.2841838 -0.051644154 0.015995374 -0.17106839 0.13267186 0.42128536
-0.39889634 0.10345706 -0.052031465 -0.4372039 0.011919226 -0.12040602 -0.38625306 0.84370244
0.73673874 -0.5250063 0.42658532 0.3064836 0.10059653 -0.14659116 0.44182807 0.52905977
0.3105151 -0.3179853 -0.17967667 -0.1433772 0.60942364 0.7628416 -0.2797302 0.632313
-0.43857098 -0.30333748 0.28652605 0.06381203 -0.06942308 -0.11925345 0.10212108 -0.17082658
-0.8205549 -0.03149204 0.24252053 -0.56591743 0.23482049 0.46651506 -0.08120284 0.5460527
-0.30774125 0.04165976 0.3018345 0.113482416 0.40722945 0.93279517 -0.36274523 0.33691847
0.026871162 0.37994242 0.39819652 -0.61994636 -0.17697993 -0.20201474 0.60136265 0.13443038
0.46211046 -0.20650849 -0.011791993 -0.1944051 0.21216536 0.06372848 -0.058437925 0.4315212
-0.15126179 -0.38736817 0.4739375 -0.25925097 -0.19424938 0.4268173 -0.48441556 -0.085111074
-0.47509217 0.3867521 -0.42327425 -0.29578704 -0.17034067 -0.31424043 -0.56480014 0.36232227
-0.54504347 -0.44039312 -0.2453444 -0.6121059 -0.1305041 0.73433673 -0.29543272 -0.3121474
0.120361544 -0.06969204 0.08387159 -0.30735034 0.4249609 -0.17727311 0.31718016 0.30897
00000000: a171 2ebf 889b 05bf b763 1a3f bb66 3bbf
00000010: 5a8e 6f3e b7e2 163f 6a13 1ebf 5cc2 9bbe
00000020: 5fb5 0e3f c540 10bf f129 3f3f 130d 45bf
00000030: 00da 203d 01cd 9dbf 01e4 e1bd e162 123e
00000040: 56ea 9bbf bf8e 83bf 2493 2a3f c72a 9cbd
00000050: a2d3 b9be 6b12 e4be ed05 1d3f 7d22 bbbd
00000060: 9dcc fa3e 6f0e c53e 0ab9 c63c e968 cebe
00000070: f712 d83e 92fe 5fbd 197d 693f c4b4 a3be
00000080: 12dd 363d 16b0 babd 0f23 33bf f93f 61bf
00000090: 8f0d 0ebe 56ea 09bf 21f5 2a3e 79b4 3cbf
000000a0: dc0d da3c 32d9 29be f9d2 1d3e bfb8 1fbf
000000b0: 2292 303d 83ff 933e 8418 3dbe 7431 e63e
000000c0: ca1a f9bc 9b3e 1fbb b6c5 acbc 01c1 743d
000000d0: 30da 913e 5880 b1bd cc90 1fbd 68b5 a43e
000000e0: 87d2 b83e 8f7a 0abf 7379 8c3e 780b 99be
000000f0: cffc 8fbe b862 713e 4917 3a3e ec2c 1a3f
00000100: 56a4 19be 18cc 143f 1b12 8ebc 0be2 2abe
00000110: dc5d 12be 51bf 883e b7b4 0d3e aa4d 0bbf
00000120: 527c fd3d 9123 d63e 895f cf3d c74f 89be
00000130: 776f 00bf 8493 2dbe 632b c33e 1377 0ebe
00000140: a913 ddbe dff2 923e ebc6 e53e 4997 e9be
00000150: bf00 00bf df12 e8be 9426 253e 1d7e 03bd
00000160: 8744 c7be a138 19bf a2a7 023f 2748 a9bd
00000170: 7ad7 be3e 54f5 e7be b990 f8bd 17a8 823e
00000180: f7de d5bd afda dabe 22bd b6be 8a99 18bf
00000190: 8372 153f 3c1a 3b3e eed6 95be 07da 17bd
000001a0: e8e5 85be 7d17 68be a325 9fbc 7873 3e3f
000001b0: a27d a8be bd19 663e 7e09 563c 77fb 143e
000001c0: 3c81 5ebe 1340 9ebd 312c dd3e 9861 183d
000001d0: 50c7 5c3e 7bbf d1bc 42c8 65bf b09b bd3e
000001e0: bd24 8e3f 825b 7fbd fdbf ccbd 0cab 123e
000001f0: 791d 4fbe 210b e1be 857c 823f c50e c93e
00000200: fd62 45be 05ab 333f 79f0 0cbf 00d8 733f
00000210: 863b bbbe a64f cb3e b3e3 08bf 931a a13e
00000220: 558d f83e 0e86 2f3f ba3b 7dbe 9149 983e
00000230: fc0d ebbd 34e9 1abf 3f8a 8fbe d22a f7be
00000240: 1486 0e3f 0aa4 843e 6649 43bd 90b9 3f3e
00000250: f8e1 b73e 1559 03bf f558 7c3e 4e2e a9bc
00000260: ac3b 063f 21f8 a0be 8a80 913e d288 53bd
00000270: bb08 833c 8d2c 2fbe 22db 073e b7b2 d73e
00000280: 243c ccbe 4ce1 d33d f21e 55bd 31d9 dfbe
00000290: db48 433c 6e97 f6bd f6c2 c5be e2fc 573f
000002a0: e99a 3c3f d066 06bf 6469 da3e 6beb 9c3e
000002b0: 8e05 ce3d fe1b 16be 4a37 e23e 7670 073f
000002c0: d6fb 9e3e f8ce a2be 29fd 37be 79d1 12be
000002d0: 3003 1c3f 9649 433f cc38 8fbe 44df 213f
000002e0: 608c e0be 0d4f 9bbe 8bb3 923e e2af 823d
000002f0: b02d 8ebd 273b f4bd db24 d13d 2aed 2ebe
00000300: e30f 52bf ccfd 00bd 4d57 783e f7df 10bf
00000310: c874 703e 10db ee3e ad4d a6bd 1cca 0b3f
00000320: 4390 9dbe 6da3 2a3d 0d8a 9a3e 7869 e83d
00000330: 6180 d03e aacb 6e3f beb9 b9be 9480 ac3e
00000340: e920 dc3c d087 c23e 6ae0 cb3e ceb4 1ebf
00000350: 3a3a 35be f4dc 4ebe e7f2 193f 1ea8 093e
00000360: be99 ec3e f676 53be 3433 41bc 2112 47be
00000370: e041 593e 1484 823d 9b5c 6fbd 59f0 dc3e
00000380: 5fe4 1abe 1f55 c6be f0a7 f23e 8bbc 84be
00000390: 4fe9 46be cc87 da3e 5105 f8be b74e aebd
000003a0: 483f f3be 5f04 c63e 67b7 d8be 6671 97be
000003b0: c96d 2ebe 1fe4 a0be be96 10bf 4e82 b93e
000003c0: f887 0bbf 357b e1be 903b 7bbe f9b2 1cbf
000003d0: dea2 05be 7efd 3b3f f542 97be c9d1 9fbe
000003e0: 1d80 f63d b3ba 8ebd dec4 ab3d 065d 9dbe
000003f0: 7a94 d93e 1587 35be 7065 a23e 5131 9e3e

net.2.bias f4 [20]
0.20721786 -0.3565324 0.37305152 0.16133814 0.1274497 0.29830965 -0.33385456 0.3075956
0.4870466 0.0996376 0.26125076 -0.5525615 0.46312743 -0.22308667 -0.210166 -0.0150146745
-0.28509197 0.19413516 -0.17421094 -0.30174258
00000000: eb30 543e 6a8b b6be 9c00 bf3e d335 253e
00000010: 2d82 023e 0bbc 983e fcee aabe 2c7d 9d3e
00000020: 2c5e f93e cc0e cc3d a9c2 853e ac74 0dbf
00000030: 0a1f ed3e d570 64be c235 57be 1c00 76bc
00000040: 93f7 91be 5ecb 463e 5a64 32be 017e 9abe

net.4.weight f4 [20, 20]
-0.3836351 -0.55420315 0.5551099 -0.35090858 -0.80599934 0.32479548 1.3025144 -0.20085377
-0.31936187 -0.35729083 -0.55262274 -0.623288 -0.9623907 -0.47360188 0.69910765 2.1631353
2.2645292 0.8029929 0.010161745 1.151979 0.063708484 -0.66994506 0.52557087 -0.16277954
0.36306053 -0.06402001 0.5038027 0.27771166 -0.2898946 0.2801741 0.39108557 -0.5462968
0.0026340166 -0.071041815 -0.14393988 -0.038749315 0.2836248 0.005815388 -0.041828927 0.041362587
-0.5642712 -0.019688686 -0.76026136 -0.13531356 -0.6233575 -0.5688664 -0.25698525 -0.25744203
-0.6959082 -0.13815565 0.0072641545 0.68723524 -0.16465883 0.16622935 0.19904935 -0.30797887
0.33665663 -0.26236984 -0.4652049 0.23376545 0.107574224 -0.84967285 0.8251731 -0.18909958
0.020130873 0.84636796 0.6276349 -0.31889522 -0.07299846 0.7554697 0.39742664 0.026571518
0.12865426 -0.19879073 -0.40719122 0.07959131 0.23971352 -0.5486534 0.18616162 -0.09045559
-0.5894137 -0.065344624 -0.12707657 -0.08514498 0.24996914 -0.2720058 0.12223262 -0.35411942
-0.23663397 0.043881312 -0.8737739 0.48352256 -0.52226275 -0.3449039 0.05014667 0.49068987
0.116617456 -0.035666253 0.10705384 0.14567928 0.1984466 0.94932693 -0.6513382 -0.07980911
0.48519942 -0.3466292 -0.13010386 0.07491234 -0.23789139 -0.11263412 -0.22763143 0.5234347
-0.019921314 0.72938615 -0.16009207 0.09084344 -0.26724333 0.61923254 -0.58357567 -0.3518593
0.028953388 -0.46816868 0.1499106 0.04227149 0.5620241 0.024064962 -0.21117562 0.39736053
0.4436997 0.25861982 0.5696821 -0.3905585 -0.2403006 -0.20171592 -0.3162767 -0.08329133
-0.004019606 0.33826062 -0.4520799 -0.16073354 -0.12518187 0.1440881 0.31991237 0.098586924
0.24463195 0.29983175 -0.8517312 0.07373884 0.0337267 -0.6484181 0.0868535 -0.081950076
0.9062185 -0.19756234 0.05857777 -0.13132924 -0.24244808 -0.21426344 -0.58197004 -0.44470719
-0.7776701 -0.50888026 -0.2134861 -0.23939824 -0.4323319 0.09333023 0.41441134 -0.5426863
-0.30250105 -0.26837912 -0.23472928 -0.19714394 -0.8380936 -0.32693547 -0.26235923 0.46082672
0.478028 -0.8536981 0.7711325 -0.28096896 1.070364 -0.34180796 0.19931485 0.25577492
0.58558065 0.30609274 -0.71896017 -0.33047786 0.8222991 -0.54797757 0.71105886 0.18742532
0.11659404 -0.49782804 -0.2276648 -0.28941652 0.08975678 0.07979089 -0.1545978 -0.020771014
-0.6060835 -0.16476557 0.6817044 -0.3830275 0.032485187 0.7600907 0.3027312 -0.37756315
0.26824984 0.5351473 0.12648611 -0.6282703 -0.20702091 -0.3499506 0.17967436 0.11756852
-0.09042752 -0.4284276 0.09688354 0.07137078 0.17597495 -0.11887272 0.3829523 -0.17520651
-0.33005217 0.23002745 0.012335685 0.20644327 0.41853157 -0.27452412 0.14531067 -0.47884217
-0.06678898 -0.32669792 -0.011096871 0.030912286 -0.4650575 -0.24978852 0.3212322 -0.3997776
0.30268237 -0.20068605 0.010803738 -0.06482865 0.5454467 0.22189175 -0.177379 -0.04336215
-0.2870668 0.16149135 -0.42221537 0.20185097 0.027940053 -0.07724916 0.6512335 -0.04234227
00000000: d26b c4be 42e0 0dbf af1b 0e3f 4aaa b3be
00000010: f955 4ebf 984b a63e cbb8 a63f 9cac 4dbe
00000020: 6683 a3be d3ee b6be af78 0dbf cd8f 1fbf
00000030: 3d5f 76bf f27b f2be b8f8 323f cf70 0a40
00000040: 0cee 1040 f190 4d3f 737d 263c 0c74 933f
00000050: 9879 823d 8581 2bbf d08b 063f aeaf 26be
00000060: 12e3 b93e ec1c 83bd 37f9 003f 3930 8e3e
00000070: 116d 94be fb72 8f3e 5e3c c83e 1bda 0bbf
00000080: 779f 2c3b 5f7e 91bd fa64 13be 9ab7 1ebd
00000090: 4537 913e 038f be3b cf54 2bbd d16b 293d
000000a0: 1474 10bf 2b4a a1bc 7da0 42bf a38f 0abe
000000b0: 5b94 1fbf 3aa1 11bf 9293 83be 71cf 83be
000000c0: 0a27 32bf ad78 0dbe 2508 ee3b a6ee 2f3f
000000d0: 539c 28be 0738 2a3e 98d3 4b3e 68af 9dbe
000000e0: 425e ac3e 5755 86be 562f eebe 3660 6f3e
000000f0: e04f dc3d 2984 59bf 8b3e 533f 52a3 41be
00000100: 80e9 a43c 92ab 583f aeac 203f 3c46 a3be
00000110: 3780 95bd 7666 413f 817b cb3e 83ac d93c
00000120: f1bd 033e cc8f 4bbe 5e7b d0be c500 a33d
00000130: 7677 753e 8d74 0cbf 27a1 3e3e c840 b9bd
00000140: d1e3 16bf 67d3 85bd 5c20 02be 7e60 aebd
00000150: e9f7 7f3e 5844 8bbe 1955 fa3d 244f b5be
00000160: 2d50 72be e4bc 333d a5af 5fbf 4590 f73e
00000170: 03b3 05bf 3e97 b0be 9866 4d3d b43b fb3e
00000180: 22d5 ee3d c716 12bd 0b3f db3d f32c 153e
00000190: 9635 4b3e 1707 733f 1abe 26bf f572 a3bd
000001a0: 0f6c f83e 6279 b1be f239 05be a46b 993d
000001b0: cd99 73be b8ac e6bd 3718 69be d1ff 053f
000001c0: 0632 a3bc 0db9 3a3f 2def 23be 200c ba3d
000001d0: 1ed4 88be 0686 1e3f 3765 15bf e726 b4be
000001e0: a82f ed3c ceb3 efbe 2a82 193e df24 2d3d
000001f0: d0e0 0f3f e223 c53c 6c3e 58be d772 cb3e
00000200: 9b2c e33e d169 843e b0d6 113f 49f7 c7be
00000210: 5c11 76be 9e8e 4ebe 05ef a1be a594 aabd
00000220: e6b6 83bb 7f30 ad3e 0477 e7be 5597 24be
00000230: ad2f 00be d58b 133e 8ecb a33e f1e7 c93d
00000240: cc80 7a3e 8c83 993e 0e0b 5abf 6404 973d
00000250: 0225 0a3d bbfe 25bf 3fe0 b13d 71d5 a7bd
00000260: f0fd 673f c84d 4abe 3eef 6f3d 2c7b 06be
00000270: 4f44 78be e067 5bbe fdfb 14bf a9b0 e3be
00000280: 6315 47bf fa45 02bf 1a9c 5abe d024 75be
00000290: 9b5a ddbe eb23 bf3d b92d d43e 7ded 0abf
000002a0: 6be1 9abe fd68 89be df5c 70be 1ae0 49be
000002b0: 4d8d 56bf 1664 a7be f353 86be 7bf1 eb3e
000002c0: 16c0 f43e f58b 5abf f168 453f 2adb 8fbe
000002d0: b001 893f 7401 afbe 3119 4c3e eef4 823e
000002e0: 9de8 153f 30b8 9c3e c60d 38bf 6534 a9be
000002f0: 3282 523f 4248 0cbf f407 363f 6cec 3f3e
00000300: dbc8 ee3d 51e3 febe f620 69be 672e 94be
00000310: 67d2 b73d 6869 a33d e34e 1ebe f927 aabc
00000320: 4a28 1bbf 4eb8 28be 2e84 2e3f 2e1c c4be
00000330: 300f 053d 4e95 423f 95ff 9a3e f54f c1be
00000340: 0b58 893e 6aff 083f 9385 013e 53d6 20bf
00000350: 4afd 53be ba2c b3be 8efc 373e c4c7 f03d
00000360: 1032 b9bd dd5a dbbe e16a c63d d82a 923d
00000370: c732 343e 8a73 f3bd 5312 c43e 5669 33be
00000380: 99fc a8be 518c 6b3e 9d1b 4a3c dd65 533e
00000390: c549 d63e 6d8e 8cbe 52cc 143e cd2a f5be
000003a0: a9c8 88bd f344 a7be a7cf 35bc c33b fd3c
000003b0: 041c eebe 90c8 7fbe 8c78 a43e a6af ccbe
000003c0: 2ff9 9a3e a580 4dbe 2902 313c e2c4 84bd
000003d0: 65a2 0b3f 9737 633e d7a2 35be 839c 31bd
000003e0: 6bfa 92be fd5d 253e 9d2c d8be 05b2 4e3e
000003f0: 8ae2 e43c cf34 9ebd 3db7 263f 176f 2dbd

net.4.bias f4 [20]
0.42191195 0.3050668 -0.2587864 0.30013224 -0.1078804 -0.45708457 0.21788739 0.11816182
-0.10531738 0.31356907 0.19326136 -0.009351727 -0.008459406 -0.34985244 -0.33592522 -0.23215619
0.23098285 -0.05054589 0.040550023 -0.13362561
00000000: d804 d83e b731 9c3e a77f 84be efaa 993e
00000010: 66f0 dcbd fd06 eabe df1d 5f3e d3fe f13d
00000020: a3b0 d7bd 208c a03e 4ee6 453e fc37 19bc
00000030: 5299 0abc dc1f b3be 64fe abbe 5aba 6dbe
00000040: c586 6c3e 3509 4fbd c817 263d 27d5 08be
